src/psiformer_torch/checkpoints/last_checkpoint.pth (torch, 56271 bytes, 12 tensors)

f_1.weight f4 [32, 4]
0	0x3e812960	0.2522688
1	0xbf07b982	-0.5301744
2	0xbf3ae4ec	-0.7300556
3	0xbf91919d	-1.1372563
4	0x3f17fa6b	0.5936648
5	0xbf3bb295	-0.7331937
6	0xbef45777	-0.4772298
7	0xbf66936b	-0.9006869
8	0xbf7d5567	-0.9895844
9	0x3f8238fe	1.0173643
10	0x3f1c36ca	0.610211
11	0x3f8e4734	1.111548
12	0xbeb3ea31	-0.3513961
13	0x3f522307	0.820847
14	0x3f56da9b	0.83927315
15	0x3f2be9db	0.6715371
16	0x3f02f85b	0.5116021
17	0xbf8bea6b	-1.0930914
18	0xbe64e817	-0.2235416
19	0xbf84e40e	-1.0382097
20	0xbf8ee632	-1.1164
21	0x3edaf1a6	0.42762488
22	0x3f88dfc8	1.0693293
23	0x3e9a39bb	0.3012217
24	0xbf27ec90	-0.6559534
25	0x3f6b2371	0.91850954
26	0x3f86efd4	1.054194
27	0x3ef7e7a2	0.4841891
28	0xbf3951d2	-0.7239047
29	0x3f6a45d3	0.91512793
30	0x3f385e78	0.7201915
31	0x3f88d217	1.0689114
32	0x3eaa9602	0.33317572
33	0xbf829622	-1.0202067
34	0xbf6bb162	-0.9206754
35	0xbf453b5b	-0.77043694
36	0xbf6fc98a	-0.936669
37	0x3f302f63	0.68822306
38	0x3e4d4354	0.20045215
39	0x3f8bfcbf	1.0936507
40	0xbf910908	-1.1330881
41	0x3ec42d18	0.38315654
42	0x3f338694	0.70127225
43	0x3f1fa904	0.6236727
44	0x3f37cd60	0.7179775
45	0xbf714a6c	-0.94254184
46	0xbf5434e9	-0.82893234
47	0xbec814f4	-0.39078486
48	0xbf399ed3	-0.7250797
49	0x3ea94b70	0.33065367
50	0x3f589a97	0.84610885
51	0x3f82fda3	1.0233654
52	0x3f541e7c	0.82859015
53	0xbf8d667c	-1.1046901
54	0xbf0f7ded	-0.5605152
55	0xbedf5cd5	-0.43625513
56	0x3f76bc4f	0.96381086
57	0xbf0f0a3d	-0.55875
58	0xbf649a82	-0.8929826
59	0xbf8e6890	-1.112566
60	0xbf1bca9d	-0.6085604
61	0x3ed64b48	0.4185431
62	0x3f3d5989	0.73964745
63	0x3f75de66	0.9604248
64	0x3ee2d753	0.44304904
65	0xbed111c6	-0.40833873
66	0xbf2e81d5	-0.6816686
67	0xbf6df452	-0.9295093
68	0xbedf92f0	-0.43666792
69	0x3f13aa48	0.57681704
70	0x3f807f98	1.0038939
71	0x3f4eb6ca	0.80747664
72	0xbf770096	-0.9648527
73	0x3f750f3f	0.9572639
74	0x3f530985	0.824364
75	0x3f89b7d1	1.0759221
76	0xbeb9bf67	-0.3627884
77	0x3f742ee8	0.95384073
78	0x3f1f3595	0.62191135
79	0x3f666aa3	0.90006465
80	0x3f0e2bd7	0.55535644
81	0xbeb972c0	-0.3622036
82	0xbf18c317	-0.59672683
83	0xbf619b70	-0.88127804
84	0x3f0b92ef	0.5452108
85	0xbf8b4757	-1.0881146
86	0xbf223f34	-0.6337769
87	0xbf387a24	-0.7206137
88	0x3f928c28	1.1449022
89	0xbf4b26ad	-0.7935589
90	0xbe74b218	-0.23896062
91	0xbf512a6c	-0.81705356
92	0x3f703af2	0.93839943
93	0xbf85164d	-1.0397431
94	0xbf80ebb0	-1.0071926
95	0xbeb35d28	-0.3503201
96	0xbf249e52	-0.6430408
97	0x3f00a8aa	0.5025736
98	0x3f88faf2	1.0701582
99	0x3f83d455	1.0299174
100	0xbf90af34	-1.1303468
101	0x3e892d2b	0.26792273
102	0x3ebe28af	0.37140414
103	0x3f712d34	0.942096
104	0x3f2a9982	0.66640484
105	0xbf575093	-0.8410732
106	0xbf92622d	-1.1436211
107	0xbe9df8d2	-0.30853897
108	0x3f930524	1.1485944
109	0xbf1c2ca3	-0.6100561
110	0xbee86997	-0.4539306
111	0xbf3ca91e	-0.7369555
112	0x3e4d7b81	0.20066644
113	0xbf81d44b	-1.0142912
114	0xbf545d3a	-0.8295475
115	0xbf86b070	-1.0522594
116	0xbf0102ef	-0.503951
117	0x3f3c96f2	0.73667824
118	0x3f59f405	0.8513797
119	0x3f2a5a56	0.6654409
120	0x3f634659	0.88779217
121	0xbea254e2	-0.31705385
122	0xbf248b9f	-0.64275545
123	0xbf7df454	-0.9920094
124	0xbf86c4b9	-1.0528785
125	0x3f8aed83	1.0853733
126	0x3f3c58f1	0.73573214
127	0x3f887837	1.0661687

f_1.bias f4 [32]
0	0x3e6de9ef	0.2323377
1	0xbda479aa	-0.08031018
2	0x3e12fb04	0.14353567
3	0xbe52c4ee	-0.20582935
4	0xbed545ea	-0.41654903
5	0xbe43d262	-0.19123223
6	0x3c725bac	0.014792364
7	0x3eb0bf50	0.3452096
8	0xbecc990a	-0.3996051
9	0x3e13c609	0.14431013
10	0xbeb9fc32	-0.36325222
11	0x3edcd8d6	0.43134183
12	0xbed5ace1	-0.4173346
13	0x3ddd933d	0.10819099
14	0xbe92746e	-0.28604454
15	0x3e776a5e	0.2416167
16	0xbea5c42c	-0.3237623
17	0x3e81f177	0.25379536
18	0xbd8817dc	-0.06645176
19	0x3dba8e1b	0.09109136
20	0xbe140568	-0.14455187
21	0x3ebb4401	0.3657532
22	0x3ea7e847	0.327944
23	0x3ec50e2d	0.38487378
24	0x3ea426e1	0.32060912
25	0x3e8e3053	0.27771243
26	0x3ee1f24e	0.44130176
27	0xbea1c52d	-0.31595746
28	0x3ed09796	0.4074065
29	0xbdd1ccb1	-0.1024412
30	0x3ec21ec8	0.3791411
31	0x3e0da18a	0.13831154

f_h.attn.c_attn.weight f4 [96, 32]
0	0xbdd14419	-0.10218067
1	0xbe17a172	-0.1480768
2	0x3df30b6a	0.118674114
3	0xbdfa800e	-0.12231456
4	0x3bd75300	0.0065711737
5	0x3d442394	0.047885492
6	0x3cffc598	0.03122215
7	0x3dba8ec2	0.0910926
8	0x3d912070	0.07086265
9	0xbd8778e1	-0.06614853
10	0xbdc014e4	-0.093789846
11	0xbcc2bc20	-0.023771346
12	0xbbfd0840	-0.0077219307
13	0x3e03e5d1	0.12880637
14	0x3dce055a	0.100596145
15	0x3d440780	0.047858715
16	0xbc0d5960	-0.008627266
17	0xbdcea11f	-0.10089325
18	0xbc835f78	-0.016036734
19	0x3e2ca9cf	0.16861652
20	0x3e2db729	0.16964401
21	0xbddceb7e	-0.10787104
22	0xbd5afbb6	-0.053462707
23	0x3e1d87ed	0.15383883
24	0xbda23eb0	-0.07922113
25	0xbd87cfd5	-0.06631438
26	0x3e24fc4f	0.16111873
27	0xbd36e098	-0.044647783
28	0xbe1d8921	-0.15384342
29	0x3e2d3997	0.169165
30	0x3dafdf0a	0.08587463
31	0xbe1d1d99	-0.15343322
32	0x3e33afab	0.17547481
33	0x3c5dc7a0	0.013536364
34	0xbe03559d	-0.12825628
35	0xbe14b34b	-0.1452152
36	0xbe1764d2	-0.14784554
37	0xbe19e7ec	-0.15029877
38	0x3df7e156	0.12103526
39	0x3e0cd64f	0.13753627
40	0x3e299675	0.16561301
41	0x3e2fb041	0.1715708
42	0x3dc5461a	0.096325114
43	0x3b17f240	0.0023185164
44	0x3d94421c	0.07239172
45	0xbde6aec3	-0.11263802
46	0x3d3ccd7c	0.046094403
47	0xbdf4bdb2	-0.11950244
48	0xbddf05e1	-0.10889793
49	0xbd2fe7e4	-0.042945758
50	0x3e103ecb	0.14086454
51	0xbe0cc467	-0.13746797
52	0xbd786134	-0.060639575
53	0xbdce77a2	-0.10081412
54	0xbd98e952	-0.07466377
55	0x3b0b7480	0.0021279156
56	0xbc9eb1e8	-0.019371942
57	0x3e11e7d5	0.14248593
58	0x3dfea6b6	0.12434141
59	0xbcd22088	-0.025650278
60	0xbd42c658	-0.047552437
61	0x3ca71670	0.020396441
62	0xbdd26d02	-0.10274698
63	0x3da5b55e	0.08091234
64	0x3d24b41c	0.04021083
65	0x3da6e3be	0.08148907
66	0x3e08a9e9	0.13346066
67	0xbda8b04b	-0.0823675
68	0x3d97d7fe	0.07414244
69	0xbe13630a	-0.14393249
70	0x3dc331b6	0.09530966
71	0x3c86e9a0	0.016468823
72	0x3de77f6e	0.11303602
73	0xbe08f2e9	-0.13373913
74	0x3e1bd43b	0.15217678
75	0x3d2dbe30	0.042417705
76	0xbda574fa	-0.08078952
77	0x3da5173a	0.08061071
78	0x3e11f1ed	0.14252444
79	0x3d9ecd3a	0.077539876
80	0xbe2d0dae	-0.1689975
81	0x3e2bc4e9	0.16774334
82	0xbe184133	-0.14868622
83	0x3e2079f7	0.15671526
84	0x3d8d81f4	0.06909552
85	0xbdc7ecd4	-0.09761968
86	0x3e325b4d	0.17417641
87	0x3e0047d9	0.12527408
88	0xbd867cff	-0.0656681
89	0x3c428520	0.01187256
90	0x3da1c066	0.07898025
91	0x3d7afac4	0.061274305
92	0x3e2a76df	0.16646908
93	0x3d669ff8	0.0563049
94	0x3da6ad6a	0.08138545
95	0x3e13870d	0.14406987
96	0xbd81ed1c	-0.06344053
97	0xbdec7db6	-0.11547415
98	0x3dbff26a	0.09372409
99	0x3c185a00	0.009298801
100	0xbe3310af	-0.17486833
101	0xbe25ff04	-0.16210562
102	0xbe288c5b	-0.16459791
103	0x3df05c16	0.11736314
104	0xbc9b9f28	-0.01899679
105	0x3d888b8e	0.06667243
106	0xbe2b8faf	-0.1675403
107	0x3da03e26	0.07824354
108	0xbddedc42	-0.108818546
109	0x3d42d384	0.047565
110	0x3e0212bd	0.1270246
111	0x3dbcca5a	0.09218283
112	0xbd2da674	-0.04239507
113	0xbc518b00	-0.012789488
114	0xbe2e7cff	-0.1703987
115	0xbe1c5da2	-0.15270093
116	0xbd9b94b2	-0.07596721
117	0x3dc38872	0.09547509
118	0xbe083930	-0.13303065
119	0x3e1ac10d	0.15112706
120	0xbe26ca1d	-0.16288038
121	0xbdc93c93	-0.09826007
122	0x3d48a090	0.04898125
123	0xb95b3000	-0.00020903349
124	0x3e2018e3	0.15634494
125	0xbdf97bc8	-0.121818125
126	0xbcf82a20	-0.030293524
127	0x3d8e7e72	0.06957711
128	0x3d49b10c	0.04924111
129	0x3dc1bc5a	0.09459753
130	0x3de4eaca	0.11177595
131	0xbcabd3d8	-0.020975038
132	0x3e131145	0.14362057
133	0x3c5e6fb0	0.013576433
134	0xbd8e0253	-0.06934037
135	0xbd56c928	-0.05243793
136	0x3e04214f	0.12903331
137	0x3a581100	0.00082422793
138	0x3e170863	0.14749293
139	0xbe2e6792	-0.17031696
140	0x3b79d9c0	0.0038124174
141	0x3e2e52a9	0.1702372
142	0xbe13760e	-0.14400503
143	0xbdd1429c	-0.10217783
144	0xbda18110	-0.07885945
145	0x3dbb16e6	0.09135227
146	0x3db3eb36	0.08785097
147	0xbe01f29c	-0.12690204
148	0x3dd7fc8a	0.10546215
149	0xbe0743fe	-0.1320953
150	0xbc8cbd78	-0.01718019
151	0x3e0434b1	0.12910725
152	0x3b32b3c0	0.0027267784
153	0xbde4770b	-0.11155518
154	0x3dfbc8d2	0.12294163
155	0x3dd8bf12	0.10583319
156	0x3d994bf2	0.074851885
157	0xbb9c6ae0	-0.0047734827
158	0xbe2ba1de	-0.16760966
159	0xbd1c3a88	-0.038141757
160	0x3e234357	0.15943657
161	0x3d6d2e80	0.057905674
162	0x3df9ae5a	0.12191458
163	0xbd2e3cc8	-0.042538434
164	0xbd8cbf0c	-0.06872377
165	0xbcb9c968	-0.022679046
166	0x3d752dbc	0.05985807
167	0x3e0f657d	0.14003558
168	0x3e269603	0.16268162
169	0xbe2602e2	-0.16212037
170	0xbda9bb8e	-0.08287726
171	0xbd884550	-0.06653845
172	0x3df717fa	0.1206512
173	0xbce74cd8	-0.028234884
174	0xbe1969fa	-0.14981833
175	0xbc5fdfb0	-0.013664171
176	0x3d4a3be8	0.049373537
177	0x3e0d6f61	0.13812019
178	0xbe00641d	-0.1253819
179	0xbdc8332a	-0.09775384
180	0xbde162f3	-0.11005201
181	0x3db6f3d2	0.08933224
182	0x3daf7b3e	0.085684285
183	0x3d2b1794	0.041770533
184	0xbd93f5d2	-0.07224621
185	0xbdc5a7aa	-0.0965112
186	0xbd366890	-0.044533312
187	0xbe0438c6	-0.12912282
188	0x3d5ada8c	0.05343108
189	0x3de862ba	0.113469556
190	0x3c056130	0.008140847
191	0xbe176354	-0.14783984
192	0x3d5a1d70	0.05325073
193	0xbd84dcd7	-0.06487434
194	0xbe2bb236	-0.16767201
195	0xbd2459c4	-0.04012467
196	0xbd08f1cc	-0.03343372
197	0x3d336694	0.043798998
198	0xbe0fb79f	-0.1403489
199	0xbdc4c8b8	-0.096085966
200	0x3c197c70	0.009368047
201	0x3e21e2e9	0.15809216
202	0xbafb2d00	-0.0019163191
203	0xbb10cc40	-0.0022094399
204	0xbe1a6e09	-0.15081038
205	0x3d392354	0.045199707
206	0x3d553610	0.05205351
207	0xbc4f2400	-0.01264286
208	0xbd64f48c	-0.05589728
209	0x3b7b5cc0	0.0038354844
210	0xbe079afb	-0.13242714
211	0x3dcb9e72	0.099423304
212	0xbe1c9ea1	-0.15294887
213	0x3e1cf081	0.1532612
214	0x3e04f333	0.12983398
215	0xbdeb0200	-0.11474991
216	0xbdb392d6	-0.08768241
217	0x3e19be57	0.15014015
218	0x3e005105	0.12530906
219	0xbdfe0184	-0.12402633
220	0xbbcb0800	-0.006196022
221	0x3cb598f8	0.022167668
222	0xbe07d4ff	-0.13264845
223	0x3d59ef20	0.053206563
224	0x3e02d9df	0.12778424
225	0x3c0b0040	0.008483946
226	0xbe18f54d	-0.14937325
227	0x3df092ae	0.11746727
228	0x3def799e	0.116931185
229	0xbd0785a8	-0.03308645
230	0x3dd882c2	0.10571815
231	0xbd640fe8	-0.055679232
232	0xbc3ee720	-0.011651784
233	0xbd9a1c59	-0.07524938
234	0x3db10856	0.08644168
235	0x3df4e516	0.11957757
236	0x3dd208ea	0.102556065
237	0x3dd8634a	0.10565813
238	0xbd643804	-0.055717483
239	0x3c338120	0.010956079
240	0x3d92d97a	0.071703866
241	0xbe102ac5	-0.14078815
242	0xbb976100	-0.0046197176
243	0x3d887ebc	0.06664798
244	0xbd97455d	-0.07386277
245	0xbdec7468	-0.1154564
246	0x3dba791a	0.091051295
247	0x3d6decc8	0.05808714
248	0xbd9559cb	-0.07292517
249	0xbc8ebe00	-0.017424583
250	0xbd055838	-0.032554835
251	0xbdf52d34	-0.119715124
252	0xbd1223e4	-0.03567876
253	0x3e16bfeb	0.14721648
254	0x3d8b2cde	0.06795667
255	0x3c1c4730	0.009538457

f_h.attn.c_attn.bias f4 [96]
0	0x3dee965a	0.11649771
1	0xbd6ff520	-0.05858338
2	0xbe30f0f6	-0.1727942
3	0xbdf1bae4	-0.11803225
4	0x3dcfe696	0.10151403
5	0xbe0e6dc2	-0.13909057
6	0xbe1ea61c	-0.15493053
7	0x3de95866	0.11393814
8	0xbba6c960	-0.0050899237
9	0xbc613520	-0.013745576
10	0x3d6a06f4	0.057135537
11	0xbdad4882	-0.084610954
12	0xbd6ed68c	-0.058310077
13	0xbd8da59e	-0.069163546
14	0xbe268e38	-0.1626519
15	0x3e24a8f5	0.16080077
16	0x3c8e1700	0.017344952
17	0xbdfb6f66	-0.12277107
18	0xbdfcded4	-0.123471886
19	0x3d8067c2	0.0626979
20	0x3cbcfc90	0.02306965
21	0xbdddc38f	-0.108283155
22	0x3e31c385	0.17359741
23	0x3c1b4e10	0.009479061
24	0xbc9c4908	-0.019077793
25	0xbd21efa4	-0.03953518
26	0x3e23196d	0.15927668
27	0xbc61e1c0	-0.013786733
28	0xbe245847	-0.160493
29	0xbb6b2b00	-0.0035883784
30	0xbe1d60c7	-0.15368949
31	0xbce861a8	-0.028366879
32	0x3d6d29d4	0.05790122
33	0x3dde47ae	0.108535156
34	0xbe1ff19c	-0.1561951
35	0xbdeb0b0d	-0.11476717
36	0x3d94d04c	0.07266292
37	0xbd29001c	-0.04125987
38	0x3e137be3	0.14402728
39	0xbe347167	-0.17621385
40	0x3dbf22d6	0.09332816
41	0xbe20ce16	-0.15703616
42	0xbda1a81f	-0.07893395
43	0xbddb784e	-0.10716306
44	0x3e2ea323	0.17054419
45	0x3df2985e	0.11845468
46	0xbc623b10	-0.013808027
47	0xbcce26e0	-0.025165021
48	0x3dca69ce	0.09883462
49	0x3e14ee71	0.14544083
50	0xbcffc598	-0.03122215
51	0x3e1e611f	0.15466736
52	0xbe1093dc	-0.14118904
53	0xbe165296	-0.14679942
54	0xbe2f49c3	-0.17117982
55	0x3ddbd8ae	0.10734688
56	0xbdfcf030	-0.123505
57	0xbe2df76a	-0.16988912
58	0xbdd81521	-0.10550905
59	0xbd7347c6	-0.05939462
60	0xbe26b5a9	-0.16280235
61	0x3e187f27	0.14892255
62	0x3bf3a400	0.007435322
63	0xbdf1c09d	-0.11804316
64	0x3db1f6dd	0.086896636
65	0xbe103cd3	-0.14085703
66	0x3e0bc797	0.13650356
67	0x3ca545cc	0.020174883
68	0x3da9a57b	0.08283516
69	0xbd237509	-0.039906535
70	0x3daf0080	0.08545017
71	0x3e8bae9c	0.27281654
72	0xbca7b8bb	-0.020473829
73	0xbd2ebab0	-0.042658508
74	0xbd6609c9	-0.056161676
75	0x3deee98e	0.11665641
76	0xbe183669	-0.14864506
77	0xbd185098	-0.037186235
78	0xbd248381	-0.040164474
79	0xbd2196cb	-0.039450448
80	0x3c217b74	0.009856094
81	0x3e28899a	0.16458741
82	0xbe3364c0	-0.17518902
83	0x3d29e393	0.041476797
84	0xbd8e2184	-0.06939986
85	0x3cc2ce57	0.023780031
86	0xbdfad19c	-0.12247011
87	0x3da8c2c1	0.08240271
88	0xbc32f386	-0.010922318
89	0x3d11a8f2	0.03556151
90	0xbc4404d3	-0.011964041
91	0x3dded172	0.10879792
92	0xba17ffcb	-0.0005798309
93	0xbd0d1bdd	-0.0344504
94	0xbd716c5b	-0.058941226
95	0xbe0c101a	-0.13678017

f_h.attn.c_proj.weight f4 [32, 32]
0	0x3f38cb78	0.7218547
1	0x3f1f819b	0.6230714
2	0xbf3fc7c3	-0.7491419
3	0x3f703ccb	0.9384276
4	0x3f4573e0	0.77129936
5	0x3f6c031c	0.92192245
6	0xbf59cab4	-0.85074925
7	0xbf1f1020	-0.6213398
8	0xbf4d1f94	-0.8012631
9	0xbf228e09	-0.6349798
10	0x3f513ef7	0.817367
11	0xbf1e6fa2	-0.6188909
12	0x3f226280	0.6343155
13	0x3f3bfc24	0.7343161
14	0xbf26d009	-0.65161186
15	0x3f55c0a7	0.8349709
16	0x3f192a62	0.59830296
17	0xbf477e53	-0.7792713
18	0x3f51a7fb	0.8189694
19	0x3f49563d	0.78647214
20	0xbf1f09e0	-0.62124443
21	0x3f25cf24	0.64769197
22	0x3f421812	0.7581798
23	0xbf501332	-0.8127929
24	0xbf647dc4	-0.89254403
25	0xbf2c2dbd	-0.6725729
26	0xbf62e0d7	-0.8862433
27	0xbf64e9e8	-0.8941941
28	0xbf347a2c	-0.7049892
29	0x3f671aff	0.9027557
30	0xbf56e2e6	-0.8393997
31	0xbf3b840a	-0.7324835
32	0x3f1c813f	0.61134714
33	0x3f44a2ee	0.7681111
34	0xbf2854c5	-0.6575435
35	0x3f2b2358	0.66850805
36	0x3f52d2a2	0.8235265
37	0x3f178242	0.5918313
38	0xbf21192d	-0.6292904
39	0xbf427a35	-0.75967723
40	0xbf6f7525	-0.93538123
41	0xbf6d9add	-0.9281443
42	0x3f602e52	0.8757068
43	0xbf25f764	-0.64830613
44	0x3f635abc	0.88810325
45	0x3f5e4602	0.86825573
46	0xbf3acd12	-0.7296916
47	0x3f2afcb6	0.66791856
48	0x3f3220ec	0.69581485
49	0xbf3a9bc2	-0.7289392
50	0x3f64c5b6	0.8936418
51	0x3f5928f5	0.8482812
52	0xbf404acf	-0.7511415
53	0x3f575076	0.8410715
54	0x3f492a6a	0.78580344
55	0xbf187d8e	-0.5956658
56	0xbf170b7b	-0.5900189
57	0xbf4527b3	-0.770137
58	0xbf25d94c	-0.64784694
59	0xbf6cd100	-0.9250641
60	0xbf47c9e9	-0.78042465
61	0x3f5ea92d	0.8697689
62	0xbf46fc4b	-0.7772872
63	0xbf322ab5	-0.69596416
64	0xbf3f110a	-0.74635375
65	0xbf326d2d	-0.6969784
66	0x3f28eeaf	0.659892
67	0xbf255c2e	-0.6459378
68	0xbf548b88	-0.8302541
69	0xbf63e312	-0.89018357
70	0x3f4f4bd3	0.80975074
71	0x3f478d4f	0.77949995
72	0x3f2e80b4	0.68165135
73	0x3f4aafaf	0.7917432
74	0xbf6ac50a	-0.9170691
75	0x3f6912fa	0.9104458
76	0xbf46c00e	-0.776368
77	0xbf6d0a9b	-0.9259431
78	0x3f5a735c	0.85332274
79	0xbf3db67e	-0.74106586
80	0xbf369b31	-0.71330553
81	0x3f2b6239	0.6694675
82	0xbf35c9b8	-0.71010923
83	0xbf43c8ba	-0.7647816
84	0x3f245faa	0.6420847
85	0xbf6cbc07	-0.92474407
86	0xbf3d8e5b	-0.7404534
87	0x3f21cdcd	0.6320465
88	0x3f1d9910	0.6156168
89	0x3f3c2b0f	0.735032
90	0x3f4e92a3	0.806925
91	0x3f1c08bc	0.6095083
92	0x3f4e9a5d	0.8070429
93	0xbf537242	-0.8259622
94	0x3f68ca4f	0.909337
95	0x3f4e7ebf	0.8066215
96	0xbf49e6f6	-0.78868043
97	0xbf2712a0	-0.65262794
98	0x3f66acb4	0.90107274
99	0xbf46f1d4	-0.7771275
100	0xbf338e56	-0.7013906
101	0xbf5c0bfc	-0.85955787
102	0x3f6cb226	0.9245933
103	0x3f15da1c	0.58535933
104	0x3f39a9c4	0.72524667
105	0x3f236f47	0.6384167
106	0xbf35b735	-0.70982677
107	0x3f714b0c	0.9425514
108	0xbf696e25	-0.9118369
109	0xbf4fcee8	-0.8117509
110	0x3f390017	0.7226576
111	0xbf70ed7d	-0.9411238
112	0xbf13857d	-0.5762556
113	0x3f3ce9da	0.7379433
114	0xbf605ea7	-0.8764443
115	0xbf1fa998	-0.62368155
116	0x3f463d4a	0.7743727
117	0xbf4f53fc	-0.80987525
118	0xbf4c8920	-0.79896736
119	0x3f36a708	0.7134862
120	0x3f34057b	0.7032086
121	0x3f36cf09	0.7140966
122	0x3f1bfa03	0.6092836
123	0x3f4940b5	0.7861436
124	0x3f4606f7	0.7735438
125	0xbf2f3a20	-0.68448067
126	0x3f188b92	0.5958797
127	0x3f376c38	0.71649504
128	0x3f32ee57	0.6989493
129	0x3f64709e	0.8923434
130	0xbf6dcbc9	-0.92889076
131	0x3f5f99ce	0.8734406
132	0x3f1b3fb2	0.60644066
133	0x3f5d21e2	0.86379826
134	0xbf571713	-0.84019583
135	0xbf5e6c97	-0.86884445
136	0xbf5abb84	-0.85442376
137	0xbf1900ff	-0.59767145
138	0x3f24aad7	0.6432318
139	0xbf65556a	-0.89583457
140	0x3f51093e	0.8165473
141	0x3f2e8a82	0.68180096
142	0xbf4f7c56	-0.81049097
143	0x3f232a77	0.6373667
144	0x3f23abfd	0.6393431
145	0xbf3c9224	-0.7366049
146	0x3f387f77	0.72069496
147	0x3f666f6a	0.90013754
148	0xbf61edc5	-0.8825343
149	0x3f65ab05	0.8971408
150	0x3f5af9bf	0.8553733
151	0xbf0e79de	-0.55654705
152	0xbf34f582	-0.70687115
153	0xbf4fc415	-0.8115857
154	0xbf68ac69	-0.9088808
155	0xbf511296	-0.81668985
156	0xbf2c2d94	-0.67257047
157	0x3f55659d	0.83358175
158	0xbf6ed3a2	-0.93291676
159	0xbf41dccc	-0.75727534
160	0xbf4ee06a	-0.8081118
161	0xbf1c9e9c	-0.6117952
162	0x3f4f525f	0.80985063
163	0xbf6d6779	-0.9273601
164	0xbf633976	-0.88759553
165	0xbf204c55	-0.62616473
166	0x3f4e1b0a	0.8051001
167	0x3f4a5a6c	0.7904422
168	0x3f5cd6ba	0.86265147
169	0x3f2688a8	0.6505227
170	0xbf4d62b0	-0.8022871
171	0x3f1944e5	0.5987075
172	0xbf60e592	-0.87850296
173	0xbf573a9d	-0.8407381
174	0x3f23faa1	0.64054304
175	0xbf5f593f	-0.87245554
176	0xbf6d4484	-0.9268267
177	0x3f64b0d9	0.8933235
178	0xbf53e510	-0.82771397
179	0xbf6edd65	-0.9330657
180	0x3f2ce68e	0.675393
181	0xbf5ea1b3	-0.86965483
182	0xbf35011d	-0.70704824
183	0x3f442f82	0.7663499
184	0x3f577dd3	0.8417637
185	0x3f1fd258	0.62430334
186	0x3f606d7c	0.8766706
187	0x3f5226ef	0.8209066
188	0x3f250a71	0.6446906
189	0xbf307d77	-0.68941444
190	0x3f27a512	0.6548625
191	0x3f507539	0.8142887
192	0xbf1367b9	-0.57580143
193	0xbf33d7fd	-0.70251447
194	0x3f3e4c09	0.7433477
195	0xbf6822b5	-0.9067796
196	0xbf3b7fa9	-0.7324167
197	0xbf5971e4	-0.8493941
198	0x3f643706	0.8914646
199	0x3f6574e9	0.89631516
200	0x3f585a98	0.84513235
201	0x3f59e05a	0.8510796
202	0xbf1e9b9d	-0.619562
203	0x3f32e3f2	0.69879067
204	0xbf14aa01	-0.58071905
205	0xbf13f9da	-0.5780312
206	0x3f5737e1	0.8406964
207	0xbf482143	-0.78175753
208	0xbf5e8265	-0.86917716
209	0x3f1f3888	0.62195635
210	0xbf2aa6d3	-0.66660804
211	0xbf499f74	-0.7875893
212	0x3f203fe8	0.62597513
213	0xbf6c035d	-0.9219263
214	0xbf4b59ef	-0.794341
215	0x3f5e1614	0.8675244
216	0x3f38b367	0.72148746
217	0x3f469e3c	0.77585196
218	0x3f259b6b	0.64690274
219	0x3f34d763	0.70641154
220	0x3f1a39dd	0.6024454
221	0xbf5a50be	-0.8527945
222	0x3f5a2204	0.85208154
223	0x3f5d09a7	0.86342853
224	0xbf4b2d5e	-0.793661
225	0xbf686d88	-0.9079213
226	0x3f62b307	0.88554424
227	0xbf39e71d	-0.72618276
228	0xbf5af395	-0.85527927
229	0xbf40069c	-0.75010085
230	0x3f5ff7b5	0.87487346
231	0x3f6ff03f	0.9372596
232	0x3f394107	0.7236485
233	0x3f722740	0.9459114
234	0xbf1a5839	-0.6029087
235	0x3f60178c	0.8753593
236	0xbf446de0	-0.76730156
237	0xbf256364	-0.64604783
238	0x3f501ab7	0.81290764
239	0xbf39bbd2	-0.72552216
240	0xbf6dadfd	-0.9284361
241	0x3f19b03e	0.6003455
242	0xbf25784c	-0.64636683
243	0xbf62e643	-0.886326
244	0x3f67815a	0.9043175
245	0xbf622732	-0.8834106
246	0xbf177ee6	-0.59178007
247	0x3f356358	0.7085471
248	0x3f46c40b	0.7764289
249	0x3f233208	0.63748217
250	0x3f1ba482	0.60797894
251	0x3f245cf2	0.64204323
252	0x3f3c32de	0.7351512
253	0xbf47e9d2	-0.78091156
254	0x3f2a59cc	0.6654327
255	0x3f1a8b7d	0.6036909

f_h.attn.c_proj.bias f4 [32]
0	0xbe14c38a	-0.14527717
1	0x3e077cbd	0.13231178
2	0xbcf86ad2	-0.030324373
3	0x3e07c6e5	0.13259466
4	0x3c8b48e4	0.01700253
5	0x3d3dba4e	0.046320252
6	0xbd69b29b	-0.057055097
7	0xbc2e7eea	-0.010650376
8	0x3e221669	0.15828861
9	0xbca145a7	-0.019686533
10	0x3deed9f3	0.11662664
11	0xbda74390	-0.081671834
12	0xbcb3ed60	-0.021963775
13	0x3db099c5	0.08623079
14	0x3be89900	0.007098317
15	0x3e384edc	0.17998832
16	0x3d4fd017	0.05073556
17	0x3e6cd2a2	0.23127225
18	0x3e310246	0.17286023
19	0x3df2b456	0.118508026
20	0x3cd070fd	0.025444502
21	0x3e272efc	0.16326517
22	0x3e0430d0	0.12909245
23	0xbb749819	-0.0037322103
24	0x3bc025ed	0.005863896
25	0x3b93d8bd	0.004511921
26	0x3d3033ec	0.043018267
27	0x3dc3d2a8	0.09561664
28	0xbdb9db13	-0.09074988
29	0x3e235145	0.1594897
30	0x3cd684d8	0.026186392
31	0x3c7ebe26	0.015548265

f_h.mlp.c_fc.weight f4 [128, 32]
0	0xbf70e8dd	-0.9410532
1	0xbf44b9d5	-0.7684606
2	0x3f7dfb1b	0.9921128
3	0x3f5f1ec9	0.8715635
4	0xbf55e4b7	-0.83552116
5	0x3f45cda1	0.7726689
6	0x3f4ed692	0.8079616
7	0x3f6a5454	0.91534925
8	0x3f463f36	0.774402
9	0x3f710267	0.9414429
10	0x3f6a76ee	0.9158772
11	0xbf56b9c9	-0.83877236
12	0x3f36ef2f	0.71458715
13	0xbf431d66	-0.76216733
14	0xbf8144ed	-1.009916
15	0x3f253fdd	0.6455057
16	0xbf1ca2e2	-0.6118604
17	0x3f2fccef	0.6867208
18	0x3f2c1d1f	0.67231935
19	0x3f746fff	0.9548339
20	0x3f7699c2	0.96328366
21	0xbf71b468	-0.94415903
22	0xbf2d6e9e	-0.67746913
23	0xbf65345f	-0.89533037
24	0x3f74ef7c	0.95677924
25	0x3f5bdde7	0.8588547
26	0xbf4fa618	-0.81112814
27	0xbf7835e4	-0.9695723
28	0xbf5eed2e	-0.8708066
29	0x3f288190	0.65822697
30	0x3f61f34b	0.8826186
31	0x3f407075	0.75171596
32	0xbf5ad7e3	-0.85485667
33	0xbf369993	-0.71328086
34	0x3f604105	0.8759921
35	0x3f2f72dc	0.68534636
36	0xbf6eeb9b	-0.93328255
37	0x3f27eb5b	0.655935
38	0x3f6e83c3	0.931698
39	0x3f63b7ec	0.8895252
40	0x3f650a3e	0.89468753
41	0x3f50699e	0.8141116
42	0x3f5d4b18	0.8644271
43	0xbf3607a6	-0.7110542
44	0x3f762db4	0.9616349
45	0xbf268978	-0.6505351
46	0xbf6ef478	-0.9334178
47	0x3f3c844b	0.73639363
48	0xbf3e68e6	-0.7437881
49	0x3f75c0b0	0.9599714
50	0x3f52f4b5	0.82404643
51	0x3f51d38e	0.8196343
52	0x3f3e81f5	0.7441705
53	0xbf43079f	-0.76183504
54	0xbf2f538b	-0.6848685
55	0xbf318128	-0.693377
56	0x3f6fa720	0.9361439
57	0x3f32a1a2	0.6977788
58	0xbf5cb694	-0.8621609
59	0xbf7b7e17	-0.9823927
60	0xbf57e4b6	-0.8433336
61	0x3f36edca	0.7145659
62	0x3f2ec9dc	0.6827676
63	0x3f5d7b0d	0.86515886
64	0xbf598006	-0.84960973
65	0xbf3e6174	-0.7436745
66	0x3f569b2a	0.8383051
67	0x3f744235	0.95413524
68	0xbf5a0db1	-0.8517714
69	0x3f56e180	0.83937836
70	0x3f7b9313	0.9827129
71	0x3f5f6308	0.87260485
72	0x3f22a157	0.63527435
73	0x3f6d8db8	0.9279437
74	0x3f3071f2	0.68923867
75	0xbf3339fd	-0.7001036
76	0x3f3f139d	0.746393
77	0xbf6946d3	-0.91123694
78	0xbf3df24c	-0.7419784
79	0x3f5591a1	0.8342534
80	0xbf29d347	-0.6633801
81	0x3f5428be	0.8287467
82	0x3f315f86	0.6928638
83	0x3f658aac	0.8966472
84	0x3f473e5b	0.7782952
85	0xbf2b5fd8	-0.6694312
86	0xbf5617d2	-0.83630097
87	0xbf4204c5	-0.7578853
88	0x3f28a01f	0.65869325
89	0x3f6dc07d	0.9287184
90	0xbf7ea972	-0.99477303
91	0xbf4afbc6	-0.79290426
92	0xbf757e75	-0.95896083
93	0x3f36b5c9	0.7137113
94	0x3f553862	0.8328916
95	0x3f6f27e2	0.9342023
96	0xbf782acb	-0.96940297
97	0xbf522ce1	-0.8209973
98	0x3f61577f	0.88024133
99	0x3f27bf71	0.6552649
100	0xbf5528a7	-0.83265156
101	0x3f677bbe	0.9042319
102	0x3f6c9d00	0.92427063
103	0x3f7bed20	0.984087
104	0x3f3d459f	0.7393436
105	0x3f6cc7a5	0.92492133
106	0x3f683bc6	0.9071621
107	0xbf63dc92	-0.8900844
108	0x3f7bf549	0.9842115
109	0xbf4cea86	-0.80045354
110	0xbf7af4bb	-0.9802968
111	0x3f5d1b58	0.8636985
112	0xbf6758ad	-0.90369684
113	0x3f22f3f0	0.6365347
114	0x3f77809d	0.96680623
115	0x3f641c10	0.8910532
116	0x3f22d4fd	0.63606244
117	0xbf78df18	-0.97215414
118	0xbf3b846a	-0.7324892
119	0xbf321f0c	-0.69578624
120	0x3f4848c0	0.7823601
121	0x3f35d29f	0.7102451
122	0xbf412173	-0.75441664
123	0xbf39d60c	-0.72592235
124	0xbf3960ca	-0.72413313
125	0x3f698e37	0.9123263
126	0x3f72cb06	0.9484104
127	0x3f387b15	0.7206281
128	0xbf3720d1	-0.7153445
129	0xbf37669e	-0.71640956
130	0x3f3aed5c	0.7301843
131	0x3f77e75b	0.96837395
132	0xbf40ec6d	-0.7536076
133	0x3f31dd57	0.6947836
134	0x3f50bead	0.8154095
135	0x3f775ef8	0.96629286
136	0x3f33b068	0.7019105
137	0x3f61f4bc	0.8826406
138	0x3f38654b	0.7202956
139	0xbf4fe8dd	-0.81214696
140	0x3f4b7cea	0.7948748
141	0xbf67831d	-0.9043444
142	0xbf44d193	-0.76882285
143	0x3f28dc69	0.6596132
144	0xbf25aa83	-0.64713305
145	0x3f5d4100	0.8642731
146	0x3f5d8dea	0.8654467
147	0x3f79016c	0.97267795
148	0x3f37f8e5	0.7186416
149	0xbf71fc12	-0.94525254
150	0xbf5bcd3d	-0.85860044
151	0xbf6d4e3a	-0.9269749
152	0x3f7079f3	0.9393608
153	0x3f66dbda	0.90179217
154	0xbf627f3c	-0.88475394
155	0xbf80029e	-1.0000799
156	0xbf609b44	-0.87736917
157	0x3f588b77	0.84587806
158	0x3f391a63	0.7230589
159	0x3f6eeda3	0.93331355
160	0xbe159cdc	-0.14610618
161	0xbdb95e2b	-0.09051164
162	0xbe24e99c	-0.1610474
163	0xbd6b9305	-0.057513256
164	0x3e3cc307	0.18433772
165	0x3c0255ea	0.007955054
166	0xbe142bad	-0.14469786
167	0xbe2df357	-0.16987358
168	0x3d75e888	0.060036212
169	0x3e0a076e	0.13479397
170	0xbe2a140e	-0.16609213
171	0x3e0a242b	0.1349036
172	0x3dd964d4	0.106149346
173	0x3d1d445b	0.038395267
174	0x3e062753	0.13100938
175	0x3b03a288	0.002008589
176	0xbdae0544	-0.08497098
177	0xbe3fffae	-0.18749878
178	0x3df0cbda	0.117576316
179	0xbde2e5b9	-0.11078972
180	0xbb835686	-0.004008117
181	0x3e57cb7f	0.21073721
182	0x3d83331a	0.06406231
183	0x3e2f5416	0.1712192
184	0x3e17b353	0.148145
185	0xbd8a3e81	-0.06750203
186	0x3d305338	0.043048114
187	0x3d3d0058	0.046142906
188	0xbd4b3a8e	-0.04961639
189	0xbdbd89d5	-0.09254805
190	0xbe1ea1e4	-0.15491444
191	0x3d2b9eac	0.04189937
192	0xbf552d47	-0.8327221
193	0xbf50b5ff	-0.81527704
194	0x3f2555d1	0.6458407
195	0x3f41212f	0.7544126
196	0xbf5909e1	-0.847807
197	0x3f172d48	0.5905347
198	0x3f5244e9	0.821364
199	0x3f25afca	0.6472136
200	0x3f45bb35	0.7723878
201	0x3f121dee	0.5707692
202	0x3f1438ca	0.57899153
203	0xbf4abe16	-0.791963
204	0x3f20ab99	0.6276184
205	0xbf1db660	-0.6160641
206	0xbf46104e	-0.7736863
207	0x3f225ea7	0.6342568
208	0xbf6145a5	-0.87996894
209	0x3f33edb1	0.70284563
210	0x3f578760	0.8419094
211	0x3f543291	0.8288966
212	0x3f10787e	0.56433856
213	0xbf28d03d	-0.65942746
214	0xbf142481	-0.578682
215	0xbf5213b3	-0.8206131
216	0x3f3f6681	0.74765784
217	0x3f4285a1	0.7598515
218	0xbf4ff320	-0.81230354
219	0xbf5a8b16	-0.8536848
220	0xbf14a29f	-0.5806064
221	0x3f26fc90	0.6522913
222	0x3f3ee8c1	0.74573904
223	0x3f2a63ab	0.6655833
224	0xbf670255	-0.90237933
225	0xbf686b8d	-0.9078911
226	0x3f520cc0	0.82050705
227	0x3f155302	0.58329785
228	0xbf18026a	-0.59378684
229	0x3f4d9e1a	0.8031937
230	0x3f4e7278	0.80643415
231	0x3f271ac5	0.6527522
232	0x3f452b6d	0.7701939
233	0x3f272b3a	0.65300333
234	0x3f1a0bf4	0.6017449
235	0xbf47f3cc	-0.7810638
236	0x3f360e83	0.71115893
237	0xbf2e2ba1	-0.6803532
238	0xbf3503ba	-0.7070881
239	0x3f4e0207	0.80471843
240	0xbf6948da	-0.9112679
241	0x3f380fe4	0.7189925
242	0x3f24f4dd	0.6443613
243	0x3f2ef50e	0.68342674
244	0x3f54f462	0.831854
245	0xbf2d9635	-0.6780732
246	0xbf5f3349	-0.8718763
247	0xbf5f74f6	-0.87287843
248	0x3f1b41d2	0.6064731
249	0x3f1fc21b	0.62405556
250	0xbf1e1c5f	-0.6176204
251	0xbf1bfa3e	-0.60928714
252	0xbf52897a	-0.8224102
253	0x3f37e92a	0.71840155
254	0x3f2a76a4	0.6658728
255	0x3f196cb8	0.59931517

f_h.mlp.c_fc.bias f4 [128]
0	0x3ef05c16	0.46945256
1	0x3f190480	0.5977249
2	0x3f49b401	0.7879029
3	0x3f2a1037	0.6643099
4	0x3f150758	0.5821433
5	0xbd2c0668	-0.041998297
6	0x3f147c9b	0.5800263
7	0x3f4a709c	0.7907808
8	0x3f29991f	0.6624927
9	0x3f325816	0.6966566
10	0xbe03c30d	-0.12867375
11	0x3f22c696	0.6358427
12	0x3f1dafff	0.61596674
13	0x3f0d2652	0.551366
14	0x3dc1dedf	0.094663374
15	0x3b0b6daa	0.0021275082
16	0x3f26b2b1	0.6511641
17	0x3d5ac28c	0.05340819
18	0x3ddb4338	0.1070618
19	0x3f38a844	0.7213175
20	0xbdfa1757	-0.12211483
21	0x3f27f7f5	0.6561273
22	0x3f390b70	0.7228308
23	0x3cce58e3	0.025188869
24	0x3d660fbb	0.056167345
25	0x3eff932e	0.49916977
26	0x3f4e8de2	0.80685246
27	0x3f1752c9	0.59110695
28	0xbdee09a5	-0.11622933
29	0x3e35d098	0.17755353
30	0xbdbd4161	-0.09240986
31	0x3e64b1c8	0.22333443
32	0x3f0f9f9b	0.56102914
33	0x3f49e35b	0.7886254
34	0x3dbe4e71	0.09292305
35	0xbde11714	-0.1099073
36	0x3f2cf984	0.6756823
37	0x3f053803	0.5203859
38	0xbb88a66a	-0.0041702287
39	0x3f2743dc	0.6533792
40	0x3f353804	0.707886
41	0x3f48493c	0.78236747
42	0x3da9ac25	0.08284787
43	0x3d54be2a	0.051939167
44	0x3eee7d6f	0.46580073
45	0x3f0c70ce	0.54859626
46	0x3f4a05b8	0.78914976
47	0x3e28f40b	0.16499345
48	0x3f326c86	0.69696844
49	0x3d01be6e	0.03167575
50	0x3f0767e3	0.52892894
51	0x3e80d805	0.2516481
52	0x3f087a43	0.53311557
53	0xbdad7afe	-0.084707245
54	0x3f0a5850	0.54041004
55	0x3ef1a9c7	0.47199842
56	0xbe0cba78	-0.13743007
57	0x3f193556	0.5984701
58	0x3f1b9017	0.6076674
59	0xbd0f5eb6	-0.035002433
60	0x3baf5167	0.00535028
61	0x3ef67176	0.4813344
62	0x3c43e6b5	0.01195686
63	0xbb03a971	-0.0020090009
64	0x3e497325	0.1967283
65	0xbd9c7dab	-0.07641157
66	0x3f28d92a	0.65956366
67	0x3d55e4b6	0.05222007
68	0x3f057c19	0.52142483
69	0x3f37ea02	0.7184144
70	0xbd3a1e38	-0.045438975
71	0xbd88cd37	-0.066797666
72	0x3a7e0c1d	0.0009691136
73	0x3e15ee7e	0.14641759
74	0x3f27f6c7	0.6561093
75	0x3f044238	0.5166354
76	0x3f271191	0.6526118
77	0x3f320b6a	0.69548666
78	0xbdc11a1a	-0.094288066
79	0x3c1fdb8d	0.009756935
80	0x3f2e543c	0.6809728
81	0x3f4d817d	0.8027571
82	0x3f554176	0.8330301
83	0x3ef375b0	0.47550726
84	0x3f6880ec	0.9082172
85	0xbd93ccf3	-0.07216825
86	0x3c8275ec	0.01592537
87	0x3dd2009b	0.10254022
88	0x3de1ef8c	0.11032018
89	0xbd448fad	-0.047988582
90	0x3d0decbe	0.034649603
91	0x3f3053ac	0.68877673
92	0x3f06713f	0.5251655
93	0x3b384082	0.0028114622
94	0x3efbd774	0.49187815
95	0x3f414c9d	0.7550753
96	0x3ef5a88f	0.47980163
97	0x3f42d245	0.76102096
98	0x3f456cab	0.7711894
99	0x3f3be344	0.73393655
100	0x3f4e6a47	0.80630916
101	0xbcae2b83	-0.021260982
102	0x3f0bd2c8	0.546185
103	0x3ef4171e	0.47673887
104	0x3d027e2c	0.031858608
105	0x3f02e53b	0.5113103
106	0x3e3c720d	0.18402882
107	0x3eee407b	0.4653357
108	0x3f47df73	0.7807533
109	0x3f3a90f2	0.7287742
110	0x3f25b0fa	0.6472317
111	0x3f15495e	0.58315074
112	0x3f2e5c3a	0.68109477
113	0xbdbe0e5b	-0.09280082
114	0x3cdf7acc	0.027280234
115	0x3e22701b	0.15863077
116	0x3f0339e5	0.51260215
117	0xbe4baae9	-0.19889416
118	0x3f1cc6ba	0.6124073
119	0x3f259717	0.6468367
120	0x3df4ecf2	0.11959256
121	0x3e3c807a	0.18408385
122	0x3f3cdfc4	0.7377894
123	0x3f45fdcd	0.77340394
124	0x3deacfb7	0.114654
125	0xbde09b1c	-0.10967085
126	0x3d5913ad	0.05299728
127	0x3e094f1a	0.13409081

f_h.mlp.c_proj.weight f4 [32, 128]
0	0xbf5c043f	-0.8594398
1	0xbf60db9d	-0.87835103
2	0xbf694395	-0.91118747
3	0xbf49cb0e	-0.7882546
4	0xbf4db44e	-0.8035325
5	0xbc9f8bb0	-0.019475788
6	0xbf4c9854	-0.79919934
7	0xbf36bc9c	-0.71381545
8	0xbf615d3b	-0.88032883
9	0xbf5abe70	-0.85446835
10	0x3dad19de	0.084521994
11	0xbf4ae343	-0.79253024
12	0xbf5ab728	-0.85435724
13	0xbf52e31d	-0.823778
14	0xbcba6095	-0.022751132
15	0x3d7c93c5	0.06166436
16	0xbf4e8498	-0.8067107
17	0x3da19b64	0.078909665
18	0xbc7bfdc3	-0.015380326
19	0xbf376663	-0.71640605
20	0x3dfaa4e9	0.12238485
21	0xbf467410	-0.7752085
22	0xbf3dce9f	-0.74143404
23	0xbb8c4ba8	-0.00428148
24	0xbf16b328	-0.5886712
25	0xbf5f1bca	-0.8715178
26	0xbf5404f5	-0.82820064
27	0xbf60e81c	-0.8785417
28	0xbd6c4858	-0.05768618
29	0x3dea9792	0.11454691
30	0x3dd34486	0.10315804
31	0x3dcddcdd	0.10051892
32	0xbf52fb6b	-0.82414883
33	0xbf699de7	-0.91256565
34	0x3c8ef2e7	0.01744981
35	0xbcc2c51c	-0.02377563
36	0xbf5f0045	-0.87109786
37	0xbf55ca4b	-0.835118
38	0xbc80499c	-0.0156601
39	0xbf57e5e4	-0.8433516
40	0xbf4f1f2d	-0.80906945
41	0xbf411337	-0.75419945
42	0x3df0220d	0.11725245
43	0x3dc0549d	0.09391139
44	0xbf57972d	-0.8421505
45	0xbf5c3669	-0.86020523
46	0xbf521d86	-0.820763
47	0x3ddf5f50	0.10906851
48	0xbf5c9424	-0.86163545
49	0x3dd0e3a5	0.1019967
50	0xbf5a8e20	-0.85373116
51	0x3dd9dbee	0.106376514
52	0xbf5a1644	-0.85190225
53	0x3dc61256	0.09671466
54	0xbf5874c6	-0.8455318
55	0xbf4bf40f	-0.7966928
56	0xbe15146c	-0.14558572
57	0xbf4816a1	-0.7815953
58	0xbf4bf661	-0.7967282
59	0xbefd73c2	-0.4950238
60	0x3d57599d	0.052575696
61	0xbf58f822	-0.8475362
62	0xbbc66ddb	-0.0060555763
63	0xbcc47dbc	-0.023985736
64	0xbf1a9ec7	-0.60398525
65	0x3db53724	0.08848408
66	0xbf680e28	-0.906466
67	0x3cdf72c5	0.027276406
68	0xbf499c04	-0.78753686
69	0xbf61f201	-0.88259894
70	0xbce284eb	-0.02765127
71	0xb9cf5ea2	-0.00039552624
72	0x3d43d9ff	0.04781532
73	0x3e0cef5a	0.1376318
74	0xbf561c0f	-0.83636564
75	0xbf43f038	-0.7653842
76	0xbf442e0f	-0.7663278
77	0xbf45cb2a	-0.7726313
78	0x3d5802f5	0.052737195
79	0x3d41cbbf	0.047313448
80	0xbf596a32	-0.84927666
81	0xbf51e0bd	-0.8198355
82	0xbf0b6d56	-0.5446371
83	0xbf6243f3	-0.8838493
84	0xbee8448d	-0.453648
85	0xbb5496f9	-0.003243862
86	0xbc7ba0de	-0.015358178
87	0x3dcf2830	0.10115087
88	0x3e1622c9	0.14661707
89	0x3ba256da	0.004954201
90	0x3d8fdf09	0.070249625
91	0xbf682ead	-0.9069622
92	0xbf3fa9b1	-0.74868304
93	0x3e193435	0.14961322
94	0xbf4c9283	-0.7991106
95	0xbf5cb8b6	-0.86219347
96	0xbf482fc0	-0.7819786
97	0xbf539919	-0.82655483
98	0xbf4fa99d	-0.81118184
99	0xbf1926b9	-0.5982471
100	0xbf40f635	-0.7537568
101	0x3d762486	0.060093425
102	0xbf628a09	-0.88491875
103	0xbf52b44e	-0.82306373
104	0x3cce5b0e	0.025189903
105	0xbf4526c5	-0.7701228
106	0x3bfa8d92	0.007646271
107	0xbf4eaed5	-0.8073552
108	0xbf50dc5c	-0.8158624
109	0xbf165621	-0.5872517
110	0xbf4dc435	-0.80377513
111	0xbf3531bc	-0.70779014
112	0xbf55c333	-0.83500975
113	0xbedf4e42	-0.43614393
114	0xbd8afaba	-0.067861035
115	0x3d93ccfe	0.072168335
116	0xbf418151	-0.75587946
117	0xbd726242	-0.059175737
118	0xbf430d47	-0.76192135
119	0xbf63ca85	-0.88980895
120	0x3d8b277c	0.067946404
121	0xbc806d0a	-0.015676994
122	0xbf60fd2e	-0.8788632
123	0xbf39f84c	-0.72644496
124	0xbd3bf7bb	-0.04589055
125	0x3ccef8b4	0.025265075
126	0x3e17d79e	0.14828345
127	0x3dc96068	0.09832841
128	0xbf4a71c6	-0.79079854
129	0xbf542109	-0.8286291
130	0xbf5a0934	-0.8517029
131	0xbf3de60e	-0.7417916
132	0xbf4ffa7d	-0.8124159
133	0x3cfd61e4	0.030930467
134	0xbf378eb7	-0.7170214
135	0xbf4dd920	-0.8040943
136	0xbf54ef49	-0.8317762
137	0xbf4ebbc8	-0.8075528
138	0xbd63d26e	-0.055620603
139	0xbf458227	-0.7715172
140	0xbf44c10f	-0.76857084
141	0xbf338787	-0.70128673
142	0x3d3e6f37	0.04649278
143	0xbcfb26a4	-0.030658074
144	0xbf57082d	-0.8399685
145	0xbd560b1c	-0.05225669
146	0x3d4f5d8b	0.05062632
147	0xbf4f9dc1	-0.8110009
148	0x3d1f50a7	0.038895275
149	0xbf557697	-0.8338408
150	0xbf63a651	-0.88925654
151	0xbd5f5ff0	-0.054534853
152	0xbf0c4654	-0.5479481
153	0xbf4d9c88	-0.8031697
154	0xbf4d4b1d	-0.8019274
155	0xbf3d2e4e	-0.7389878
156	0xbd097c8a	-0.033566035
157	0x3e1ae7bc	0.15127462
158	0xbc8a3407	-0.016870512
159	0x3cf81069	0.030281262
160	0xbf5d4f60	-0.8644924
161	0xbf400390	-0.75005436
162	0x3afc228a	0.0019236368
163	0x3db0f88c	0.086411566
164	0xbf53535e	-0.82549083
165	0xbf58fc05	-0.8475955
166	0x3dacccf6	0.08437531
167	0xbf68dd17	-0.90962356
168	0xbf4b013e	-0.7929877
169	0xbf556060	-0.8335018
170	0x3db7778c	0.08958349
171	0x3d40759a	0.046987154
172	0xbf667d40	-0.90034866
173	0xbf54de1b	-0.83151406
174	0xbf5c3859	-0.8602348
175	0xbc06ab0d	-0.008219493
176	0xbf477df7	-0.7792658
177	0x3c6933ea	0.014233569
178	0xbf63a05b	-0.8891656
179	0x3e1dbe4b	0.15404622
180	0xbf57fd8d	-0.8437126
181	0x3de19b2e	0.11015926
182	0xbf3e6fa7	-0.7438912
183	0xbf64c931	-0.89369494
184	0xbdef3356	-0.116797134
185	0xbf5fedde	-0.8747233
186	0xbf3f080a	-0.7462164
187	0xbf01ee31	-0.50754076
188	0xbd4e89ae	-0.05042427
189	0xbf5aade6	-0.854216
190	0xbcd8ebc3	-0.026479607
191	0x3d065263	0.032793414
192	0xbf245a02	-0.6419984
193	0x3e183b58	0.14866388
194	0xbf554550	-0.8330889
195	0xbc92359a	-0.017847825
196	0xbf494a23	-0.7862875
197	0xbf5549e2	-0.8331586
198	0xbba04e79	-0.004892167
199	0x3dd02f62	0.101652876
200	0x3cbbad7f	0.022909878
201	0x3d09021d	0.03344928
202	0xbf64d110	-0.89381504
203	0xbf45cb31	-0.7726317
204	0xbf686bfb	-0.90789765
205	0xbf31198e	-0.6917962
206	0xbb90aa3c	-0.004414825
207	0x3de1663c	0.11005828
208	0xbf4b8de1	-0.79513365
209	0xbf3d7b18	-0.7401595
210	0xbecbd06e	-0.39807457
211	0xbf4f25c8	-0.80917025
212	0xbeceffce	-0.40429538
213	0xbb454176	-0.0030098832
214	0x3d692463	0.056919467
215	0x3ddd195a	0.10795851
216	0x3de9f570	0.114237666
217	0x3c27cf03	0.0102422265
218	0xbcdf4730	-0.027255625
219	0xbf5f7017	-0.8728041
220	0xbf5af49e	-0.85529506
221	0x3de904a6	0.1137784
222	0xbf639b23	-0.88908595
223	0xbf5b12ce	-0.8557557
224	0xbf63c54f	-0.88972944
225	0xbf479605	-0.77963287
226	0xbf423704	-0.758652
227	0xbef084fc	-0.4697646
228	0xbf5243b6	-0.8213457
229	0x3d8549dd	0.06508229
230	0xbf6527d3	-0.8951389
231	0xbf43e545	-0.7652171
232	0x3dc9fb47	0.098623805
233	0xbf528f6f	-0.8225011
234	0x3c1ca081	0.0095597515
235	0xbf4c3bb4	-0.797786
236	0xbf614ed8	-0.8801093
237	0xbf0f519d	-0.55983907
238	0xbf458ec9	-0.77171
239	0xbf47c46f	-0.7803411
240	0xbf5a1ca9	-0.8519998
241	0xbf014f6a	-0.505118
242	0xbd446e62	-0.04795683
243	0x3dd64221	0.10461832
244	0xbf556ea0	-0.83371925
245	0x3dd44b7a	0.103659585
246	0xbf5d8ba3	-0.86541194
247	0xbf5b2cfa	-0.85615504
248	0xbc0e107c	-0.008670922
249	0x3c63c96f	0.013903006
250	0xbf5b2daf	-0.8561658
251	0xbf319877	-0.6937327
252	0x3dcde776	0.10053913
253	0x3d7c43a0	0.06158793
254	0x3d53a1b3	0.05166788
255	0x3dafa8e8	0.08577138

f_h.mlp.c_proj.bias f4 [32]
0	0xbf1a7f62	-0.6035062
1	0xbf271822	-0.652712
2	0x3f2f0432	0.68365777
3	0x3f300aab	0.6876628
4	0xbf242d48	-0.64131594
5	0x3f298ebe	0.6623343
6	0x3f2a6737	0.66563743
7	0x3f0cbaf1	0.5497275
8	0x3f31335d	0.69219
9	0x3f1fecfb	0.6247098
10	0x3f09e12c	0.5385921
11	0xbf111c72	-0.5668403
12	0x3f0f627c	0.5600965
13	0xbf0792eb	-0.52958554
14	0x3f1a6757	0.60313934
15	0x3f282ac4	0.65690255
16	0xbf298d9a	-0.6623169
17	0x3f073b43	0.528248
18	0x3f0f9a68	0.5609498
19	0xbf0c5c3d	-0.54828244
20	0x3f0712c3	0.52763003
21	0xbf25f361	-0.6482449
22	0xbf1a71d2	-0.60329926
23	0xbf207dca	-0.6269194
24	0x3f05f555	0.5232747
25	0x3f3036c7	0.68833584
26	0xbf1eb91f	-0.6200122
27	0xbf099818	-0.537477
28	0xbf154006	-0.58300817
29	0x3f17e674	0.5933602
30	0x3f281220	0.65652657
31	0x3f0684d6	0.5254644

f_n.weight f4 [3, 32]
0	0xbf420d0f	-0.75801176
1	0xbf4c7abc	-0.7987478
2	0x3f458d8e	0.7716912
3	0x3f0bbf50	0.54588795
4	0xbf398040	-0.7246132
5	0x3f2b131c	0.66826034
6	0x3f22face	0.6366395
7	0x3f1e380e	0.6180428
8	0x3f19a00d	0.60009843
9	0x3f2e8d60	0.6818447
10	0x3f3a6afc	0.72819495
11	0xbf5040f7	-0.8134913
12	0x3f2fe092	0.6870204
13	0xbf33ae7b	-0.7018811
14	0x3f0924e7	0.53571934
15	0x3f49f107	0.78883404
16	0xbf4d1aa7	-0.80118793
17	0x3f1a1a43	0.6019632
18	0x3f109310	0.564744
19	0xbf07c935	-0.5304139
20	0x3f2245f2	0.6338798
21	0xbf3ac482	-0.729561
22	0xbf31c2d1	-0.6943789
23	0xbf505b58	-0.8138938
24	0x3f0d4861	0.55188566
25	0x3f4c3d26	0.79780805
26	0xbf2129b7	-0.62954277
27	0xbf472bdb	-0.77801293
28	0xbf218d5a	-0.6310631
29	0x3f2e9bb9	0.68206364
30	0x3f3853e1	0.7200299
31	0x3f11a7b6	0.5689653
32	0xbf21037b	-0.62895936
33	0xbf4b2dd4	-0.79366803
34	0x3f459164	0.77174973
35	0x3f2d1f01	0.67625433
36	0xbf247a5b	-0.642492
37	0x3f0fb724	0.56138825
38	0x3f03329b	0.5124909
39	0x3f0ffc2a	0.56244147
40	0x3f3c42a3	0.7353918
41	0x3f385c85	0.72016174
42	0x3f499081	0.7873612
43	0xbf29617a	-0.6616436
44	0x3ef9ffb4	0.48827899
45	0xbf3786df	-0.7169017
46	0x3f122b2f	0.5709714
47	0x3f0e1fb9	0.55517155
48	0xbf257803	-0.6463625
49	0x3f1d820d	0.61526567
50	0x3f4e0a62	0.8048459
51	0xbf22adb7	-0.6354632
52	0x3f151021	0.58227736
53	0xbef79679	-0.4835699
54	0xbf3701ce	-0.7148713
55	0xbf18f00c	-0.5974128
56	0x3f4aebbc	0.7926595
57	0x3f25b10c	0.6472328
58	0xbf31c1a5	-0.69436103
59	0xbf0b4d3c	-0.54414725
60	0xbf40c536	-0.7530092
61	0x3f3dc428	0.74127436
62	0x3f066e5a	0.52512133
63	0x3f47694c	0.77895045
64	0xbf2be645	-0.6714824
65	0xbf05e7cf	-0.52306837
66	0x3f01daa2	0.5072423
67	0x3f2aaefc	0.66673255
68	0xbf207016	-0.6267103
69	0x3f4863df	0.7827739
70	0x3f3f42c6	0.74711263
71	0x3f2f6a29	0.6852136
72	0x3f039b01	0.5140839
73	0x3ef8c625	0.48588672
74	0x3f3f5588	0.74739885
75	0xbf4cb9bf	-0.79970926
76	0x3f31f021	0.6950703
77	0xbf43ff49	-0.7656141
78	0x3f35f27f	0.71073145
79	0x3f16e9fb	0.58950776
80	0xbf4d77f5	-0.80261165
81	0x3f48f48d	0.78498155
82	0x3f1395c4	0.576504
83	0xbf47bee8	-0.78025675
84	0x3f484ae8	0.782393
85	0xbf2d1572	-0.6761085
86	0xbf16318e	-0.58669364
87	0xbf4bb5b9	-0.7957416
88	0x3f46d86e	0.77673995
89	0x3f2d344a	0.6765791
90	0xbf36df76	-0.71434724
91	0xbf1f516e	-0.62233627
92	0xbf0df9a6	-0.5545906
93	0x3f322259	0.6958366
94	0x3f2dfae7	0.6796097
95	0x3f08df16	0.534654

f_n.bias f4 [3]
0	0x3f3848c4	0.7198603
1	0x3f2ad2a7	0.6672768
2	0x3f31f8a4	0.6952002
