checkpoints/last_checkpoint.pth (torch, 799055 bytes, 11 tensors)

f_1.weight f4 [128, 4]
00000000: 7b9e 51be f3d3 26bd 3827 eebe 4cc6 e7be
00000010: 307e c53e 1e52 c73e 5303 143e 53d7 2a3e
00000020: 64f0 caba d3b5 31be 7556 623e 9d8e 633e
00000030: 52c3 873d b37c 7dbd 6a81 8fbe 9122 5fbe
00000040: 977d 373e ce60 9abe 8575 443e 56fb b3bd
00000050: 881d d53e a6be a93d c2f1 dbbd d6cb efbe
00000060: 1218 db3e 62e5 823d 4496 f4be 9222 a03d
00000070: e687 b83b 3d75 603e 43d5 1fbe 47d4 ce3c
00000080: cf21 143e b348 2fbe 6b93 33be c2b5 f83d
00000090: 0c02 ebbe 8675 823e 7911 b23c dd9a 523d
000000a0: 3d07 653e 8484 923e 33b4 203e 4819 ac3e
000000b0: c230 413d c521 21be 381c f33e 4ee7 e23d
000000c0: 1a9e ebbb dad2 fc3d d62a 93be d475 b4be
000000d0: 4a3c 81bd b736 52be 0058 a83e 1d8a 3dbd
000000e0: 858e 07be 8423 eebe 6317 4cbe 0350 2dbe
000000f0: 63dc 6c3d 98ff dbbe b5e2 40be 82f3 babe
00000100: c070 ba3e be3a dcbe 7ef1 be3e ed39 683e
00000110: 3e6f b63d b4d8 a8be 4712 43be 4f06 0abe
00000120: 366d f9be 5e91 a23e 0ab6 c33e d4cb 8fbe
00000130: 2abf c13e b37c 56be b451 8539 4a6b d73e
00000140: bc86 e6be 6222 8f3e 3dbb 4f3d 7ae2 f0bd
00000150: 07c8 cbbd 4a22 893e d8f6 ef3e b046 a23e
00000160: 9020 b6be 94db dc3e 5220 f93e b3a1 37be
00000170: 55c6 133e 92c5 b33e 16af f8be a0b8 8f3e
00000180: f387 133c 329f a43d 84ba dbbe ba2a a63d
00000190: d310 6dbe 2da9 1dbe 2479 943e 9c38 e1be
000001a0: 58c5 903e 2732 a5bc 4eda a6be 4e02 9e3d
000001b0: d3bd 6f3b 343c d73e f2a9 f73d 2255 953e
000001c0: 6f8e 53be 4622 dd3e 7ebb bcbe 0e74 89be
000001d0: 565a f73d 8450 abbe 94c7 e7be 1aff 8d3d
000001e0: 38a9 ab3e fa6b cb3e d4e4 a3be 2d82 62be
000001f0: d0dc bdbe 3c57 813e a307 40bd eaf0 cebe
00000200: 2d59 4cbd e638 a2be 1750 413e 2842 f53e
00000210: 1e5d 91be d475 95be 86d0 e9bd 0ab9 80be
00000220: 3611 9a3d 81b3 223e ae76 fdbd 39b4 453e
00000230: 56c0 fe3e 6c15 a63e 4dd9 503d c7e1 583e
00000240: 10e9 ad3e 5aec 833e 3f44 38be 709b c1be
00000250: 20e1 99be d578 163e 5a8f c03d 3d73 7dbd
00000260: 3d22 303e c6f0 973d bd6b 473d 042f adbe
00000270: 6350 5c3d f60e c6be 21c3 24be fc5a adbe
00000280: 3543 6b3e 58dd 863e 3ab5 98be c36e 4dbd
00000290: 42da abbe 6beb 2d3e be8c bd3d 02c4 d7bd
000002a0: ce3f ecbd 5285 f2bd 5b2b 7c3e d87f b73e
000002b0: 8303 793e 211e 2d3e 6807 a1be 438d 6dbe
000002c0: e082 cebe 82b4 d2be 9636 ac3e 5e1f c63d
000002d0: f113 17be 9fed 2abe 74de a3be e836 c13e
000002e0: bd72 68bd 3a60 b6be 5e26 c8be ae2c 903e
000002f0: 135d 183d dffe 7a3e 0c79 f5be f6fe d9be
00000300: 544b bb3e 09e1 5a3e 14c2 c23e 4f8e 69be
00000310: 5c71 88be 9c13 c4be ac2b f33e 5d15 76bd
00000320: b34b 723e 8263 853e c3bc 1abe e3de 7c3d
00000330: 5c38 003f 87b1 9dbc 06b9 e73e b182 52be
00000340: fb4a 583e de70 bd3e 5694 aebd d610 a3bd
00000350: 2de1 5c3e 318a 6ebe 96c6 fc3d 38e8 9b3e
00000360: 70af e13e 2c89 b7be 47b1 ea3c 7df7 663e
00000370: b871 c43e f6b1 e53d 5831 a7be 1cce d9be
00000380: 40f8 dcbe 4224 973e 7cc3 efbe ca6c 31bb
00000390: f4fd ddbe ea46 e13e 1e0c bdbe de2c 9b3d
000003a0: e79d 383e 96b0 eebd 0ae9 8fbe 40d1 c2be
000003b0: 7c6b ef3e a090 c9be d216 a13e 3ff4 473e
000003c0: ca8f f93e 30fd af3e c237 d6be ae7c e43e
000003d0: 4875 e4be d1fc 3d3e 26b4 a23e df90 75be
000003e0: 82aa e93e fa36 cc3d 9f80 0dbe d4f2 fd3e
000003f0: 2d56 153e c80e 9e3e aaa7 d9bd d03b 87be
-0.20470612 -0.040729474 -0.46514297 -0.45268476 0.38572836 0.38929838 0.14454393 0.16683702
-0.0015483019 -0.17354517 0.22103293 0.22222371 0.06629051 -0.0618865 -0.28028423 -0.2179053
0.17919002 -0.3015198 0.19185455 -0.08788173 0.41624093 0.082883164 -0.10739471 -0.46835202
0.42791802 0.063914075 -0.47770894 0.07819094 0.0056314347 0.21919723 -0.15608697 0.025247706
0.14466022 -0.17117576 -0.17536704 0.121440426 -0.459 0.25480288 0.021736847 0.05141722
0.22366042 0.28616726 0.1569374 0.33613038 0.04716564 -0.15735538 0.47482467 0.11079274
-0.007190478 0.12344904 -0.2874362 -0.35246146 -0.06310327 -0.20528685 0.3287964 -0.046274293
-0.1323796 -0.4651147 -0.19930796 -0.16925053 0.057827365 -0.4296844 -0.18836482 -0.36513907
0.36414146 -0.43013567 0.3729362 0.22678347 0.089079365 -0.3297783 -0.19049941 -0.13478969
-0.48716134 0.3175153 0.38224822 -0.28085196 0.3784116 -0.20946006 0.0002542861 0.42074043
-0.4502467 0.2795592 0.050715674 -0.11761947 -0.099502616 0.26783973 0.46868014 0.31694555
-0.35571718 0.43136275 0.4865747 -0.17932777 0.14431126 0.35111672 -0.4857108 0.28070545
0.009004581 0.080381766 -0.42915738 0.08113618 -0.23150949 -0.15396567 0.28998673 -0.43988502
0.2827556 -0.020165516 -0.32588428 0.07715283 0.003658165 0.4203812 0.12092961 0.29166514
-0.20659803 0.4319021 -0.36861795 -0.26846355 0.12077777 -0.33459866 -0.45269454 0.069334224
0.3352754 0.39730817 -0.3201052 -0.2211997 -0.3708253 0.25261867 -0.046882283 -0.40418178
-0.049889732 -0.31684035 0.18878208 0.47902036 -0.28391355 -0.29191458 -0.11416726 -0.25141174
0.07522814 0.15888788 -0.12376152 0.1930703 0.49756116 0.3243822 0.050988484 0.21179877
0.33966875 0.2576626 -0.17994784 -0.37813902 -0.3005457 0.14694531 0.09402342 -0.061877478
0.17200561 0.07418971 0.04868673 -0.33824933 0.0537876 -0.3868329 -0.16090061 -0.33858478
0.22974856 0.26340747 -0.29825765 -0.05015446 -0.33564955 0.16984336 0.0925536 -0.105354324
-0.11535607 -0.11841835 0.24625914 0.35839725 0.24317746 0.16906025 -0.31450963 -0.23198418
-0.40334225 -0.41153342 0.33635396 0.096739516 -0.14753701 -0.16692208 -0.32005656 0.37737203
-0.056750048 -0.3562029 -0.39091772 0.28159088 0.037198137 0.24511288 -0.47943914 -0.42577332
0.36580908 0.21374907 0.38038695 -0.22808193 -0.26648986 -0.3829621 0.47494256 -0.060078967
0.2366169 0.2605248 -0.1511107 0.061736 0.50086 -0.01924969 0.4525835 -0.20557667
0.21122353 0.37000173 -0.085243866 -0.079621956 0.21570273 -0.23294903 0.12342565 0.30450606
0.4407916 -0.3584684 0.028648986 0.22555347 0.3836801 0.11215584 -0.32654834 -0.4254006
-0.4315815 0.2951985 -0.4682883 -0.00270729 -0.43357813 0.43999416 -0.36923307 0.07576917
0.18028985 -0.11654775 -0.28107482 -0.3805027 0.46761692 -0.39368153 0.31462723 0.19526766
0.48742515 0.34372854 -0.41839415 0.44626373 -0.44620728 0.18553473 0.31778067 -0.23981045
0.456379 0.099714234 -0.13818596 0.49599326 0.14583655 0.30870652 -0.106276825 -0.2641282

f_1.bias f4 [128]
00000000: 6738 7abd aad9 d8bd 9e40 c63e 14b2 4cbc
00000010: 1c28 d13e a937 453e 4bf6 5a3d 75f8 70bd
00000020: 60cc d0be a0a3 d73e fbbc a4be a680 52bc
00000030: 635a cc3e 9d59 d8bc b43e 2c3d ba36 ba3e
00000040: 79d4 fb3d 6090 eabe 1db0 b23e 4438 d63e
00000050: 2bc6 d4bd 7acb 9e3d 26ca 0d3e fae9 d3be
00000060: d9b9 8c3e aa57 c83e 9ac5 153d 53a8 e03e
00000070: 09c4 7c3e c38a fc3e 5c99 1b3e b500 e0be
00000080: fc85 c93e 5b7b a7be 3bf6 0a3e fb79 da3e
00000090: 4918 2ebd ed87 e33d 31a1 e4bd e84a fcbe
000000a0: 37e2 edbd db39 023e 8009 cfbe 2433 a2be
000000b0: 2b42 9fbe 96b7 64be ec8c 41bd 8248 c63d
000000c0: a6f1 ef3e d373 93be b8b2 f33e 3e0d 663d
000000d0: e889 a5be 4c59 53be 03fa f63e c7a3 d1be
000000e0: 8bbb f13e a61c 58be e7c3 593d c5dd 47be
000000f0: de88 ad3e f76c 873e 4775 813d 95e8 8e3e
00000100: 7750 5a3d 3cc7 a0be dfda 3fbd 401f eabe
00000110: 30fb febe 8934 6c3e 988f f73d 3068 ba3c
00000120: 958c e53e 905d 79bd ee8f f5be 2eb0 2cbe
00000130: 8cdd 9abe da81 c8bd 61e4 fa3d 2dbc a1be
00000140: 0303 d6be 6b24 d73c 9b28 4f3e 7d05 b03e
00000150: 98ea c73e caf7 903e 07d0 80bd 4fd2 99bd
00000160: 1739 eebe 1d4f 653e aba1 fdbe 8dfd 32be
00000170: 0a10 82bd 997c efbe 9605 a7bd ec97 07be
00000180: 641c fa3d 0ad3 af3e fb6f 3ebe d0d0 9f3e
00000190: b659 bebe c364 b7be 078e adbc c3c7 b73e
000001a0: 39b5 f13e 29c7 943e caae ddbe b0c1 143e
000001b0: 3f79 dbbe 9c61 ffbe 9063 f03d 1c7e 483e
000001c0: be8d 393d 8588 b1be f106 c6be 9a68 92be
000001d0: 244b aebe 266d 0ebe bb20 52be fac3 bfbd
000001e0: 6914 913e 5192 c63e 8e81 00be 0f04 b4be
000001f0: ac50 d43e 5251 09be 45e0 dbbe 7a34 d2be
-0.061088946 -0.10588391 0.38721174 -0.012493629 0.40850914 0.19259514 0.05345754 -0.058830697
-0.40780926 0.42117023 -0.3217543 -0.012848055 0.3991271 -0.026409918 0.042051986 0.36369878
0.12296385 -0.45813274 0.3489999 0.41839802 -0.1038936 0.07753654 0.13846645 -0.41389447
0.2748554 0.39129382 0.0365654 0.4387842 0.24684156 0.49324617 0.1519522 -0.4375054
0.39360034 -0.327113 0.13570492 0.4267119 -0.04250363 0.1110991 -0.11163557 -0.492759
-0.11615413 0.12717383 -0.40436935 -0.31679642 -0.3110517 -0.22335657 -0.047253534 0.096817985
0.4686405 -0.28799304 0.4759729 0.056164972 -0.32331777 -0.20639533 0.4823762 -0.40945265
0.47213396 -0.21104679 0.053165343 -0.19518192 0.33893484 0.2645032 0.06321197 0.2791182
0.053299394 -0.31402004 -0.04683959 -0.45726967 -0.49801016 0.23066916 0.12087935 0.022754759
0.44833818 -0.060880244 -0.47961372 -0.16864082 -0.30247152 -0.09790392 0.12250591 -0.3158888
-0.41799173 0.026262483 0.20230334 0.34379187 0.39046168 0.28314048 -0.06289678 -0.07510816
-0.4652793 0.2239346 -0.49537405 -0.17479534 -0.063507155 -0.46774748 -0.08155362 -0.13241547
0.12212446 0.34340698 -0.18597405 0.31214 -0.3717782 -0.35819063 -0.021185888 0.35894594
0.47208574 0.29058197 -0.43297416 0.14527011 -0.4286594 -0.49879158 0.1173774 0.19579357
0.04530119 -0.3467447 -0.3867717 -0.2859543 -0.34041703 -0.13908824 -0.20520298 -0.093635514
0.28335884 0.38783506 -0.12549421 -0.35159346 0.41467798 -0.13409927 -0.42944542 -0.4105566

f_h.attn.c_attn.weight f4 [384, 128]
00000000: b187 b23d c1d3 5dbd e82a a4bd 1bd7 783d
00000010: 6c4e 35bd 8042 70bd d55c 6bbd dd8e cd3c
00000020: 2961 dfbc 2b05 ecbc 6ba9 f03b 21f6 b73c
00000030: 716c 87bd 55f2 233d 3773 5fbc 3cc9 86bd
00000040: f3f2 303d 70d5 543d b272 b2bd ace8 a4bd
00000050: 8028 953d 32a8 0abd fe2b 903d d1ce f63b
00000060: 4e37 163d 058d a9bc 07ed 453d 3ece 9e3d
00000070: 1b30 b1bd 00e0 903d 38ab 723c a908 33bd
00000080: 9040 e8bc da5f 6d3d 98df 4b3c ee8d 63bb
00000090: ab28 f23c 5906 a9bd 0eb8 183d a0e6 53bc
000000a0: a1f4 41bd 76a9 8f3c a36a 0e3d 2627 6dbd
000000b0: 3a52 2cbc 7062 233d 769e d23c 4c74 8e3d
000000c0: 88fa 0ebd 669f b7ba 6dbd b2bd 1400 4e3d
000000d0: 9f3e b13c e4b2 6939 f433 6b3d 69b8 e13b
000000e0: 28a5 3f3d 1890 d73c ff63 18bd 0087 8dbc
000000f0: 4610 4abd 4357 0d3d 2638 90bd 8ee3 593d
00000100: f46d 33bd c597 f7bc 9551 ec3a 7aba 9dbd
00000110: c1e3 9cbb 2b04 843d 3e36 8b3d 4f91 ecbb
00000120: 440a 80bc b835 abbd 674a 023b 531b 78bd
00000130: 9da6 74bc 2929 47bd 6a64 ebbc 8eaa b73c
00000140: ede9 a3bd 6176 8b3d 3805 5e3d 7d53 a53d
00000150: dcce 5d3d ee70 173d 760b 43bc 955a e63b
00000160: 6610 da3b 0ca4 07bd d2a3 04bd 79a1 d9bb
00000170: d333 de3c 5e4c 5fbc 53f7 93bd 242e 88bd
00000180: 9849 0dbd 12db 913d 61cf a03d 1ee2 14bb
00000190: 20bd 053d d338 373c da1a b13d a080 8a3d
000001a0: 5364 b3bd be1c e43c 1d3d 343d 8005 bebc
000001b0: 7a2a 81bc ee06 6f3d e9a0 39bd f239 05bd
000001c0: 1295 bdbc a419 9abd 129a 7fbb 88f3 6e3d
000001d0: 1d99 adbd 22cc 52bd aba7 823d 2e55 123d
000001e0: bc0a 8cbc 9ca5 9fbd 0eee 30bd 65b7 a4bd
000001f0: 01f0 953d b4bf 89bc a1cc a2bc 9129 3b3d
00000200: f1ba 48bd 827c f6bc 1857 c83c ba9e a13d
00000210: f40a 84bc 9c17 b2bd 27fe 3d3d f0c6 1c3c
00000220: 94c8 973a 70ee d9bc 08f5 073d 8cde f3bc
00000230: 5be2 abbd 4a24 8ebd 0a40 743c 420d 9dbd
00000240: 7763 0c3d d26b 85bb 6d1c 9abd 561b a4ba
00000250: 9601 d33c 7de9 d03c a43d 35bd 641e 3c3c
00000260: 68e8 52bd c2f0 4c3d da2a da3c fef8 a8bd
00000270: b677 44bd a359 e53c 1d80 143d 7fd9 a83d
00000280: 2726 653d 041a 3e3d ad1a 923d 26f1 bdbc
00000290: dc6e 853d d107 883c 6e31 37bd 1ba7 e2bc
000002a0: ce11 273d e213 40bd 2a01 adbd c2e2 6e3d
000002b0: 7b4f 46bc 20a0 89bc dfc7 9cbd 67c7 33bd
000002c0: f001 2c3d 83c5 92bc 36b6 d7ba 50eb b53c
000002d0: 9aff 5e3d 0151 aebd 8bf6 533d 0296 bf3c
000002e0: da80 7ebd 7650 debc baf6 a93d 3341 413d
000002f0: cf7f a0bc b2c6 c6bc be64 2c3c 44a0 363c
00000300: 0e56 96ba fc61 2b3d 11bb 693c e35e 96bd
00000310: d94c 8e3d 637a 543d bb92 34bd 7caf ddbc
00000320: 13d5 1f3d 96f1 fd3c 0e89 143d a70e cebc
00000330: 3887 c0bc e3b3 29bd 4816 963d ba6d 0c3d
00000340: 9977 163c 2f22 35bd 62ee 70bd 73fe 2c3c
00000350: ca21 0a3d cec4 d5bc b6e6 03bd 8c11 4c3d
00000360: efe7 cebc dd50 1c3d 70cc 4f3d b9a9 abbd
00000370: 9f75 a0bd 2bd3 9c3d 2d21 d5bc c1d4 6bbd
00000380: 5a93 77bc f7ac 95bc 1ae5 6ebd 0e2c 083d
00000390: 77a5 823d 7441 7c3c f931 373c 4e87 343d
000003a0: 03c2 6e3d 5cf7 b2bd 69ff 84bd 18d2 b43d
000003b0: 87a9 1abd 65db 85bd 904e 18bd c817 4fbd
000003c0: b116 853d c61e acbd 8a12 613d 6c24 a0bd
000003d0: 178f 903d ffee 88bc bedc febc d84c 94bd
000003e0: 9160 5a3c 77c7 62bd de96 353d 71ec c13c
000003f0: 3337 5d3d d248 2f3b c6f1 05bc 691e 5c3d
0.08717287 -0.054157022 -0.08015996 0.060752016 -0.044264242 -0.05865717 -0.05746158 0.025092537
-0.02726801 -0.028811058 0.007344415 0.02245623 -0.066124804 0.040026028 -0.013638309 -0.06581351
0.043200444 0.051961362 -0.08713283 -0.08052191 0.072831154 -0.03385181 0.07039641 0.0075319787
0.036673836 -0.020697126 0.04832175 0.07754181 -0.086517535 0.070739746 0.01481133 -0.04370943
-0.028351098 0.05795274 0.012443446 -0.0034722048 0.029560408 -0.08253164 0.037284903 -0.012933403
-0.047352437 0.01753686 0.034769665 -0.057898663 -0.010517651 0.0398888 0.025710326 0.069557756
-0.034906894 -0.0014009296 -0.08727536 0.050293043 0.021636305 0.00022287254 0.057422593 0.0068884385
0.046788365 0.026313826 -0.03720474 -0.017276287 -0.049331926 0.034507047 -0.070419595 0.05319553
-0.04380603 -0.030223737 0.0018029684 -0.07701583 -0.0047878926 0.064461075 0.06797455 -0.0072194706
-0.015629895 -0.083598554 0.0019880773 -0.060572933 -0.014932302 -0.048623238 -0.028734405 0.022420194
-0.08003602 0.06809688 0.054204196 0.08072565 0.054152355 0.036972933 -0.011904588 0.007029841
0.006654787 -0.03311543 -0.032382794 -0.0066415635 0.027124321 -0.013629047 -0.07224908 -0.066494256
-0.034494013 0.071218625 0.078520544 -0.0022717784 0.032651067 0.011182982 0.086477 0.067628145
-0.0875937 0.027845737 0.044003595 -0.023195982 -0.015767325 0.058356218 -0.04531947 -0.032525964
-0.023142371 -0.07524422 -0.0039001745 0.05833772 -0.0847647 -0.051464207 0.063796364 0.035725765
-0.017094962 -0.07795259 -0.043195777 -0.08042792 0.07321168 -0.016815044 -0.019872965 0.045693938
-0.049006406 -0.030088667 0.024455592 0.07891603 -0.016118504 -0.086959094 0.046384957 0.009568915
0.0011580163 -0.026602954 0.033192664 -0.029769205 -0.08392783 -0.06940515 0.014907846 -0.07668544
0.034274545 -0.004071691 -0.07524953 -0.0012520354 0.025757592 0.02550196 -0.04424824 0.011481855
-0.05149117 0.050034292 0.026631761 -0.082506165 -0.047965728 0.027996844 0.03625499 0.08244609
0.055944588 0.04641153 0.07133994 -0.023186278 0.065152854 0.01660529 -0.044724874 -0.027667573
0.040788464 -0.04689396 -0.08447488 0.05832172 -0.012103911 -0.016799986 -0.0765531 -0.043891337
0.041994035 -0.017916447 -0.0016457501 0.022206932 0.05444298 -0.08511544 0.051748794 0.023386959
-0.0621346 -0.027137976 0.082990125 0.04718132 -0.019592194 -0.024264667 0.010522066 0.011146609
-0.0011469738 0.041841492 0.0142657915 -0.07342317 0.06948251 0.05187453 -0.044085246 -0.027061217
0.039021563 0.030998986 0.036263518 -0.025153471 -0.023501977 -0.04143132 0.073284686 0.03428433
0.009183788 -0.044222053 -0.05882109 0.010558712 0.03372363 -0.02609482 -0.032202445 0.04982142
-0.025257079 0.038163055 0.050732076 -0.083819814 -0.078349344 0.076574646 -0.026016796 -0.057575945
-0.015110815 -0.018270953 -0.058323957 0.03324514 0.06379216 0.015396465 0.011181348 0.04407435
0.058290493 -0.08738586 -0.06494028 0.08829135 -0.03775933 -0.06535987 -0.037184298 -0.05055979
0.06498469 -0.08404307 0.05494932 -0.07819447 0.07058542 -0.016715525 -0.031111117 -0.07241219
0.013328687 -0.055366006 0.04433333 0.023672314 0.05400772 0.0026746285 -0.008175319 0.05373994

f_h.attn.c_attn.bias f4 [384]
00000000: 68bc 68bd e0ff 9abd 6368 20bc 8c11 aa3d
00000010: 9ca7 873d 5738 0cbd 1f3a 713d ba92 a83b
00000020: cb39 863d 8e66 b1bd ac9b b33d c845 983d
00000030: 3a38 13bd 2a50 2d3c 0960 84bd b026 3abd
00000040: 2e60 153d 7f10 283d 8e65 98bc 8629 00bd
00000050: 2e3c dd3c 91d5 dbbc af67 a3bc 57cf b2bd
00000060: 7b97 9abd ea8e 04bd 8be3 7b3b b33e 423d
00000070: 48bd 7f3d 9efa 32bd 2470 b43d c9ab 863d
00000080: b287 46bc 7bd5 e7bc 2d2f b1bc 61f8 7fbc
00000090: b7fe 583d e7a4 9ebd 71d5 b33d 1054 b23d
000000a0: 30b5 abbd 3e0b 89bd 8a76 33bc 9c97 2e3d
000000b0: 6918 f5b9 8c01 dbbc 3aee 7d3d b868 a5bd
000000c0: 4f01 273d 4a3b 28bd 2ea7 6f3d ec08 66bd
000000d0: 6cbb e4bc 14ea abbd e6b6 543d 4082 403d
000000e0: ef76 843d 598c abbd c0c2 89bc 6b25 b03d
000000f0: 0d1a 98bc 8598 a8bd 2b62 7e3d 3f33 02bd
00000100: 9689 f23c 097d 0bbd b79d f7bc dbe9 abbd
00000110: 0bc0 5bbd bb8e 1f3d 4ebb 31bd 96cb e2bc
00000120: 1488 733d ac97 b2bd 9c74 6bbc 8b2b c8bc
00000130: c96c a7bd d47d 6aba 3fb6 aa3d 4532 61bd
00000140: 72c0 94bd 5fe2 2bbc c459 16bd b667 7b3d
00000150: acfb 55bd bf6a f53c 5650 633d a973 1f3d
00000160: d307 93bc 8d11 e6bc 6ef4 7ebb 92f5 29bd
00000170: 36d6 833d 0276 a0bd f4c6 863d 19e2 a33d
00000180: 1516 963d 1f5b 47bd 9517 ac3b 3492 a13d
00000190: 45b8 bd3c 1e36 a73d a7e5 87b9 305f c7bc
000001a0: 9665 89bd 9d11 a6bd 78b7 90bc 88ab 1f3d
000001b0: ddd2 76bd d7d4 8bbc 7ed1 acbd 1229 3b3d
000001c0: c450 3f3d 94c2 9abd c46f 843d 3572 093d
000001d0: 3733 603d e18f 453d 3f3e 333d f5b0 86bc
000001e0: 8f0d 65bd 5124 13bd b82b 9fbd 0f63 59bd
000001f0: c6d5 253d 4e35 6abc f41b 74bd 8292 efbc
00000200: 4d5f 79bd 7385 a7bd 37c8 7e3d 6044 603d
00000210: 8b17 9a3d 378d 473d 0fde bcbc 5449 09bc
00000220: 94a1 0abd e93d 5abd aeb7 66bd f72a 923d
00000230: bade 883d c9c3 45bd e1fd a63d c29c 0d3d
00000240: 7334 4c3c 217d 1bbd f7e0 3c3d 992b 463c
00000250: efcb 863d 8148 89bd cbd6 1ebd 9a43 643d
00000260: 3116 5c3d 5d14 63bd 5a3a 363d d429 7f3d
00000270: 3ca3 8abc 4afa 273d 480a 27bc 3dd1 f83c
00000280: b414 8c3d 962f e13b 6d66 81bd 86ef 413d
00000290: 5dd4 5dbc c5e3 67bd a989 4dbd eb3a 01bc
000002a0: f25a 063d 5609 7a3d 8db1 0d3d 88f5 48bd
000002b0: eb6f 443d 19cb a13d 4345 55bc 2957 883d
000002c0: c2a2 c3bc 513d 16bd 58c7 94bd 8691 9d3c
000002d0: a38d 94bc fe03 6dbc 5c04 5e3c 08c3 ab3d
000002e0: 41a2 d33b be1e 92bc a8d4 77bd 3222 883d
000002f0: 31e5 1ebd b591 f43b dd64 803c 8d32 8c3c
00000300: c67b 94bd fd02 b33d 5c4b 7bbd a032 e7bc
00000310: c678 a4bd 9d30 0f3d 18c6 cb3b 2bff a5bd
00000320: ddcf 183d 4c59 cebc c614 b93c c024 a5bd
00000330: ab09 48bd a5ab 9f3d 2223 243d 2e48 afbd
00000340: 448e b0bb a921 64bd 781f 813d 4d40 7fbd
00000350: 7fc1 43bc 5430 abbd 9c51 a63d e3a3 84bc
00000360: 1321 bebc 8f7b 5abd 1347 6a3d 3c7b 9a3d
00000370: 2599 39bd 4ef9 9f3d 49df 71bd 543a 56bd
00000380: 0990 793d 75d0 083d 058c a63c f464 3bbb
00000390: d431 37bd 338d f4bb 6674 8f3d aee5 ab3d
000003a0: 9844 0ebc 0b0d b3bd 31b0 0bbd 2947 81bc
000003b0: eb1b 6abd 96ac 44bd d74d 85bd ca77 173d
000003c0: 458a eebb 1cc0 923d a530 203d cd74 3cbd
000003d0: 4b41 fd3c a9fb 033d e765 81bd 6744 a6bc
000003e0: f7ac bb3c 48be 9fbc c46c 0ebd abb6 d03c
000003f0: 5e60 783d b78c 9fbd 85b6 7dbd b505 34bd
-0.056820303 -0.075683355 -0.009790513 0.08304128 0.06623766 -0.034233417 0.05889332 0.0051444443
0.06553992 -0.08662139 0.087699264 0.07435185 -0.035942294 0.010578195 -0.0646363 -0.04544705
0.036468677 0.041031357 -0.018603113 -0.0312896 0.027006235 -0.026835235 -0.019946901 -0.08730953
-0.07548424 -0.032362856 0.0038435187 0.047423076 0.062436372 -0.04369604 0.088104516 0.06575734
-0.012117313 -0.028300038 -0.02162894 -0.015623183 0.05297729 -0.077462964 0.08780945 0.0870744
-0.08384168 -0.066915974 -0.010953555 0.042625055 -0.00046748228 -0.026734136 0.06199477 -0.08076614
0.040772732 -0.041072167 0.058509044 -0.056160852 -0.027921401 -0.08394256 0.051932238 0.046999216
0.06467997 -0.083763786 -0.016816497 0.08600887 -0.01856711 -0.08232216 0.06210534 -0.031787153
0.029606622 -0.03405479 -0.030226571 -0.08394214 -0.053649943 0.038954478 -0.04339152 -0.027684968
0.059455946 -0.08720335 -0.014371064 -0.024434825 -0.08175046 -0.00089451415 0.08335542 -0.05497958
-0.072632685 -0.010490983 -0.0367067 0.061378203 -0.052241966 0.029958127 0.055496536 0.03892866
-0.017948067 -0.02808454 -0.0038903016 -0.04149396 0.06437342 -0.07835008 0.06580916 0.08002109
0.073284306 -0.048670884 0.0052518346 0.07889214 0.023159156 0.08164619 -0.0002592031 -0.024337381
-0.06708829 -0.08108828 -0.01766561 0.038981944 -0.06025969 -0.017069263 -0.08438395 0.045693465
0.046707883 -0.07556644 0.0646663 0.033556182 0.054736342 0.048232917 0.043760534 -0.016441802
-0.055921134 -0.035923306 -0.077720106 -0.053072985 0.040487073 -0.014294935 -0.05959697 -0.029244665
-0.0608819 -0.0817975 0.06220266 0.054752707 0.07524022 0.048718657 -0.023055105 -0.008379299
-0.0338455 -0.0532817 -0.056327514 0.07137101 0.06683107 -0.04828242 0.08153892 0.034573324
0.012463677 -0.03796113 0.04611298 0.012095355 0.06581866 -0.06703282 -0.03877906 0.055728532
0.0537321 -0.05543934 0.044489242 0.06229575 -0.01692354 0.04101018 -0.010195322 0.03037321
0.06839886 0.0068721278 -0.06318364 0.047347568 -0.013539401 -0.056613702 -0.05018011 -0.007887582
0.032801576 0.06104406 0.034593154 -0.04906228 0.047958296 0.07900066 -0.013017002 0.066572495
-0.02388132 -0.03667957 -0.07264584 0.01923443 -0.018133944 -0.014466284 0.013550844 0.08386809
0.006458551 -0.017836925 -0.06050554 0.06647147 -0.038792793 0.0074636587 0.015673095 0.017113948
-0.072501704 0.08740804 -0.061351165 -0.028222382 -0.08030848 0.03495847 0.006218683 -0.0810531
0.03730761 -0.025189064 0.022592913 -0.0806365 -0.048837345 0.077964105 0.040072568 -0.08558689
-0.005388053 -0.055696163 0.0630483 -0.06231718 -0.0119479885 -0.08358827 0.081210345 -0.016191429
-0.02320913 -0.05334049 0.057196688 0.07543036 -0.045312066 0.07811223 -0.059050832 -0.05230172
0.06092838 0.033401925 0.020330438 -0.0028594108 -0.044725254 -0.0074631213 0.07004623 0.08393417
-0.008683346 -0.08742722 -0.034103576 -0.015781002 -0.05715553 -0.048016153 -0.065089874 0.036979474
-0.0072796666 0.07165548 0.03910889 -0.046009827 0.030914923 0.032222424 -0.063182645 -0.020296289
0.022909625 -0.019499913 -0.034771696 0.025477728 0.060638778 -0.07790511 -0.061941642 -0.043950755

f_h.attn.c_proj.weight f4 [128, 128]
00000000: 25f6 49bd f5f1 153c 8a4b ef3a 6a24 3abb
00000010: 09a9 28bc 7410 ac3d 1d00 a8bd 5b6e c23c
00000020: ad6b 383d bdd1 733d cacc 9b3a 5efe 663d
00000030: 1946 f63c 0b79 7dbd 0740 2ebd 369f b53d
00000040: 84d9 873d 6b2d a7bd 71b3 4b3c 0822 a43d
00000050: 6f88 a1bd 2ac6 1cbd 9de6 c33c 0803 62bd
00000060: 89c5 80bd 4b30 683d da9f 7abd 4181 f7bc
00000070: 517e a8bd dc08 72bd 0913 7fbd 140a 9bbd
00000080: f716 6cbd 767f 16bd 06d1 9c3d 9922 a8bc
00000090: 53c2 06bd b4a1 6a3d a33d a13d 9060 96bd
000000a0: 144a b23c de10 013d ecd9 98bd 56d9 96bd
000000b0: bf45 05bd 4c11 89bd a6d2 053d 67b6 ab3c
000000c0: c530 563d ffee 8b3d cf92 3abd 187e e5bc
000000d0: 0ce8 d1bc f804 423d b6ce 973d 01ce b73c
000000e0: a538 87bd 708d a9bd 4fb2 19bd dc07 103d
000000f0: c3b0 273d eed8 b4bd 7666 2c3b e0ce 0f3d
00000100: 2c0c 773d 789c 48bc 6aa4 c53c 2d2c 6dbd
00000110: 3963 973d 2e7b 2cbd c970 74bd 22c5 413d
00000120: 5d57 c4bc 2a88 47bd dda7 783c 4307 d3bc
00000130: f289 a43d 15bc 1d3b 0f4b c4bc 34fc 61bd
00000140: 7158 66bd 91fb 523d 9df4 f33c eebe 2a3d
00000150: 7ae4 6b3d 2738 ac3d 1b09 c43c b5c5 953d
00000160: 8ead a03d a1f0 99bc d03b 55bd 68ad 243d
00000170: 96fa 403d 6b64 113c c668 113d 8561 a63d
00000180: 74f6 dfbc 07c3 ae3d 247e ac3d 39d5 8b3d
00000190: 1616 4a3d b15c db3c b486 29bd 1efc db3b
000001a0: 4480 90bd 0b78 193d 7d65 5abb a397 7f3d
000001b0: 8985 45bd c7ab 9dbd 6bc4 ad3d 668d 193d
000001c0: 494c 9c3d 188f d6bb 8599 923d 54e0 8fbd
000001d0: 8fe2 833a 029a 3f3b 4c24 d339 0cbc 613d
000001e0: acd4 92bd 424b 6a3d a6e2 00bb 082f 91bd
000001f0: 1cd7 833d fbd0 7cbd 0c4b 893d 8a08 aa3b
00000200: 5195 36bd 56c9 b7bc f2ad 573d e90e 3a3d
00000210: 1e8d 973d 4469 afbd c39e d93c 9d2d 58bc
00000220: bd81 aabc 1e63 9abd cfea 9ebc a4c4 423d
00000230: 752a 0ebd 2a9d a73c f524 b6bc 6193 0ebc
00000240: 529b 2c3d 283b 133d dda5 8fbd 9c70 2a3d
00000250: 9786 8e3d 8b33 50bd 2c0e e93c 52ac af3d
00000260: 0a92 aebc 0c4b d0bc defb aebd 5431 9bbc
00000270: b858 95bd b060 a43d b270 d83c 9b3a 93bd
00000280: 8b78 7a3d 6e05 cd3a 1ec7 59bd e03e 593d
00000290: 73cb eabc b87a c3bb 2320 073d 5d5b 8abd
000002a0: 1dd4 2cbd 714d b4bd 1a18 02bd c24d a53d
000002b0: 668b 5b3d cfca 9ebd f40b 053c afec 4a3d
000002c0: b91b 283d 8c41 663d 82e4 a13d 2a11 6b3d
000002d0: 3f7b 683d 155a a9bd 1f2f ff3c 372e e5bc
000002e0: f567 c9bc 7b54 8c3d e254 a9bc 1865 84bd
000002f0: 7b4d f43c e08b 4c3d e072 b2bb 8b39 083c
00000300: dc59 50bd 1f24 6bbd c868 33bc c445 96bd
00000310: 36bd 803d dc0f 73bd ffdf aebc 6a29 063d
00000320: 583f 463c 783e b53d 3762 1dbd a93e 333b
00000330: 1745 7cbd 84ad eb3c a120 2c3d c758 3fbd
00000340: ef9d 983d d5ec 863a dc35 113a 2c15 3bbd
00000350: 0095 ac3b aaf8 923c 5026 7bbd dcb2 b9bc
00000360: e143 5ebd 070a 1d3b c342 f03c 6f14 21bd
00000370: 639c 803c 52b7 06bd 0da0 cdbc dd06 24bc
00000380: a107 053d fa4b 3a3c 6b68 81bd 7c79 90bc
00000390: 896b c93c f9ee babb 5e60 54bd 5a01 81bc
000003a0: 39db 8d3d 5b5b 67bc f512 f83b e268 3ebd
000003b0: 80d2 973d f9c2 13bd 1ed2 a8bd 4ac2 6f3d
000003c0: a6bf dbbc ecbe aabd 9d7e c13c 5264 ad3d
000003d0: 17f2 5dbd 9434 89bb e37b 81bd 66ba 53bd
000003e0: 4518 1e3c 6ffa 663d 073d 9dbd f1d2 a1bd
000003f0: f876 5cba d4f8 17bc af07 afbc 4ba2 283c
-0.049307007 0.009151925 0.0018256765 -0.0028403052 -0.010294207 0.08401576 -0.082031466 0.023734262
0.045024563 0.059526194 0.0011886593 0.056394927 0.030062722 -0.061883014 -0.04254153 0.08868258
0.06633285 -0.0816296 0.012432919 0.080143034 -0.07887351 -0.03827492 0.023913676 -0.055178672
-0.06287677 0.05668668 -0.061187603 -0.030213 -0.08227218 -0.05909048 -0.062274013 -0.075702816
-0.05763909 -0.03674265 0.076570556 -0.02052431 -0.032900166 0.05728312 0.078730844 -0.073426366
0.021763839 0.031510226 -0.0746344 -0.07365672 -0.03253722 -0.06692752 0.032671593 0.020961
0.052292604 0.06832694 -0.045550164 -0.028014228 -0.025623344 0.04736802 0.07412474 0.022437098
-0.06602601 -0.0827893 -0.037523564 0.035163745 0.040940057 -0.088304386 0.0026306189 0.0351094
0.060314342 -0.012244336 0.02412625 -0.057903457 0.07391972 -0.04210966 -0.059677873 0.04730714
-0.02396744 -0.04871384 0.0151767405 -0.025760299 0.080341235 0.0024068404 -0.023961572 -0.05517216
-0.056236688 0.051509444 0.029779727 0.04168599 0.05759094 0.08409148 0.023930123 0.073131
0.07845603 -0.018791499 -0.052058995 0.040204436 0.047113977 0.008874039 0.03550031 0.08124069
-0.027339198 0.08533292 0.08422497 0.06827778 0.04933747 0.026777597 -0.04138823 0.0067134043
-0.07055715 0.037467998 -0.0033324652 0.06240047 -0.048223052 -0.076987796 0.084847294 0.037488364
0.07631738 -0.00654782 0.07158188 -0.07025209 0.0010062027 0.0029236083 0.000402721 0.055110976
-0.0716947 0.057200678 -0.0019666343 -0.070890486 0.06437513 -0.061722737 0.06703767 0.005189006
-0.044575993 -0.022434872 0.05265612 0.045424376 0.07399963 -0.08565 0.026564961 -0.013194469
-0.020813817 -0.07538436 -0.019399075 0.047550812 -0.03470846 0.020460684 -0.02223442 -0.00870213
0.042140312 0.035945088 -0.07014058 0.0416113 0.06959265 -0.050830405 0.02844914 0.08577789
-0.021309871 -0.02542641 -0.085441336 -0.01894442 -0.072923124 0.08026254 0.026420925 -0.071889125
0.061150115 0.0015641877 -0.05316841 0.053038478 -0.028661465 -0.005965557 0.032989632 -0.067557074
-0.042194474 -0.08803833 -0.031761266 0.08071472 0.053599738 -0.077535264 0.008120526 0.049542125
0.041042063 0.056214854 0.079049125 0.057389416 0.05675816 -0.08269135 0.031150399 -0.027976139
-0.024585703 0.06852051 -0.020670358 -0.064645946 0.029822102 0.049938083 -0.005445823 0.008314501
-0.050866947 -0.057407495 -0.010950275 -0.073375255 0.06286089 -0.059341297 -0.021347044 0.03275434
0.012100063 0.088498056 -0.038423743 0.002735058 -0.061589327 0.028769262 0.042023305 -0.046715524
0.074519984 0.001029397 0.00055393367 -0.045674488 0.0052667856 0.017940838 -0.061315835 -0.022668295
-0.054263953 0.0023962276 0.02932871 -0.039326128 0.015699571 -0.03288967 -0.025100732 -0.010011402
0.03247798 0.011370653 -0.06318744 -0.017636053 0.02458741 -0.0057047573 -0.051849715 -0.015747715
0.06926579 -0.014120902 0.007570619 -0.046486743 0.074131966 -0.036074612 -0.08243202 0.058534898
-0.026824784 -0.08337197 0.023619944 0.084664 -0.054185953 -0.004187176 -0.06322458 -0.051691435
0.009649341 0.056391176 -0.07677656 -0.07901562 -0.0008410062 -0.009275634 -0.021365969 0.0102926

f_h.attn.c_proj.bias f4 [128]
00000000: ea9d 89bd 12f6 9e3d 370e a23d fdf1 353d
00000010: 4ff1 fe3b fa43 1abd ae69 a73d 7ff6 a93d
00000020: efba 383b 7a86 7f3d 8779 4b3d 0042 e6bb
00000030: 92b3 9f3c ffae 5c3d 9689 04bd 2574 a8bb
00000040: 363f 983d 5e52 163d 4bcf a03d 663f a2bd
00000050: 42ec 86bc 95ba 74bd 5dbb 773d 7ff8 fbbc
00000060: 36f8 1e3c 910e a93d af24 9cbd a1ff 0b3d
00000070: 86e0 533d ee2e 9dbd 5b24 b23d eef8 ed3c
00000080: bc7c a0bd d496 72bc 70eb 6bbb aca3 a4bd
00000090: 30fd 85bd b82f c53c 8ae0 b23d 6e41 89bd
000000a0: 775c 95bc d131 abbc 4617 0c3b 9cd3 a83d
000000b0: 3c7d 003b ecde 823d 8628 c7bc a72d 22bc
000000c0: fc55 6cbd 1bf0 703d 6bf5 163c 36d5 e9bc
000000d0: 5f98 8d3d 40e5 283d b907 72bd 6094 b2bd
000000e0: 3dcd 2abd 92ad 9ebd 8626 0fbd 8fc2 693d
000000f0: 0a61 6dbb fcca 81bd 4e1a 7dbc 3046 49bd
00000100: 1632 933d 1c51 9abd ca29 79bd d534 a8bc
00000110: 3bc7 4bbb 6644 ac3d 7e4a 12bd 5cdc 36bd
00000120: 0bfa 80bd 58b4 09bc 468a 4cbd d4cf 06bc
00000130: 551f 44bd 72b1 143d 3828 453d 5a02 ffbb
00000140: aa79 823d 198a 673d c6ea ccbc 6e72 c13b
00000150: b25d 593d 22a8 923c 78a9 3a3d f998 c83b
00000160: 5dcc 723d 9d0c 1e3d f04d 94bd 6b6f 1c3d
00000170: cda1 adbc ae61 bc3c fe4d 4bbd 2f14 77bc
00000180: fc9c 95ba 1a21 55bd b090 2d3c 6962 083d
00000190: fb19 41bd a622 28bc fe91 b1bd 873c c6bc
000001a0: 65c5 9dbd 529b f3bc c225 7a3c 1293 763c
000001b0: 5ed4 3f3c a781 a8bd 25cf 253d 5d0c 933d
000001c0: 80e2 283c cfe8 25bd 4bfd 93bd f6e0 523b
000001d0: e758 273d f53b 78bd 797d 1abd 3b2f d9bc
000001e0: bca8 85bd 903a 663d adb5 15bc 30e6 013d
000001f0: 9e08 3abd 9db9 6dbd 34d1 98bd fa6f 88bd
-0.06719573 0.07761778 0.079128675 0.04442023 0.007780231 -0.037662484 0.08174454 0.082989685
0.0028187593 0.062384106 0.049676444 -0.007026911 0.019494805 0.053877827 -0.032357775 -0.0051407986
0.074339315 0.036699645 0.07852038 -0.079222485 -0.016470078 -0.05974825 0.060481418 -0.03075814
0.009702733 0.082547314 -0.07624184 0.034179334 0.051727794 -0.07674967 0.086983405 0.029049363
-0.07836291 -0.014806468 -0.0035998486 -0.080390304 -0.06542432 0.024070606 0.08734234 -0.06701933
-0.018232567 -0.020897778 0.0021376177 0.08243486 0.0019605896 0.06390175 -0.024311315 -0.00989858
-0.05769919 0.058822732 0.009213786 -0.02854405 0.06913828 0.041234255 -0.059089396 -0.087197065
-0.041699637 -0.0774795 -0.03494885 0.05707031 -0.003622117 -0.06337544 -0.015448166 -0.0491392
0.071872875 -0.07535002 -0.06083087 -0.020533005 -0.0031094092 0.084114835 -0.035715573 -0.044643745
-0.06297692 -0.008404814 -0.049936555 -0.008228261 -0.047881443 0.036302038 0.04813406 -0.0077822627
0.06370862 0.056528185 -0.025014292 0.0059035337 0.05306787 0.017902438 0.045571774 0.0061217514
0.059276927 0.038586248 -0.07241428 0.038192194 -0.021195317 0.022995796 -0.049634926 -0.015080496
-0.0011414583 -0.05203352 0.010593578 0.033296976 -0.047143918 -0.010262167 -0.08670424 -0.024198784
-0.07703666 -0.029737148 0.015267791 0.015049713 0.011708347 -0.08227854 0.04048075 0.071800925
0.010307908 -0.040505227 -0.07226046 0.0032177544 0.04085627 -0.060604054 -0.037717316 -0.026511779
-0.06526324 0.056208193 -0.009137553 0.031713665 -0.045418374 -0.058038343 -0.07461777 -0.06661983

f_h.mlp.c_fc.weight f4 [512, 128]
00000000: 8257 a83d ab9e d9bc 1abf 84bd 0137 853d
00000010: 4027 74bd 48ca 1e3c 5a71 6b3c 36fb a93d
00000020: 2267 8a3d ff6e 8dbc e4ac 09bd 3518 3c3d
00000030: 3d06 4d3d 9267 76bd e6f4 c5bc c9bb 93bd
00000040: b9a3 8abc 2db6 03bd ce84 a53d 047e 0c3d
00000050: 39c2 9b3a 7a60 58bc acfd 7b3d ff26 2fbd
00000060: fc4a 9cbc af3c a93c 3c79 3dbc 5a8b 383c
00000070: 30e6 f53c a1a9 23bd 1a37 433d 706e 8dbb
00000080: 2ad6 043d 018c 2f3d 16d0 93bd 6501 a53d
00000090: b0d5 02bd c013 783d 00bc 803d e797 30bd
000000a0: 9ec3 a03c cd8b 39bd 653f d9bb 9ac2 8abc
000000b0: 53dd 85bc ad1b 9b3d e2b6 83bd 43f7 2cbd
000000c0: ba1a 523c 7895 55bc 53dd aebd 5289 c9bc
000000d0: 886c 1d3c 0cf0 5dbd 2d73 853d 7bbd acbb
000000e0: 72fd ab3d 3252 18bd b64a 1dbd 5275 dbb9
000000f0: 91be 7bbd f6a3 adbc 733c c03b 32e3 973d
00000100: 6a44 2bbd 0f21 b53d fed5 003c efd3 43bd
00000110: c2bf 80bc 7a3c 37bc 8952 2bbd 9ace 9abd
00000120: 2881 58bd 0f27 e0bb 64ed 3d3b 5217 463d
00000130: 02e5 b73b 545e 513d 4bbb c9ba 8a96 823c
00000140: 8849 f6bc de69 95bc b5d9 ca3c 2b48 83bd
00000150: a116 80bd ebff 323d 5e97 163c 8f6d 3d3d
00000160: 64cf dc3c 0f91 f73c da2a 44bd 3010 b8bc
00000170: fc94 ce3c 2ca7 9ebd f04d 78bd e5c6 9ebc
00000180: d6d0 ea3b 63ce 1d3c dcd3 7cba f8b2 bcbc
00000190: 4f9e a7bd 0c95 b3bd 0fa2 7f3d fa78 dc3c
000001a0: d533 f1bc c489 453d 9b4d 703d 611d a03d
000001b0: dee6 813d 3fab a33d f228 72bd 6f16 763c
000001c0: b2a5 bdbc 8c4e 063c 127f 4c3d a985 83bd
000001d0: c00a 46b9 83bf 873c fb47 9e3d 3ddf 7fbd
000001e0: f38a c7bc 83f5 4bbd beeb 38bc 54f3 87bd
000001f0: fab6 36bd b9a6 283d bd18 e63c cae8 903d
00000200: bfc1 80bd 93a8 993c 0358 88bb d814 f8bc
00000210: ec51 ee3c 0916 e3bc ecf1 19bd 1430 033d
00000220: 0137 60bc 2f57 7dbd 42d6 91bc 542b 1fbc
00000230: 1b62 453c d41f a7bb 43ce eebb 19f0 35bd
00000240: 345b 8f3d dd7a 8c3d e35c d53c 0f7b 973c
00000250: 6f5a 263d 6c94 66bc 61cc eebc 400a 4bbd
00000260: 16a2 2abd 7e79 0ebd 1bcc 91bc ce77 8b3d
00000270: c87c 093d 3159 483d 427d 13bc bbe9 eb3c
00000280: 8cca 673d b7e6 18bd 4933 5b3d 9b7c f7bc
00000290: 4acc 11bd 6860 5ebc d75b e7bc 2e13 6abd
000002a0: 22b1 323d d8b1 25bd 5e0e 7e3d 2d94 623d
000002b0: 59f4 2a3d 263b f03c ec88 4bbd e619 9fbb
000002c0: 516e 58bc b914 96bd 0c57 1abc c94a 35bd
000002d0: fbc9 2abd 8746 543d 4007 ab3c a218 733d
000002e0: a3a8 2cbd 45df be3a 2610 b13d 7713 013d
000002f0: 490d 2c3b 86cc bbbb 7e29 a83d cc46 613d
00000300: fefc 9abc b37f 9abd 9900 3b3d 0a03 26bd
00000310: 29d5 843d 4229 3fbc 7f5d e83c 8ce7 30bc
00000320: c2ab 93bd d180 413c 69ec 803d 761f 1bbd
00000330: d293 e6bc d92a 373d 2747 203d 2836 b23d
00000340: 6c13 3cbd 3cc6 833d d0a8 c7bc 145a f33c
00000350: 5833 bbbb ba4f 843d 6224 b3bc 30fc 963d
00000360: 83f1 433d 7325 b5bd 47ed 51bd 84fa 6f3b
00000370: be61 a63b e243 a73d faf0 913d f17b f4bc
00000380: 1299 303d 1fe2 763c 236d 8b3d 4084 9bbd
00000390: 8d73 a83d f815 d43b 45f1 35bd f922 72bc
000003a0: 5830 f93c 5c19 a73d 2e36 11bd 0461 de3c
000003b0: 5381 acbd 0034 6a3d fd99 5a3d 927e 8dbd
000003c0: fc71 f3bb 358b 10bd 4d86 30bd 24b9 93bc
000003d0: 4076 9e3d 4efb 26bd c08e 1fbd 29be 8e3d
000003e0: 5968 27bd 8d78 6cbc 5a7a 60bd 94c6 3fbd
000003f0: 5386 ba3c 1d18 a6bc 6a92 803d 69dc 4b3d
0.08219816 -0.026564917 -0.06481762 0.06504632 -0.059607744 0.009691782 0.014370287 0.08299868
0.06757952 -0.017264841 -0.033612147 0.045921523 0.050054777 -0.060157366 -0.024164628 -0.072135516
-0.016923772 -0.03215616 0.08081971 0.034299865 0.0011883444 -0.013206596 0.061521217 -0.0427618
-0.019078724 0.020658819 -0.011564549 0.011263693 0.030016989 -0.039956693 0.04765997 -0.0043161437
0.032430805 0.042858128 -0.072174236 0.080569066 -0.03194207 0.06056571 0.06285858 -0.043113615
0.019624528 -0.04529934 -0.0066298717 -0.016938496 -0.016340887 0.07573638 -0.064313665 -0.042227995
0.012823755 -0.013036124 -0.08538308 -0.024601612 0.009608395 -0.054184005 0.06516109 -0.0052716113
0.0839795 -0.037187763 -0.038401328 -0.00041858346 -0.061461035 -0.021196347 0.005866581 0.07416381
-0.04181329 0.08844196 0.00786352 -0.047809538 -0.015716437 -0.011183852 -0.04182676 -0.07558937
-0.052857548 -0.0068405936 0.0028980607 0.048362084 0.0056120167 0.05111535 -0.0015390901 0.015940923
-0.03006436 -0.018238958 0.024762014 -0.06410249 -0.06254316 0.043701094 0.009191362 0.04624706
0.02695436 0.030220537 -0.04789243 -0.022468656 0.025217526 -0.07746729 -0.060621202 -0.01938195
0.0071660085 0.009631726 -0.00096446066 -0.023034558 -0.08184492 -0.08768663 0.06241041 0.026913155
-0.02944366 0.048227087 0.05866776 0.078181036 0.063428625 0.07991647 -0.05912108 0.015019997
-0.023150299 0.008197438 0.04992587 -0.06421978 -0.00018886756 0.016570812 0.07728573 -0.062468756
-0.024358248 -0.049794685 -0.011286674 -0.06638208 -0.044608094 0.041174624 0.028087968 0.07075651
-0.06286954 0.01875714 -0.0041608824 -0.030283377 0.029091798 -0.027720468 -0.03758423 0.032028273
-0.013684989 -0.061850723 -0.017802361 -0.00971492 0.012047316 -0.0051002298 -0.007287772 -0.044418428
0.069998175 0.06859372 0.026045268 0.018491296 0.040613588 -0.0140734725 -0.02915019 -0.049570322
-0.041658483 -0.034783833 -0.01779752 0.0680996 0.033566266 0.048913185 -0.009002032 0.028797975
0.056589648 -0.0373294 0.053515706 -0.030210784 -0.035595216 -0.01357279 -0.028242035 -0.057147197
0.04362596 -0.04045281 0.06202542 0.055317093 0.041736934 0.02932508 -0.049691126 -0.0048553823
-0.013209895 -0.07328171 -0.009420168 -0.044260774 -0.04169653 0.051825073 0.02087748 0.059349664
-0.042153012 0.0014562389 0.08645658 0.031512704 0.0026253036 -0.005731168 0.08211039 0.054999158
-0.018919464 -0.07543888 0.045654867 -0.040530242 0.064859696 -0.0116675515 0.028364895 -0.010797393
-0.072104946 0.011810497 0.06295092 -0.0378718 -0.028146658 0.044718597 0.039130356 0.08701736
-0.04591696 0.064342946 -0.024372488 0.029706039 -0.0057129078 0.06460519 -0.021867935 0.0737232
0.047837745 -0.088450335 -0.051251676 0.0036617825 0.0050775697 0.081672445 0.07126041 -0.029844256
0.04311473 0.01506856 0.068079256 -0.07593584 0.082251646 0.0064723454 -0.044419546 -0.014778846
0.03041856 0.08159134 -0.03545206 0.02714587 -0.08423104 0.057178497 0.05336951 -0.06908907
-0.0074293595 -0.03528901 -0.04309683 -0.018032618 0.07737398 -0.040767007 -0.038954496 0.06969864
-0.040870998 -0.014433038 -0.054804184 -0.04682024 0.022769129 -0.02027517 0.06277926 0.049770746

f_h.mlp.c_fc.bias f4 [512]
00000000: d66d 46bd 5842 b43d d960 8f3d 2ba7 6f3d
00000010: a375 5e3d c075 f73b 3ead 87bd 66f2 98bd
00000020: 26fd 613d e624 8ebd bfd8 2d3d 683c 453d
00000030: b0f9 6d3d 7e25 50bd da0f 293d bedc 263d
00000040: bd9d 96bd b044 a13d 6678 573b ca30 ad3c
00000050: 3ca0 9cbd e49c a63c d244 afbd 2167 f7bb
00000060: f0e7 9cbd f412 80bc 1c71 9a3d bb35 bbbc
00000070: 3e2f 8d3d 70ef 16bd ad31 78bd 6e01 d83c
00000080: 21cd 86bd 1519 1abd 3747 193c 450f f4bc
00000090: 48a5 39bb b2c3 ca3a a0d3 ac3c d56f 903d
000000a0: 26d5 b03d 2316 05bd 2757 763c 25f1 adbd
000000b0: 4bae 91bd 650e 873d 960c 203c 24e2 f8bc
000000c0: 9102 a13d 62ef 903d cccf a73d a5c7 933d
000000d0: a36c 9a3d 6620 c9bc 6040 47bc 90ac a23d
000000e0: 78b9 6e3d 85f2 eebb 035e 59bd 3e71 393d
000000f0: 3747 4a3d 76dc 95bd 3076 8a3d 5874 83bd
00000100: 46c2 8b3d bd85 96bc bf45 a1bd 1e8f 923b
00000110: 07db 783b e85e 1bbd 4aec a93d d549 803c
00000120: 0cf9 8abd e817 ab3d 7041 63b8 6600 49bd
00000130: fab6 823d c7a1 023d 04cd dfbb 3489 9f3d
00000140: 820e de3b bb25 4bbb e217 5c3c 7abc 343d
00000150: 3719 183d 00b9 a0bd e2a3 403d 1804 82bd
00000160: cbc4 87bd 3be5 9a3c 4a83 c5bc d29c 673c
00000170: ec8a 4d3d 8272 9ebd 6ef0 ce3c e8b4 babc
00000180: c04c acb9 d31d 92bd bbc8 6cbd caea a3bc
00000190: 9988 b0bc e2ae dc3c 7699 643d bd49 143b
000001a0: b8b1 273d 70db 17bc 05c8 a1bd 612d 983d
000001b0: b0b1 743c d523 f23c 2a8d ffbb d359 b4bd
000001c0: fce2 8bbd 9a04 083d d7cc a4bd 16de 74bd
000001d0: a037 ab3d ae07 233d 0242 27bd b00e e53c
000001e0: 3954 573d 33d6 5f3d f80b 0ebd 0d21 973c
000001f0: e3b5 dc3c 5aa6 e4bc c1db 6cbd 8b89 89bd
00000200: cbd4 973d 8686 af3d f431 313d 12e6 1a3d
00000210: d551 15bc 794e 4ebd 653d 6e3d a786 aebc
00000220: 953b 953d d933 af3d 4ea2 2d3d 90b9 2e3d
00000230: d85f a4bc 3d76 9ebd 0af1 1dbd 371d de3c
00000240: 61a3 a73c 9dda 44bd a669 9c3d 7681 a33d
00000250: 2f32 1cbd f049 053d a789 8b3c aa07 b03d
00000260: f55c 1b3c 9586 823c d8c4 2a3d c467 d33c
00000270: cb91 1a3d 7ab5 3f3b 0823 a23d a12a c43c
00000280: a9f1 9a3d 70a8 123d ba2b 793d 3bf1 8f3d
00000290: 3a42 65bc 0b93 9dbc 297f 89bd 7add 85bd
000002a0: 59f9 ce3c ba62 9b3c 57a3 a13d e62d abbd
000002b0: 4708 1abd 4304 473d ce54 d63c 6a2f 313d
000002c0: 765a a4bd e30e 043d a8e4 8c3d c720 a83d
000002d0: b2ac 163d 0f80 573d 2704 a63d 5ef3 edbc
000002e0: 0053 04b9 3408 21bd ac22 9c3d ea2b 043d
000002f0: 2d90 563d 2841 ce3c 2b28 4cbd 078a 5bbd
00000300: 9427 0b3d 3638 9a3d 2760 383d fd11 2c3d
00000310: c66a 04bd e0e9 23bd c254 7dbd a10d dcbc
00000320: 5dfc a0bd ccf1 97bb 76f0 a63d e86b e63c
00000330: 1f86 ab3d ec26 23bd d1aa 2bbd d218 94bd
00000340: da89 093d 4a55 9ebb 6691 85bc d446 b1bd
00000350: b44e 523d 1236 a23d 765e 2e3d e236 05bd
00000360: 674c 943d a38a 27bd 5e0d 9cbd 9a44 b1bd
00000370: df97 d5bc 6ada 1a3d 7952 48bd 3941 8e3d
00000380: b396 25bd b611 9dbd f089 4cbd 3b3f 96bd
00000390: 44a5 73bd 07a6 b23c c325 9e3d b4ec 32bd
000003a0: 3d13 82bd 91d7 f6bb 0cbb debc 310d 84bd
000003b0: 6fd8 593d 9cc3 7cbd f3e6 33bd 1b03 47bd
000003c0: ee8e 9dbd c0ad 6ebd a2f0 57bd 995e 2c3d
000003d0: 5e55 063d 1e93 933d c83e 203c 6e0b ae3d
000003e0: a9a0 8d3d 243f 0bba 360c 90bb 6341 d1bc
000003f0: d744 2fbd 3278 1d3d df6d a83d 3265 a6bd
-0.04844459 0.088017166 0.07000894 0.058509033 0.054311406 0.0075518787 -0.0662484 -0.07468109
0.05517306 -0.069406316 0.042443033 0.04815331 0.05809945 -0.050817005 0.041274883 0.04073786
-0.07354305 0.07874429 0.003287816 0.021141429 -0.0764775 0.020338483 -0.08558048 -0.0075501357
-0.07661426 -0.015634038 0.07541105 -0.02285277 0.06893776 -0.03684944 -0.06059425 0.02636787
-0.06582094 -0.037621576 0.009355358 -0.029792437 -0.0028327275 0.0015469699 0.021097004 0.0705258
0.08634405 -0.032491814 0.015035427 -0.0849326 -0.07113322 0.065945424 0.009768626 -0.03038127
0.07861818 0.07076909 0.08193931 0.072158135 0.07540252 -0.024551582 -0.012161344 0.0794307
0.058282346 -0.007292094 -0.053068172 0.04527401 0.049384322 -0.0731744 0.06760824 -0.06418675
0.06824164 -0.018374318 -0.07874631 0.0044726273 0.0037972347 -0.037932307 0.08297022 0.015660206
-0.06785783 0.08354169 -5.418196e-05 -0.049072646 0.06382556 0.031892564 -0.0068298597 0.07789841
0.006776632 -0.003099783 0.0134334285 0.044125058 0.03713342 -0.07847786 0.04703129 -0.06348437
-0.06629332 0.018908134 -0.024110455 0.01413651 0.050181314 -0.077366844 0.02526113 -0.022791341
-0.0003286358 -0.07134595 -0.05780862 -0.020009417 -0.02154951 0.02693886 0.055810414 0.002262696
0.04094097 -0.009268627 -0.07899479 0.0743053 0.014934942 0.029558102 -0.0077988105 -0.08806195
-0.06830403 0.033207513 -0.080468826 -0.05978211 0.08360219 0.039802246 -0.040834434 0.027961105
0.052570555 0.054647636 -0.034679383 0.018448377 0.0269422 -0.027911354 -0.05782676 -0.06715687
0.07413634 0.0857058 0.04326053 0.03781707 -0.009113749 -0.050367806 0.05816402 -0.021304442
0.07286755 0.08554811 0.042391114 0.042657435 -0.020065233 -0.07737396 -0.03855995 0.02711354
0.020463647 -0.04806005 0.07637338 0.07983677 -0.038133796 0.032541215 0.017033411 0.08595212
0.009482612 0.015933314 0.04169163 0.025806315 0.037736695 0.0029252456 0.07916838 0.023946108
0.07565624 0.035805166 0.060832717 0.07028433 -0.01399284 -0.019235155 -0.06713707 -0.06536384
0.025265383 0.018967975 0.07892483 -0.08358364 -0.03760555 0.04858805 0.026163485 0.04325811
-0.080250666 0.03224076 0.0687955 0.08209377 0.03678579 0.05261236 0.08106261 -0.02904671
-0.00012619421 -0.039314464 0.07623801 0.032268442 0.05238359 0.025177553 -0.049842995 -0.05359843
0.03397329 0.07530253 0.045013573 0.042009342 -0.03232839 -0.040017962 -0.06184841 -0.026861968
-0.078606345 -0.0046369787 0.08151333 0.028127626 0.08375191 -0.03983204 -0.04191095 -0.072312966
0.03357873 -0.0048319446 -0.016304683 -0.086560875 0.05134459 0.07920469 0.042570554 -0.032523043
0.07241135 -0.0409037 -0.07619737 -0.08655663 -0.026073394 0.037805952 -0.048906777 0.06946034
-0.04042692 -0.07669394 -0.049936235 -0.07336279 -0.05948378 0.021807684 0.07722046 -0.04368277
-0.06351326 -0.0075330217 -0.0271888 -0.064478286 0.053184923 -0.061709985 -0.043921422 -0.048586946
-0.07693277 -0.05827117 -0.05271972 0.042082403 0.032796256 0.07205795 0.009780593 0.08498274
0.06915409 -0.0005311838 -0.004395987 -0.025543874 -0.04279026 0.038444705 0.08224081 -0.0812477
