checkpoints/last_checkpoint.pth (torch, 56271 bytes, 12 tensors)

f_1.weight f4 [32, 4]
000000 2b 74 e9 be e4 2d 4f bd fa 2d 18 bd 16 d4 db be
       -0.45596442 -0.050580874 -0.03715322 -0.42935246
000010 45 6d 77 3e ca 39 95 be 89 f3 49 3e 26 e7 89 be
       0.24162777 -0.29145652 0.19721808 -0.26934165
000020 af 61 42 3d 17 eb 6b 3e ce 35 ff 3e b1 ca 65 3e
       0.04745644 0.23038898 0.49845737 0.22440602
000030 7d 75 b9 bd fa 58 91 3e 17 55 bf 3e 04 38 b8 be
       -0.09055612 0.28388196 0.37369606 -0.35980237
000040 d0 9e 86 be 86 58 62 3d c3 2c 3e 3e c3 65 9a 3c
       -0.2629304 0.055260204 0.18571763 0.018847352
000050 6a 42 7e 3d bf 29 f3 be 97 bc 9b 3e c4 af 52 be
       0.062075056 -0.47492787 0.3041732 -0.20574862
000060 22 4c f4 3e ca a8 b8 be 42 3e ed 3e 8a a4 c4 be
       0.47714335 -0.36066276 0.4633656 -0.38406783
000070 27 61 f0 3e 95 87 da be ca fa b1 3d 64 3a a2 be
       0.4694912 -0.42681566 0.08690412 -0.31685174
000080 b0 ce 65 3e f7 f9 b0 3e f4 eb 82 3e ef 39 48 be
       0.22442126 0.34565708 0.25570643 -0.1955335
000090 fd b4 fb be 97 90 75 be c2 92 ae be 70 7d 21 be
       -0.4916152 -0.23980938 -0.34096342 -0.15770507
0000a0 3c e7 f3 be 43 c1 8d be 3a 45 e5 be 20 d9 44 be
       -0.47637355 -0.2768651 -0.44779378 -0.19223452
0000b0 b6 63 a4 3e b5 a0 68 bd ff 76 05 be c4 6f 84 3e
       0.32107323 -0.056793887 -0.13033675 0.2586652
0000c0 50 87 5c be b1 2a f8 be 2d 6b da 3d 70 48 e4 3e
       -0.21535993 -0.4847007 0.106649734 0.44586515
0000d0 b6 cf d3 3e 0c e9 7b be 6d e6 6e bc 40 c8 cd be
       0.41369408 -0.24600619 -0.014581305 -0.4019184
0000e0 28 5c a8 be 2e 7d d8 bc 2c 99 7c 3e 60 e7 c5 3e
       -0.3288281 -0.026426878 0.24667805 0.38653088
0000f0 84 b1 bd 3e 3c bf 15 bc fc 42 29 3e 47 a4 25 be
       0.37049496 -0.009139832 0.16529459 -0.16175948
000100 f1 12 80 3e b9 84 d0 bd 9c 5d 76 3b 2e 1d 82 be
       0.2501445 -0.10181565 0.0037592417 -0.25412887
000110 4b 27 51 3e 6b 59 aa 3d 82 2d 70 3e de e8 f2 be
       0.20425145 0.083178364 0.2345486 -0.4744329
000120 e5 43 c1 be d3 af 91 3e 5c 1c f4 be 82 cd fb 3e
       -0.37747112 0.28454456 -0.47677886 0.49180228
000130 96 d4 1e be 8b 99 f7 bd 92 f6 8b 3e ca 6c 92 3e
       -0.15510783 -0.12089833 0.27336556 0.28598624
000140 98 7d 17 bd a9 a2 3a 3e ed cf c2 3d 08 94 84 3d
       -0.03698501 0.18226112 0.09512315 0.06473547
000150 30 f6 eb be 07 e8 64 be a9 e7 0b 3e f7 08 90 3d
       -0.46086264 -0.22354136 0.1366259 0.0703296
000160 ce c5 40 3c bf 80 7a be 83 86 e8 be d0 c0 cd be
       0.01176591 -0.24463175 -0.45415124 -0.40186167
000170 c4 5a e8 bb 01 a1 7e bd 72 76 e1 3e 82 c4 c0 3e
       -0.007090898 -0.062165264 0.4403568 0.37649924
000180 59 55 d6 3c 45 6f bf 3e 87 ac d8 be 9a e5 f9 be
       0.026163744 0.3738958 -0.42319128 -0.48807985
000190 1d ff 7b 3e fa 30 88 3e e9 78 13 be fc 46 e8 be
       0.24609037 0.26599866 -0.14401592 -0.45366657
0001a0 4d 89 49 be c3 d0 af be f0 90 2d be ed 39 3f 3e
       -0.19681282 -0.3433896 -0.1694982 0.1867444
0001b0 26 5a bf 3e 63 48 d8 be fc 08 cf be c1 6a fc 3d
       0.37373465 -0.42242727 -0.40436542 0.12325049
0001c0 a0 db a8 3e 71 2c 36 bd 7a 4d 8b 3e 4a 79 9f be
       0.3298006 -0.044475976 0.27207547 -0.31147224
0001d0 36 88 d6 be b0 41 2d 3e c0 9b 5b 3e f6 24 85 be
       -0.41900796 0.16919589 0.21446133 -0.2600476
0001e0 7a 69 bc bd 05 e6 c6 be 71 a5 a4 bd 10 02 de be
       -0.091998056 -0.38847366 -0.08039368 -0.4336095
0001f0 e9 16 84 be 34 82 1a 3e 3f 3e ed 3e 4c 36 16 3e
       -0.2579873 0.15088731 0.46336553 0.1466915

f_1.bias f4 [32]
000000 1e eb bf be 58 0b ce 3e e6 49 87 3c 9c 2d af 3e
       -0.37484068 0.4024303 0.01651473 0.34214485
000010 be 12 ce 3e bb ed 13 be 09 39 93 3d 34 4a 2c 3e
       0.40248674 -0.14446156 0.07188613 0.16825181
000020 a2 ae dc 3e c7 ac 84 3c 59 3f fd bc 59 98 9a be
       0.43101984 0.016195668 -0.030913996 -0.30194357
000030 61 66 88 be fc 42 c0 3e f8 28 a7 3e 60 ce 60 be
       -0.2664061 0.37551105 0.32648444 -0.21953726
000040 d5 56 10 be 89 cc 5d be a5 e6 b0 3e d0 77 aa 3d
       -0.14095624 -0.21660055 0.34550968 0.08323634
000050 65 36 80 be 95 d5 76 3e 94 eb e1 3e 83 89 c7 3e
       -0.250415 0.24104913 0.44125044 0.389721
000060 ff 0f fa 3e 62 23 33 be 85 cf ed be e8 2a c8 be
       0.4884033 -0.17493966 -0.46447387 -0.39095235
000070 2c 10 61 3e bd 3b 03 3e 62 22 5d 3e be 69 e7 bd
       0.21978825 0.12815757 0.21595147 -0.112994656

f_h.attn.c_attn.weight f4 [96, 32]
000000 c9 ed ee bd f0 ad 2f 3c e0 47 33 be 2c 13 6e 3d
       -0.11666448 0.010722622 -0.17507887 0.058123752
000010 0d ae bf bd 10 6c 33 bc d2 df b8 3d e9 a9 0d be
       -0.093593694 -0.010951057 0.09027065 -0.13834347
000020 26 c2 d5 3d 5c 10 34 3d f8 49 72 bd 62 15 15 be
       0.104374215 0.043960914 -0.059152573 -0.14558938
000030 de c4 c1 3d e0 d0 28 bc f0 58 45 3c bd fb 83 bd
       0.094613776 -0.010303706 0.01204513 -0.064445
000040 24 78 03 3d 41 c0 d9 bd 12 06 ef bd d8 85 d2 bd
       0.032096997 -0.10632373 -0.1167108 -0.10279435
000050 e0 14 9b bb 43 ae 13 3e e7 3f c0 bd be 4c 9b 3d
       -0.004732713 0.14421944 -0.093871884 0.07582997
000060 00 bf c4 3a 5c dd 1b be 20 57 7a 3c 4e 11 b3 3d
       0.0015010536 -0.1522116 0.015279561 0.08743535
000070 44 0a 51 3d 2f 42 02 be 33 1e 33 be df bb df bd
       0.05103518 -0.1272056 -0.17491989 -0.109245054
000080 f4 6d 2f be 10 b5 73 bc fa a6 99 3d b8 e7 6e 3d
       -0.17131788 -0.014874712 0.075025514 0.058326453
000090 cc 61 54 bd d8 5d 6b 3d c0 0c 79 bc 6c c1 31 bd
       -0.05185108 0.057462543 -0.015200794 -0.043397352
0000a0 cc 55 32 be e9 e5 28 3e 64 df 8f bd 57 3e 02 3e
       -0.17415541 0.16493954 -0.0702503 0.12719093
0000b0 01 87 24 3e ff d7 03 be a0 f9 e6 bc 98 28 21 be
       0.16067125 -0.12875365 -0.028195202 -0.15738142
0000c0 e8 de 5c bd 38 76 43 bd 36 8e 9f bd b7 e6 c2 bd
       -0.053923517 -0.047720164 -0.077907965 -0.095166616
0000d0 bf 29 13 3e ae d4 dc 3d d5 a1 c9 bd 3c d3 0a bd
       0.14371394 0.10782753 -0.0984532 -0.033892855
0000e0 60 70 f6 3b 30 aa 31 3d c8 a1 3d 3d 48 dd 9d bc
       0.0075207204 0.043375194 0.046296865 -0.019270554
0000f0 a0 fa c8 3c fa 3a 28 be 73 79 30 be d7 fa 1f 3e
       0.02453357 -0.16428748 -0.17233829 0.15623032
000100 fc 91 7e bd a0 14 a4 bc 90 c5 b9 3c f7 13 32 3e
       -0.06215094 -0.020029366 0.022677213 0.17390428
000110 b4 c9 42 3d dc 95 07 be d0 67 60 3d a1 16 95 bd
       0.04755564 -0.1324076 0.054786503 -0.07279707
000120 ef 4d 29 3e 8e 07 89 3d da 37 d5 3d c0 28 df 3c
       0.16533636 0.06690894 0.104110435 0.02724111
000130 ba 04 74 bd 32 0a 0d be 7c 10 d9 bd ab 9b 17 3e
       -0.05957482 -0.1377342 -0.10598847 0.14805476
000140 f3 33 2a 3e b4 75 26 be 90 5c 45 bd 4f 41 05 3e
       0.1662138 -0.16255838 -0.048183978 0.13013195
000150 04 a3 90 bd 3b 56 be bd 2f 2f cd bd cc 99 55 3d
       -0.07062343 -0.09293791 -0.10018765 0.052148625
000160 e8 98 37 3d 8e f8 b6 bd 4e f1 0a be c0 e8 45 3c
       0.044823557 -0.08934127 -0.13568613 0.012079418
000170 f6 a3 02 be 4f 83 0c 3e a0 d2 e4 3b 78 90 00 be
       -0.12757859 0.13721965 0.0069831163 -0.1255511
000180 6f 72 33 be 4f e7 03 be 20 f7 3f 3d 43 4e 19 3e
       -0.17524122 -0.12881206 0.046866536 0.1497126
000190 44 d7 68 3d de a3 d2 3d 9a d4 13 be 6f 8d 05 3e
       0.05684592 0.102851614 -0.1443657 0.13042234
0001a0 28 4a 75 3d f2 5c 1d be a4 57 0a be 40 e7 88 bc
       0.059885174 -0.15367487 -0.13509995 -0.016711831
0001b0 52 ef f8 3d 61 9c d7 bd 93 ca 04 3e 10 d5 31 be
       0.12155022 -0.10527874 0.12967901 -0.17366433
0001c0 9b 86 0b 3e 3c 72 60 bd 0c 8b eb bd fc 52 3f 3d
       0.13625567 -0.054796442 -0.115011305 0.04671
0001d0 96 62 db 3d 20 62 f0 bb c5 cc 10 be 1d 10 1e 3e
       0.10712163 -0.007335916 -0.14140613 0.15435834
0001e0 66 d8 10 be 40 d6 72 3c a0 fc 25 bd 54 24 20 3d
       -0.1414505 0.014821589 -0.040524125 0.039097145
0001f0 06 b3 ba 3d 53 65 85 bd de 7d 1b be 63 82 2d be
       0.09116177 -0.06513467 -0.15184733 -0.1694427
000200 10 2c cf bc bc 26 03 be bd df e0 bd 65 63 d0 bd
       -0.025289565 -0.12807745 -0.10980175 -0.10175208
000210 c8 33 48 bd da 59 8c bd 52 f5 0e be e6 28 98 3d
       -0.048877507 -0.06853075 -0.1396077 0.07429676
000220 48 6d eb 3c 70 32 1a 3c 90 04 37 3d 11 5e 0e 3e
       0.028738633 0.009411439 0.044682086 0.13903071
000230 80 c4 11 3d da b4 ff bd f2 49 73 bd 6a 39 cb bd
       0.035587788 -0.124856666 -0.05939669 -0.0992306
000240 a7 1f 1a be 88 36 cd bd 75 11 0d be 00 f7 35 3d
       -0.15051137 -0.10020167 -0.1377619 0.04442501
000250 6d 97 1c 3e e2 04 af 3d 82 cc ec bd bd c1 1e 3e
       0.1529214 0.08545853 -0.11562444 0.15503593
000260 9b 85 2a 3e ec 44 26 be 60 93 e1 bd 70 91 72 bc
       0.16652529 -0.16237229 -0.11014438 -0.014805183
000270 86 9a 0f be ec f3 2b 3d 5a dc 25 be af ad 13 3e
       -0.1402379 0.04198067 -0.16197339 0.14421724
000280 ff 0d 08 be 81 86 db bd eb 59 19 3e dd 5c 0b be
       -0.13286589 -0.10719014 0.14975707 -0.13609643
000290 35 19 d1 bd b0 8b 34 bc 73 5d 31 3e 56 fd 8a 3d
       -0.10209886 -0.011019632 0.17320804 0.06786601
0002a0 0a ca 0d be 0a 67 b0 3d 30 41 84 bc b0 c3 6b 3d
       -0.13846603 0.08613403 -0.016144365 0.05755967
0002b0 0c 92 6f bd 5f c8 e2 bd d1 e2 0a 3e cc 71 0f bd
       -0.05848889 -0.11073374 0.13563086 -0.035020635
0002c0 d8 73 96 bc 40 78 96 3c 18 35 79 3d da f7 f3 3d
       -0.018365785 0.018367887 0.06084165 0.11912508
0002d0 2d ef e6 bd ce e8 b7 3d b2 b3 5e bd 18 55 80 bc
       -0.11276088 0.08979951 -0.05437059 -0.015665576
0002e0 b9 c8 18 be 5c ae 0d 3d 23 b2 14 3e 3e 7e f5 3d
       -0.1492032 0.03459011 0.14521079 0.119869694
0002f0 3c d6 39 bd 62 b4 c8 3d c0 09 62 3d 62 87 aa 3d
       -0.045370325 0.0980003 0.05518508 0.083266035
000300 e0 db ff 3c 88 ae ff bd 9a 3b c8 3d ec b5 79 3d
       0.031232774 -0.12484461 0.09776993 0.06096451
000310 6f b1 1a 3e 3d 74 11 be de 3f c4 3d 06 bf 83 3d
       0.15106748 -0.14204498 0.09582494 0.06432919
000320 74 a7 3d bd 9a 3f e6 bd 8d b6 2a 3e 4c b8 19 3d
       -0.046302274 -0.112426 0.166712 0.037529275
000330 a0 cb 96 3c 19 8e 1c be 0c a5 56 3d 5e c3 6b bd
       0.018407643 -0.15288581 0.052403495 -0.057559364
000340 c4 db 7b 3d be 76 8d 3d 0e bf ae 3d ea 76 32 be
       0.06148888 0.06907414 0.085325345 -0.17428175
000350 3f 77 bb bd aa ed a2 3d e2 0f d3 bd c7 bf ea bd
       -0.09153604 0.07955487 -0.10305764 -0.1146236
000360 18 18 7c 3d e9 94 0b be f7 8c 15 3e 40 d1 f3 bb
       0.061546415 -0.13631023 0.14604555 -0.007440716
000370 53 e2 a5 bd a4 3e 13 be ba 83 d3 3d 1c 4f 51 3d
       -0.080998085 -0.14379364 0.10327859 0.051100835
000380 98 a7 81 bc a0 6f a8 bd cf e3 89 bd fd 0e 0f 3e
       -0.015826985 -0.08224416 -0.06732904 0.13970561
000390 3b 82 aa bd a2 c4 ee 3d 12 2d 00 be 12 2f 03 be
       -0.08325621 0.116585985 -0.12517193 -0.12810925
0003a0 f0 e9 3f 3c 33 7d 14 be b0 69 ea bc e4 5e 27 3d
       0.01171349 -0.14500885 -0.028614849 0.04086198
0003b0 ca 08 b3 3d ee 10 df 3d 00 52 7b 3b e0 0f 30 3c
       0.08741911 0.10891901 0.0038348436 0.010745972
0003c0 58 98 a5 bc e8 27 46 bd 55 de 2a be 1a 46 31 be
       -0.020214245 -0.0483779 -0.16686375 -0.17311898
0003d0 c3 cf 03 3e 17 e5 2a 3e ff e6 21 be a2 d7 e3 3d
       0.12872224 0.16688953 -0.15810774 0.11125113
0003e0 ea 43 ef 3d fc 39 53 bd ab 4b c0 bd b6 e6 b7 3d
       0.116828755 -0.05156897 -0.093894325 0.089795515
0003f0 2e f2 f2 3d 17 c2 2e 3e 62 05 97 bd b9 77 2d 3e
       0.11862598 0.17066227 -0.073740736 0.16940202

f_h.attn.c_attn.bias f4 [96]
000000 4d c7 96 bd 4f 3b 80 bd e0 54 0b be e0 08 4f bd
       -0.07362232 -0.06261312 -0.13606596 -0.050545573
000010 1a be f9 3d 40 e0 1d bd af 19 1d 3e d0 8e 30 3d
       0.12194462 -0.03854394 0.15341829 0.043104947
000020 d5 c2 28 be 9f 86 b4 bd 13 41 df bd 66 90 bb 3d
       -0.16480573 -0.088147394 -0.10901084 0.09158401
000030 b6 3b b6 bd 00 c8 b9 b8 60 0f 0e bc cc ef 49 bd
       -0.08898108 -8.85874e-05 -0.008670658 -0.049300954
000040 01 b4 14 3e 64 67 85 3d f4 56 d4 bd 3c 95 60 3d
       0.14521791 0.06513861 -0.103681475 0.05482982
000050 1f a0 94 bd 8c 88 c2 bd 30 21 8e bc 4a 20 88 bd
       -0.07257103 -0.094987005 -0.01734981 -0.06646784
000060 54 f2 1e be 35 49 24 be d5 e6 1e 3e 40 0b a8 bd
       -0.15522128 -0.16043551 0.15517743 -0.08205271
000070 fa 5b 15 be 12 0a ad 3d c0 35 19 3d 78 b9 52 3d
       -0.14585868 0.084491864 0.037404776 0.051446408
000080 e7 5a f5 bd 12 ad d0 3d 47 9d 16 3e e0 b5 a9 3b
       -0.11980229 0.101892605 0.14708434 0.005179152
000090 94 d1 15 be 00 2d 3d bb 80 ec ab bc cc 8d 47 3d
       -0.14630729 -0.0028865933 -0.020986795 0.048719212
0000a0 69 2e 96 bd 8e 38 6a bd 4c 8f 32 3d 51 d0 2e 3e
       -0.07333071 -0.05718284 0.04359369 0.17071654
0000b0 8c 7c 2e 3d 90 be cd 3c 5c 3c 71 3d 0f 1a 00 be
       0.042599246 0.025115281 0.058895454 -0.1250994
0000c0 4e ee 32 be 0b e7 08 3e 08 ff 76 3d a0 65 8a 3b
       -0.17473719 0.13369386 0.06030181 0.0042235404
0000d0 60 73 3d 3d 7b af 34 3e 23 e5 04 3e 92 e6 fa 3d
       0.04625261 0.17645065 0.12978034 0.12251009
0000e0 20 a1 97 3b d6 c9 ec 3d af 8b 20 3e c0 5d 18 3c
       0.004627362 0.11561935 0.15678285 0.0092996955
0000f0 bf a4 0d 3e d1 b3 2c be eb 95 09 3e 68 c5 7a bd
       0.13832377 -0.1686547 0.13436095 -0.061223418
000100 8d 99 02 3e 27 b8 82 3a 1a d4 11 bd ef b8 c6 3d
       0.12753887 0.0009973095 -0.035602666 0.09703242
000110 18 eb d9 3d 69 80 30 bd ea cd 38 bc 73 f7 69 bd
       0.10640544 -0.04309121 -0.0112795625 -0.05712075
000120 e0 f5 34 bd 2f cd 5a bc 7d d4 ee bd 31 af f1 3d
       -0.044179797 -0.013354584 -0.11661623 0.11800993
000130 25 d3 29 3e 18 df 70 3d 96 0a 0b bd e0 51 d1 3d
       0.16584451 0.05880651 -0.033945642 0.102206945
000140 ba 92 fe bd 4d 01 94 bc a1 8f 17 be a2 4e a5 3d
       -0.124303296 -0.018067027 -0.14800884 0.08071639
000150 08 d4 71 bd 3b 7e 2a 3e b3 6b 4d bc 27 05 19 bd
       -0.0590401 0.16649716 -0.0125378845 -0.03735843
000160 4b 67 08 bd 4c bb ba 3d 0b 93 0a 3c 80 12 20 3e
       -0.033301633 0.09117755 0.008457909 0.15632057
000170 59 28 c4 3d 23 e8 32 3e d5 0c 90 3d 3e 30 30 be
       0.09578008 0.17471366 0.070336975 -0.17205903

f_h.attn.c_proj.weight f4 [32, 32]
000000 c0 4a 02 be 28 38 75 3b 24 7b 98 bd c2 e0 c6 3d
       -0.12723827 0.0037417505 -0.07445362 0.09710838
000010 12 0f 0f be c2 6a 2b 3e 2e 1d c7 3c e9 07 e5 3d
       -0.13970593 0.16739944 0.024305906 0.11183149
000020 7e c5 0a 3e 1a 62 08 be e1 93 0d be 63 94 84 3d
       0.135519 -0.13318673 -0.13825943 0.06473615
000030 90 df 67 3d e7 69 f1 bc d9 8e 19 3d 57 0d 0a 3e
       0.05660969 -0.029469443 0.037489746 0.13481651
000040 e9 2e f3 3c bb 34 e6 3b ee b2 43 3c 1d 9b 08 3e
       0.029685454 0.007025329 0.011944516 0.13340421
000050 a6 95 02 be 78 5f 68 39 68 bb 5e 3d 05 ad 26 bb
       -0.12752399 0.00022160809 0.054377943 -0.0025432718
000060 e4 f3 cd bc 92 4c a2 3b 34 9f 54 3d e1 7d f6 3d
       -0.02514071 0.0049529755 0.05190964 0.12035728
000070 5e 7e 03 3b 1c fd 01 3e 1a 37 26 3d a2 0c 04 3d
       0.0020064334 0.1269421 0.040579893 0.03223861
000080 71 b1 0c 3e a2 eb 94 bd 4b a9 38 bd 53 f1 30 3e
       0.13739564 -0.07271506 -0.045083325 0.17279558
000090 ae f2 ba bd 6d c5 1c 3e 78 d0 46 bd cc ca 31 be
       -0.09128319 0.15309687 -0.048538655 -0.17362517
0000a0 fe 86 8c 3d 39 e8 06 3e 09 d8 26 bb a7 d9 10 3e
       0.06861685 0.13174523 -0.0025458357 0.14145528
0000b0 95 cb 9a 3d 26 5e 30 be 88 0e 2a be 85 c6 d1 bd
       0.075583614 -0.17223415 -0.16607106 -0.10242943
0000c0 da 44 45 3d 62 3d 5b 3a c2 a4 bb bc 9f b0 fa bd
       0.048161365 0.0008363334 -0.022905711 -0.12240719
0000d0 8f 1e 0b 3e 88 23 c6 3d 1d 2f 1d be 76 1f 6b 3d
       0.13585876 0.09674746 -0.15350004 0.05740305
0000e0 07 30 11 3d 72 81 e2 3d 04 0b 2e 3e 8c ad 63 bd
       0.035446193 0.11059846 0.1699639 -0.05558543
0000f0 9d 24 f4 bc 3e 29 d3 3d ed 05 d2 3d 65 9a f4 3d
       -0.029802615 0.10310601 0.102550365 0.11943511
000100 07 39 18 3d 19 97 65 bd ed 65 b7 bd e9 99 19 3e
       0.03716376 -0.0560523 -0.08954988 0.15000118
000110 fe db 63 3d a6 00 84 3c a1 d1 d2 3b ab 9e 1e 3e
       0.055629723 0.01611359 0.006433681 0.15490215
000120 98 68 ca bd 80 71 c2 3c 5e 3e f3 bd 38 3c 08 3e
       -0.09883231 0.023735762 -0.1187713 0.13304222
000130 c2 25 a1 3d e9 f4 1e be c5 66 cf bd 96 28 a3 3d
       0.0786853 -0.15523113 -0.101270236 0.079667255
000140 56 1a e5 bd 88 e9 f6 3d 32 e9 bb 3d 75 4f 22 be
       -0.11186664 0.12056261 0.09175338 -0.15850623
000150 69 7f 0d 3e cd b4 98 3c d0 e8 f6 bb 03 bb 3b bd
       0.13818134 0.0186409 -0.0075350776 -0.045832645
000160 26 89 8a bd cb d8 1b 3e 06 c3 2f be 06 ab 1d 3e
       -0.0676444 0.15219419 -0.1716424 0.15397272
000170 04 fd f7 bd ca c2 75 3b 46 3a bc 3c c3 6d 31 be
       -0.12108806 0.0037500137 0.022977006 -0.17327027
000180 c7 1c f5 3d 0a e5 ee 3c 1d b7 bf 3d ed 3c 70 3d
       0.119683795 0.029161949 0.09361098 0.058651853
000190 a6 2e 5d 3d 2b c0 bc bd 5c 45 32 3e 93 c1 83 3d
       0.053999566 -0.09216341 0.17409271 0.06433406
0001a0 0c 7f 41 bd 87 1d 1e 3e 77 9d 0d 3e 21 c9 93 3d
       -0.047240302 0.15440951 0.138296 0.07216097
0001b0 0e 7f 0c be a9 24 bc 3d c5 df 0f 3d 61 3c e1 3c
       -0.13720343 0.0918668 0.035125513 0.027494611
0001c0 e3 5f ad bc 68 84 ab 3d 24 2d af bc 19 d0 17 be
       -0.021163886 0.08374864 -0.02138383 -0.14825477
0001d0 db 38 1d bc d1 87 23 3e 5d ef 30 3e 49 7d 71 3d
       -0.009596075 0.15969779 0.1727881 0.05895737
0001e0 1d 2b ee bd 01 99 08 3d d2 3b 0e be 69 42 31 3e
       -0.11629317 0.03334904 -0.13890007 0.1731049
0001f0 df 20 da bd f4 d4 06 be 04 df 88 3c 73 46 78 3d
       -0.10650801 -0.13167173 0.016707905 0.06061406
000200 03 c2 18 3d c1 2e 07 be 7a 37 00 be 83 50 8b bd
       0.0372944 -0.13201429 -0.12521163 -0.06802466
000210 d9 16 d3 bd 7e 9b 12 be 17 d9 cf bd 22 5d 42 bd
       -0.10307092 -0.14317128 -0.101488285 -0.0474521
000220 e1 2c af 3d 1a 27 ce 3d fb 17 ef bd 01 f1 2b 3e
       0.08553482 0.10066052 -0.11674496 0.16791154
000230 bc a2 d2 bd b6 7f 04 bd cf 9f 87 3d 9b ad 1d be
       -0.10284945 -0.032348357 0.06622278 -0.15398256
000240 f9 45 ed 3d 0b 12 ef bd 0e e9 13 be b6 e2 c1 3b
       0.11585612 -0.11673363 -0.14444372 0.0059169186
000250 e8 7e d9 bd 0c 13 f7 3d e6 85 20 be 66 f5 19 bd
       -0.106199086 0.1206418 -0.15676078 -0.037587546
000260 16 10 9e bd f7 b9 5c bd 52 48 31 be e1 49 c7 bd
       -0.07717912 -0.053888287 -0.17312744 -0.09730888
000270 f8 c9 27 3e a5 60 8c 3c 19 9b 06 be 05 cf 72 bd
       0.16385639 0.017135927 -0.13145103 -0.05927946
000280 56 6d d4 3d fd 42 22 3e 71 af 21 bd e3 fe a1 bd
       0.10372417 0.15845867 -0.039473955 -0.07909944
000290 77 82 18 3e 56 79 c3 3d de 1b 1b be aa 6f 5a bc
       0.14893518 0.09544627 -0.15147349 -0.013332287
0002a0 7b 71 da bd 39 62 25 3e c9 f4 dc bd 44 f1 24 be
       -0.10666176 0.1615075 -0.107888766 -0.1610766
0002b0 ca 0d be 3d 33 d2 af 3d 05 66 b4 bd fd 04 58 3c
       0.09279974 0.08585014 -0.08808521 0.013184783
0002c0 23 98 bc bc 34 d0 11 3d 57 d4 c1 bd ca a7 d8 3d
       -0.023021763 0.03559895 -0.09464329 0.10578878
0002d0 0c 4c f5 bd fe 49 e4 bb b0 31 cc bc f6 22 fc 3d
       -0.119773954 -0.0069668284 -0.024926037 0.12311356
0002e0 5e 98 66 3c 7d 9f 68 bd 65 44 19 3e 1b ac c0 bc
       0.014074413 -0.056792725 0.14967497 -0.023519566
0002f0 3c 50 27 3e b6 0c 95 bd 62 91 dc 3d 1d 12 45 bd
       0.163392 -0.07277815 0.10769917 -0.048112977
000300 bf ca 09 3e 78 c7 dd bd 23 a4 d6 bd de 1e a5 bc
       0.13456248 -0.10829061 -0.10480525 -0.02015632
000310 a2 7f 01 be e7 f9 f1 bd e5 c5 d4 bd 47 f6 97 bd
       -0.12646344 -0.11815243 -0.10389308 -0.074200206
000320 83 62 58 bc ac d6 fb bd 02 39 a3 bd 59 7f 2f 3e
       -0.013207081 -0.12296805 -0.07969858 0.17138423
000330 1d 14 4e 3d f1 cf 13 3e 4f 61 0b bd d6 9c 24 3e
       0.05031215 0.14434792 -0.034028348 0.16075453
000340 e8 86 8f bd 62 5e b4 3c a2 1d ba bc fe b0 a4 3d
       -0.07008153 0.022017661 -0.022719208 0.08041571
000350 65 5f 8f bd 54 17 3c bd 06 9b 21 3c 60 4b b8 3d
       -0.07000617 -0.045920685 0.009863621 0.08998752
000360 a4 7f bf bd 07 74 25 3e 9e 7c 04 3e f3 e1 da 3d
       -0.093505174 0.16157542 0.12938163 0.10687628
000370 94 c4 28 3e 34 cc 9d bd 51 d6 e2 bc 8c 6c e9 bb
       0.16481239 -0.07704964 -0.027690085 -0.0071235355
000380 f1 01 7b 3d 05 a8 1f 3e bf a3 2b be 0d 09 7b 3d
       0.06128115 0.15591438 -0.16761683 0.06128793
000390 02 95 14 3e a4 1b d9 bd 2e cc 2f be c4 1a c3 bd
       0.14509967 -0.10600975 -0.17167732 -0.095265895
0003a0 53 63 da bd a7 27 3e 3d 76 2e 67 bc 50 56 d5 3a
       -0.10663476 0.046424534 -0.014110198 0.0016276333
0003b0 f1 ac 26 3e b4 41 f0 b9 ee ce eb bd f4 5b f4 39
       0.1627691 -0.0004582532 -0.11514078 0.00046607817
0003c0 3a 54 c3 bd dd 86 11 bd 4d c1 e5 3d 5e a5 2b 3e
       -0.09537549 -0.035529006 0.1121851 0.16762301
0003d0 bc 1c 27 bd d9 79 2f 3e fa 14 03 be e8 e6 28 bd
       -0.040798888 0.17136325 -0.1280097 -0.041235834
0003e0 c9 fa e3 bc 12 ca 02 be 88 31 a0 bd 47 ab 1b 3e
       -0.027829545 -0.12772396 -0.07821947 0.15202056
0003f0 6e e7 2e 3e fd 0f 9d 3d 9e a8 25 3e fa 05 3c bd
       0.17080471 0.07669065 0.16177604 -0.045904137

f_h.attn.c_proj.bias f4 [32]
000000 b7 e7 00 bc 3a 4c cc bc c1 82 e4 ba 6b 57 b6 3d
       -0.007867745 -0.024938691 -0.0017433987 0.089033924
000010 3d 47 1f be 97 6f 20 be 86 b7 95 3c d3 f1 84 bd
       -0.15554519 -0.15667568 0.018275987 -0.06491437
000020 9c c3 1d 3e 4b 82 86 3d 9f f1 fa 3d 23 01 90 3a
       0.1540665 0.0656782 0.12253117 0.0010986667
000030 8e 08 6f 3d 18 19 23 3e cb b0 e5 3b f6 b9 14 bd
       0.058357768 0.15927541 0.0070096008 -0.03631016
000040 ff d8 89 3d ed ff af bd a0 40 0c be b4 3a e8 3d
       0.06730842 -0.08593736 -0.13696527 0.11339322
000050 92 03 9a 3d 43 1b 0c be 47 fa 1f bc 6f 00 b5 bd
       0.07520212 -0.13682275 -0.009764261 -0.08837973
000060 65 50 0f be 89 a0 99 3c 54 71 f7 bb 16 e1 0a be
       -0.13995512 0.018753307 -0.0075513516 -0.13562426
000070 1f 32 ad 3d fa 47 a7 3d c8 f9 07 3e ed c1 bc bd
       0.084568255 0.08168025 0.13278878 -0.09216676

f_h.mlp.c_fc.weight f4 [128, 32]
000000 5d 0d 9e bd 29 97 94 3c 33 e6 d4 bd 19 00 c6 bd
       -0.077173926 0.018138485 -0.103954695 -0.096679874
000010 c7 06 15 3e d6 f1 c7 bd 3f 1b 4d bd 59 0c ef bd
       0.14553367 -0.097629234 -0.050074812 -0.11672277
000020 74 ff 26 be 5e d0 80 bd 54 d0 8d 3d a7 97 69 bd
       -0.16308385 -0.06289743 0.06924501 -0.057029393
000030 10 06 1d 3e d7 c1 ce 3d 35 6d 86 bd 2b 71 50 bd
       0.15334344 0.10095566 -0.06563798 -0.050889175
000040 a4 f4 17 bd 4f 11 b3 3d 65 0f 18 be 95 28 19 be
       -0.03709854 0.08743536 -0.14849623 -0.14956887
000050 f1 8d fd ba 77 aa db bd 4c 35 51 3b f8 80 09 be
       -0.001934467 -0.10725873 0.0031922637 -0.13428104
000060 0c 6c 9d 3c d0 ab 1f 3e 68 6f fe 3d a2 46 31 3e
       0.01921656 0.15592885 0.12423593 0.173121
000070 48 a6 2e 3e e7 00 00 3e f3 85 ec 3c 8b 77 4a 3d
       0.17055619 0.12500344 0.028872466 0.04943041
000080 f4 ac d7 3d f3 f6 29 be 60 e0 24 be ac 79 ca bd
       0.10531035 -0.1659811 -0.16101217 -0.09886488
000090 f3 e2 9e bd c4 10 01 bd 18 13 a6 3d 9f 42 06 be
       -0.07758131 -0.03151013 0.081091106 -0.13111351
0000a0 39 8e 4e bc 8b f3 6b 3d ea 3c ec 3d a4 44 fd bd
       -0.012607151 0.057605308 0.11535056 -0.12366608
0000b0 2a ce 28 3e 3d 0a cd bd c7 49 19 3e 46 eb 75 bd
       0.16484895 -0.100117184 0.1496955 -0.060038827
0000c0 ec 17 71 bb a3 d5 8e 3d c8 ce 9e 3c 86 d4 80 bb
       -0.003678794 0.06974342 0.01938571 -0.003931585
0000d0 69 d9 13 3e 87 ef 26 be 3a 2d 2a 3d d2 af 90 bc
       0.14438404 -0.1630231 0.041547038 -0.017661963
0000e0 71 58 76 bd ad 2d 15 be b1 13 92 ba 7a 9c 0a 3e
       -0.060142938 -0.14568205 -0.0011144785 0.13536254
0000f0 f2 03 d6 bd 8d 2b 48 3d ae ba e7 3c 38 55 c2 3c
       -0.10449971 0.04886966 0.028287258 0.023722276
000100 a3 31 f3 bc db 14 d8 3d 1d 25 15 3e d8 e8 1c be
       -0.029686755 0.10550853 0.14564939 -0.15323198
000110 cb 80 a3 3d 1f 5e e2 3a 59 5d ea bc bb 84 d4 bd
       0.0798355 0.0017270482 -0.028608965 -0.10376879
000120 55 27 cf 3d 68 2e b7 ba 4c b1 fd 39 4e f7 92 bd
       0.10114924 -0.0013975622 0.00048388017 -0.07176076
000130 8f 5e b0 bc c6 44 01 be d3 fe 2d bd 1a 24 a8 3d
       -0.021529464 -0.12623891 -0.042479347 0.08210011
000140 fb 9a cf bc 2b c3 b6 3d c6 1b c4 3d 7a 53 1b be
       -0.025342455 0.08923944 0.0957561 -0.15168563
000150 4b 1a fa bd aa 1d 30 3c 78 04 09 3e db 54 1d 3e
       -0.12212046 0.01074926 0.13380611 0.15364401
000160 27 e5 3d bd 92 8f 1a be 97 2d c4 bc 63 52 1c be
       -0.046361115 -0.1509383 -0.02394752 -0.15265803
000170 d6 54 10 be 09 7f 44 3d 99 7f 26 3e 3a 3a ad 3c
       -0.14094862 0.047972713 0.16259612 0.021145929
000180 97 47 55 bd 63 2b cc 3d aa 3f f0 3d 2b 66 08 3d
       -0.052070227 0.09969213 0.11730893 0.03330056
000190 5f f0 38 3c d2 34 ce bd 79 68 a7 bc 1b 79 a7 bd
       0.011287778 -0.100686684 -0.020435559 -0.08177396
0001a0 56 48 fa 3d 9a c0 c8 3d df 86 c9 3d b3 da 2d bd
       0.12220828 0.09802361 0.09840178 -0.042444896
0001b0 18 2f 2a bd a1 94 d1 3c 48 da 00 be 6b 23 01 be
       -0.04154882 0.025583567 -0.12583268 -0.12611167
0001c0 61 13 a8 bd db 5f 5b bd ea 57 bc bd 60 cb 2f 3e
       -0.08206821 -0.05355821 -0.09196456 0.17167425
0001d0 40 37 34 bc b4 36 41 bd 7f c5 30 be a1 f2 27 be
       -0.010999501 -0.04717131 -0.17262839 -0.1640115
0001e0 35 70 66 bd 45 25 63 bd 57 f5 76 bd 17 d0 ef 3d
       -0.056259353 -0.055455465 -0.060292568 0.11709612
0001f0 52 4f e7 bd a0 2c 1b be 38 b8 13 3e 2d 9b 82 bd
       -0.11294426 -0.15153742 0.14425743 -0.06377254
000200 4c 25 e0 bd 98 d0 87 3d 5f ef ee 3d 78 05 5d bd
       -0.10944614 0.06631583 0.1166675 -0.053960294
000210 8a b4 e7 3b 04 8d 90 bb 96 8a ff bc f4 19 e3 bd
       0.0070710825 -0.0044113416 -0.031194013 -0.110889345
000220 64 7b 57 3d e8 7a 25 3e a4 2b e8 bd 5f 9a 73 3d
       0.05260791 0.16160166 -0.11336449 0.05947339
000230 0b 18 2b 3e 60 ec b2 bb 48 27 bc 3d 79 f5 00 3e
       0.1670839 -0.005460307 0.0918718 0.1259364
000240 f6 33 6b ba be 44 09 3d df 4e 92 bb 90 53 da b8
       -0.00089722814 0.033512823 -0.0044649686 -0.00010410615
000250 ac 4f db bd 26 ad 95 bd 44 ce c0 bd 7a d6 29 3e
       -0.107085556 -0.07308416 -0.09414342 0.16585723
000260 4f a5 af bd 84 c1 e7 3d 01 1f 00 3e 06 4e 10 3e
       -0.08576452 0.11316207 0.12511827 0.14092264
000270 25 f7 82 3d 3e c8 c2 3d a6 4f 9f 3d a7 83 8b bd
       0.06394795 0.095108494 0.077788636 -0.0681222
000280 3c de c5 3c ed 9c 88 bd 3e 65 41 3d f5 dd e5 bd
       0.024153821 -0.06670556 0.047215693 -0.112239756
000290 93 03 f5 3c f7 9e a6 bd d2 34 93 bd 02 d4 ac bc
       0.02990893 -0.08135789 -0.07187809 -0.021097187
0002a0 b5 14 24 be a9 cd 0c be ff d6 16 bc 10 ae 33 3e
       -0.16023524 -0.13750328 -0.0092065325 0.17546868
0002b0 c4 53 e1 bd 81 8b 30 be 49 f0 47 3c ed 30 2e be
       -0.11002305 -0.17240717 0.012203285 -0.17010851
0002c0 e8 c1 f5 bc ba 14 70 bc 13 45 a1 3d 44 81 0b 3e
       -0.029999688 -0.014653379 0.07874503 0.1362353
0002d0 49 6c 68 3d c9 bc ee bd 4b 82 5b 3c 9e 3f d6 3d
       0.056743894 -0.11657102 0.0133977635 0.10461353
0002e0 89 85 6b bd d1 68 8e bd 33 6b 25 bc 76 27 93 3d
       -0.057500396 -0.06953586 -0.010096359 0.07185261
0002f0 eb 51 27 bd a7 8e a0 3d a7 86 a2 3b 91 35 23 be
       -0.040849607 0.07839709 0.0049598995 -0.15938403
000300 41 95 1b bc 37 ae f2 bd 46 90 6d bd 82 ef ba bc
       -0.009496034 -0.11849635 -0.057998918 -0.022819284
000310 26 52 8d 3d e9 a4 8b bd e3 e2 47 3d 58 bf b0 3b
       0.06900434 -0.068185635 0.04880036 0.0053939037
000320 b2 7c 45 3d 63 a3 00 bd cb bd ff bd 3d 81 87 3d
       0.04821462 -0.031405818 -0.12487372 0.06616447
000330 72 48 0e be 46 bb 23 bd b9 54 5b 3d 59 86 16 be
       -0.13894823 -0.03997352 0.053547595 -0.14699687
000340 56 9b 2c 3e 44 56 99 bd b5 4d 24 bd c0 59 1f be
       0.16856131 -0.07487157 -0.04011317 -0.1556158
000350 b5 d9 4a 3d 16 eb 5d bd 95 12 ae bd f8 f2 86 bc
       0.049524028 -0.054179274 -0.08499638 -0.016473278
000360 5c 01 e6 3d 2c 34 83 3d 03 ec bc 3d 61 83 9e 3c
       0.11230728 0.06406435 0.09224703 0.019349756
000370 9d df 22 bd 3d 39 c9 bd a3 88 04 be 87 72 0b be
       -0.039764035 -0.098253705 -0.12942748 -0.13617907
000380 73 93 f4 3d b3 6e e6 3d bc ed ce bd 9d 58 bc bc
       0.11942186 0.11251583 -0.10103938 -0.022991473
000390 fb 2a f4 3d 35 be 19 be 7e a1 4d bd ac be a9 bd
       0.119222604 -0.15013964 -0.05020284 -0.08288321
0003a0 72 89 f1 3d 35 76 2b bd a8 38 0a 3e 84 15 eb 3c
       0.11793794 -0.041860778 0.13498175 0.028696783
0003b0 0e 22 fd bc d7 ba 80 bd a1 1e 10 3e b8 f5 2a be
       -0.030900028 -0.06285637 0.14074184 -0.16695297
0003c0 64 c7 30 be 1a 20 10 3d 28 15 54 3d e4 f2 2f be
       -0.17263561 0.035186864 0.05177799 -0.17182499
0003d0 40 eb e6 3d ae 4d b4 3c 86 6b 1d 3b 96 d2 29 be
       0.11275339 0.022009697 0.0024020388 -0.16584238
0003e0 2c dd d5 3c d8 e2 11 3e 81 15 fe bd 04 4a df bd
       0.02610644 0.1424669 -0.12406445 -0.10902789
0003f0 a0 7c 1a be 03 08 b6 3d 41 ee 1c be 73 57 2d 3e
       -0.15086603 0.08888247 -0.15325262 0.1692789

f_h.mlp.c_fc.bias f4 [128]
000000 1f 43 43 3c 65 93 e3 3c 41 fd 21 3d e4 17 d1 3c
       0.011917858 0.027780244 0.039548162 0.025524087
000010 81 b4 5f 3d b7 72 1b bd a1 5e 13 3e f9 84 d1 3c
       0.0546155 -0.037951197 0.14391567 0.025576102
000020 13 3a 20 be 20 ad 39 3d a5 00 1f 3e 1b db b7 3d
       -0.15647154 0.04533112 0.1552759 0.08977338
000030 e2 2e 10 be d8 3f 2e be 03 37 1a 3e 89 fb dd 3d
       -0.14080384 -0.17016542 0.15060048 0.10838992
000040 1f c8 a5 bd de fa ad 3c 7b b3 0d 3e fe 89 8d 3d
       -0.08094811 0.021237787 0.13837998 0.069110855
000050 ba 3a 8e 3d 4f 1c 31 3c 58 64 31 bd 3d 4d 2d be
       0.06944795 0.010809972 -0.043308586 -0.16923995
000060 d1 58 0c 3d 83 d4 9d bd 7d 27 92 3d f8 e1 f1 bd
       0.03426439 -0.07706549 0.07136438 -0.11810678
000070 14 0c 15 be 0c d3 05 3e 7b c5 37 bd f6 06 49 3b
       -0.14555389 0.13068789 -0.044866066 0.0030674315
000080 30 5a 84 3c 7e 85 2a be ad e6 03 be 2f 83 e7 bd
       0.016156286 -0.16652486 -0.12880965 -0.11304318
000090 ed a9 02 3e 63 28 1e be 66 9b 59 3d 1e 55 f4 bd
       0.12760134 -0.15445094 0.053126715 -0.11930297
0000a0 1a 62 44 3d 5c b5 e8 bc 31 3a d0 3d 41 95 1b be
       0.04794512 -0.028406791 0.10167349 -0.15193655
0000b0 e2 20 97 bc c1 62 25 be c1 47 2f 3e 87 8a ee bd
       -0.018448297 -0.16150953 0.17117216 -0.11647516
0000c0 03 b3 6e bc be 8f ee 3d 4b 2d 40 bd 43 a2 e5 3d
       -0.014569047 0.116485104 -0.046918195 0.112125896
0000d0 b4 12 40 3d 46 d7 2b bc 50 7a a7 bd cc 4a 9e bd
       0.046892837 -0.010488337 -0.08177626 -0.0772911
0000e0 57 66 da bd 9d c3 28 bd 65 ef 04 3c ab 4f 0a be
       -0.10664051 -0.041202176 0.008113717 -0.13506953
0000f0 6d 31 b9 bc 93 ba 5e 3d 1e 6d 0f 3e 74 44 69 3d
       -0.022606576 0.05437715 0.14006469 0.056950048
000100 00 a9 15 be d4 02 a3 3d c4 5d 44 bd 18 81 c9 3d
       -0.1461525 0.07959524 -0.047940984 0.09839076
000110 7f 96 76 3d 32 f3 09 3e 73 a4 fb bd b6 fe 8b 3d
       0.060202118 0.13471678 -0.122872256 0.06835692
000120 54 4f b9 bd b4 05 da 3d b6 32 23 be 8d 98 94 3d
       -0.09048334 0.10645619 -0.15937313 0.07255659
000130 45 f5 53 bc 42 92 24 3e ee 58 09 be f8 1b 07 3e
       -0.012936895 0.16071418 -0.1341283 0.13194263
000140 52 5c 85 3d d5 18 cd bd 2e 41 7a 3d 7c b5 b0 bd
       0.06511749 -0.10014502 0.061097316 -0.086283654
000150 1d d6 89 3d 6a d2 f6 bc 07 9d 00 3d cf d0 b0 bd
       0.06730292 -0.03012963 0.031399753 -0.08633577
000160 92 ba 80 bc ae 1d e4 bd 13 75 1f be b5 aa 1e 3e
       -0.015713964 -0.111384735 -0.15572004 0.15494807
000170 b8 e3 10 be 7e 33 c8 3d b0 b8 ec 3d db b9 b1 bd
       -0.14149368 0.09775446 0.11558664 -0.08678027
000180 2d b5 eb 3c 6c 46 88 3d 30 02 cb b9 e5 50 cf 3d
       0.028772915 0.06654057 -0.00038720807 0.10122851
000190 40 aa 1e bd bd 87 10 bd 4b 4f 9a bd 48 87 aa bd
       -0.03873658 -0.0352857 -0.07534655 -0.08326584
0001a0 9e df c6 3c fe b2 27 be c9 63 ea bd 3c 05 10 bc
       0.02427655 -0.16376874 -0.11444814 -0.0087903105
0001b0 5a 36 b9 3d 2f 88 e7 bd 83 e2 24 be 8b 18 33 3d
       0.0904357 -0.11305272 -0.16102032 0.043724578
0001c0 b0 e9 78 bd f3 cf e2 3d fe 2e cf bd 36 24 4f 3d
       -0.060769737 0.110748194 -0.10116385 0.050571643
0001d0 d1 c6 18 3e 0d 26 20 be 4f bb 86 3d ad 67 31 be
       0.14919592 -0.15639515 0.06578695 -0.17324705
0001e0 de 88 c0 bd 73 7e 81 3b b9 db ef 3c 53 c1 cf 3d
       -0.09401105 0.0039518415 0.029279577 0.101442955
0001f0 ac c4 c5 bd 74 e8 26 3e a8 df 2d be 24 c1 61 3d
       -0.09656653 0.16299611 -0.1697985 0.055115834

f_h.mlp.c_proj.weight f4 [32, 128]
000000 82 1f 3a 3d 22 eb 1b 3d a9 06 62 3d a9 69 94 3d
       0.045440204 0.038066037 0.055182133 0.072467156
000010 e8 42 b2 3d 31 b3 a2 bb 51 f8 b4 bb a4 b9 ca bc
       0.087041676 -0.004965209 -0.0055227657 -0.024746723
000020 90 fb 64 b9 15 aa 79 bd 45 7a 95 ba ce 08 75 3c
       -0.00021837489 -0.06095322 -0.0011404237 0.0149557125
000030 2d 51 cc bc 85 92 0a 3d a5 04 98 3d 34 5b 2e bc
       -0.024941051 0.03383114 0.07422761 -0.010641862
000040 9c a4 9f bd 6a c4 74 3a b3 6d c0 3c fb c2 02 bd
       -0.077950686 0.00093371293 0.023489809 -0.03192423
000050 40 d9 b4 bd 7c 0f de 3b 38 ae 96 bd 59 c1 b0 bd
       -0.088305 0.006776748 -0.07357448 -0.08630628
000060 fa f8 da 3c 57 e6 8a 3d b4 57 49 3c 72 c7 e6 bc
       0.02673005 0.06782215 0.012288976 -0.028171275
000070 85 2d 21 3d da 64 77 3d a8 ae 42 3b 6c 51 23 bc
       0.03935005 0.060398914 0.0029706154 -0.009968143
000080 42 cc 8f 3d 29 7e b5 bd 31 e9 47 bd 30 64 5d bd
       0.07021381 -0.08861954 -0.048806373 -0.054050624
000090 bf 41 2c bd 62 1d 81 3d d6 df c1 3b 3a 56 86 bd
       -0.042054888 0.063044325 0.005916576 -0.06559415
0000a0 a6 62 9f 3d b6 aa 6a bd 00 f9 6a bd 48 61 93 3d
       0.077824876 -0.05729171 -0.05736637 0.07196289
0000b0 86 63 04 3d dc c8 4d bd f4 54 0d 3d 64 80 65 3d
       0.032321475 -0.050240383 0.034504846 0.056030646
0000c0 d3 55 d8 bb 10 fd 3f bd 87 b0 80 bd 84 e6 35 bd
       -0.006602028 -0.0468722 -0.0628367 -0.04440929
0000d0 09 e3 06 bc 08 c8 ec bc 6e 80 6f bd 63 d5 a9 3d
       -0.00823284 -0.028903976 -0.05847209 0.082926534
0000e0 14 8d c0 bc 0a 04 a0 bd 47 62 51 bd 47 4a b4 bc
       -0.023504771 -0.078132704 -0.051119115 -0.022008074
0000f0 d9 db b6 3d 58 15 9c 3d 2c a5 49 3d 38 9a 15 3d
       0.08928651 0.076212585 0.049229786 0.036524028
000100 c7 fb ae 3d b5 67 7c bd 2b b3 2f 3d f3 fd 1b bd
       0.085441165 -0.06162234 0.042895477 -0.03808398
000110 e9 5b ad bd 26 bb 28 bd 79 51 9a 3d e5 4f 14 3d
       -0.08464796 -0.041194104 0.07535071 0.036209006
000120 88 18 d9 3c f4 6c 95 bd 52 10 ae bc 0c 99 06 bd
       0.026500955 -0.07296172 -0.021248017 -0.0328608
000130 fa 0d b3 bb f5 f9 01 bd 28 ca b3 3d fd c0 8e bc
       -0.0054643126 -0.03173252 0.087787926 -0.017426008
000140 0a 4d 16 3d 5a 64 ea 3b e4 39 64 bd 5d 55 28 3d
       0.036694564 0.007153076 -0.05571927 0.041097034
000150 d1 ab 63 bd 48 fd 2e 3d a1 26 e7 bc 6a 22 3a bd
       -0.05558378 0.042722017 -0.028216662 -0.045442976
000160 22 74 48 bd cc 0d 92 bc 19 a1 9e bd 1c bd 2d 3d
       -0.048938878 -0.017828844 -0.07745571 0.042416677
000170 70 1d 4c 3b f5 fd 03 bd 0c 78 8c 3d fb 9f 9d bc
       0.0031145476 -0.032224614 0.068588346 -0.019241324
000180 12 b5 48 bd 2c e7 1d bd 8d ea a6 bc 4f e3 8c bc
       -0.049000807 -0.03855054 -0.020375514 -0.017198233
000190 c3 15 68 bd 45 41 4e 3b e8 27 8d 3d 5f a1 d6 3c
       -0.05666138 0.003147201 0.06892377 0.026199995
0001a0 a4 eb 92 bd b2 47 c7 bb bc 1f 1a bd f4 44 a7 3c
       -0.07173851 -0.006081545 -0.03762792 0.020418622
0001b0 b5 14 90 bd 85 64 1a bd 46 4b eb 3b 43 7f 66 bd
       -0.070351996 -0.03769352 0.007180604 -0.05627371
0001c0 4d 27 9c bd 9a a7 e0 bc 8e d1 51 bd 90 12 70 3d
       -0.076246835 -0.027423669 -0.051225238 0.058611453
0001d0 dd 58 b1 bd 7d c6 5c bd e2 9e 58 bd 4d da 84 bc
       -0.086595275 -0.05390023 -0.052885897 -0.016217375
0001e0 be bb 68 bd c6 8b 88 bd 5a 6b 23 bd 87 c7 8a 3d
       -0.05681967 -0.06667285 -0.0398973 0.06776338
0001f0 69 37 11 3d 79 d2 a4 3d 28 a1 76 bd 2d fb 96 3d
       0.035453234 0.08047957 -0.060212284 0.07372127
000200 b4 f2 ed 3c eb f5 99 3d f4 76 89 bd 2b 92 99 bc
       0.029046394 0.07517608 -0.06712142 -0.018746456
000210 f0 fb 68 bd 10 3e a3 bc c6 1d 63 3d 2f eb 5e 3c
       -0.05688089 -0.019927055 0.055448316 0.013605877
000220 b0 2a a9 bd e2 90 93 3d 09 0c 31 3d 94 0e f2 bc
       -0.08260095 0.072053686 0.04322437 -0.029547967
000230 67 c1 65 bd 95 c0 ce 3b 86 88 68 bd 39 e5 83 3d
       -0.056092646 0.0063095787 -0.056770824 0.06440205
000240 56 e3 db bb 4c fa a1 bd 1f 45 c7 3c 3c 28 22 3d
       -0.00671045 -0.079090685 0.024324952 0.03958915
000250 c2 bb 38 bd 76 2a ef 3c 5b 7b b3 3d be a3 15 bd
       -0.045100935 0.029195052 0.087637626 -0.03653311
000260 9a f3 ca 3c 71 8b 0d 3d 80 f0 e3 b8 4b 75 f4 bc
       0.024774361 0.03455681 -0.00010869 -0.029841086
000270 42 e0 21 bd 80 09 e5 3c cb 18 73 bd 4e 6c 24 3d
       -0.03952051 0.027958632 -0.059349816 0.04014235
000280 27 08 33 3d 9c 9e 9f bd ac f7 7c 3d e8 fb 1a 3d
       0.043708947 -0.07793924 0.061759636 0.037837893
000290 5a bf 87 3d 47 33 fd 3c d9 2a 8e 3d b9 9a 7e bd
       0.06628294 0.03090824 0.06941766 -0.062159274
0002a0 73 d2 ab 3d 43 4f 83 bd fb e4 ac bd 94 ca 72 3d
       0.083897494 -0.06411602 -0.08442112 0.059275225
0002b0 c5 75 98 bc b6 d8 74 3c c0 a6 92 bd c2 e6 2c bb
       -0.018610844 0.014944246 -0.07160711 -0.002638266
0002c0 7d 88 0d bd 98 29 9f 3d e5 e1 84 bd fe be 41 bd
       -0.034553993 0.07771605 -0.064883985 -0.047301285
0002d0 16 06 63 3d de e6 22 3d e9 75 af bd 0e a6 b0 3d
       0.055425726 0.039770953 -0.085674115 0.086254224
0002e0 6f 7d 1a bd 30 60 07 bd ac fc 13 3d bb 7b f8 ba
       -0.03771728 -0.033050716 0.03612964 -0.0018957773
0002f0 f0 5f 8c bd 44 9a 89 3d 3d 1d a7 bd a0 f3 37 3d
       -0.06854236 0.06718877 -0.08159874 0.044910073
000300 7f 37 da bc cd 56 37 bc ed 26 cc bc ee b1 40 3d
       -0.02663779 -0.0111901285 -0.024920905 0.047044687
000310 64 d5 9f bd ef 90 6c 3d 15 73 92 3d 21 c5 e9 bc
       -0.07804373 0.057755407 0.071508564 -0.028536381
000320 b7 e9 93 bd b1 80 86 bc 3e 4b 90 bd 8d 21 e1 3c
       -0.07222312 -0.016418787 -0.07045601 0.027481819
000330 a9 86 17 bd 6a ba 8f bd 6a de 53 bc a7 42 df 3a
       -0.036993656 -0.070179775 -0.012931446 0.0017033414
000340 99 de 34 3d 6c 5b 49 3d 54 4c 3b 3d 74 00 1f 3c
       0.0441576 0.049159452 0.04572709 0.009704698
000350 9c d6 28 bd 10 7a 99 bd 76 12 50 bc 17 bc 02 bd
       -0.041220292 -0.07493985 -0.012699714 -0.031917658
000360 f6 bf f2 3b f0 95 e7 bb 40 fa 1c bd 8c 13 47 3d
       0.0074081374 -0.0070674345 -0.038324594 0.048602626
000370 4b 7f 7a 3d db c2 38 3d 55 24 d4 ba 95 59 24 3d
       0.061156552 0.045107704 -0.0016185144 0.040124495
000380 66 50 bf bb ab dd 42 bd b8 31 14 bd 3a 20 aa bd
       -0.0058384417 -0.04757468 -0.036180228 -0.08306928
000390 a2 90 b4 bc 54 90 83 bd 5c e0 87 bc 12 13 11 bb
       -0.022041623 -0.06424013 -0.016586475 -0.002213661
0003a0 01 16 92 3d 78 c9 d4 3c 1c dd 0f 3d 52 cc 4b bd
       0.07133103 0.025974974 0.035122976 -0.049755402
0003b0 ba fb 87 3d 05 18 43 3d 2a 0d 99 3d be 9d 11 bd
       0.0663981 0.04763033 0.07473214 -0.035550825
0003c0 45 a5 58 bd 6a 45 a2 bc 98 f0 8e 3d f2 ff 45 bc
       -0.05289199 -0.01980849 0.06979483 -0.012084948
0003d0 53 9a 01 bc 35 2f 86 3d d8 f0 69 bd 8c 9f f1 bc
       -0.007910329 0.06551973 -0.057114452 -0.029495023
0003e0 c5 2f 0f 3d 3c 7f e9 3b c8 69 8e bd 9e 75 47 bc
       0.034957666 0.007125763 -0.0695377 -0.012174038
0003f0 22 9b 00 bd e1 63 06 3c 05 6a ff 3c fe 1c 2f bd
       -0.031397946 0.008202524 0.031178484 -0.04275226

f_h.mlp.c_proj.bias f4 [32]
000000 7d dd 87 bd dd 7c a1 3d 34 98 72 bd 0c 7b a6 3b
       -0.066340424 0.07885144 -0.059227183 0.0050805863
000010 89 26 a0 3d ae 30 b4 3c 42 fb 97 bc 1f 7e 0c bd
       0.0781985 0.021995869 -0.018552426 -0.034299966
000020 5e 81 e4 3c 55 0e 8b 3d 37 1b 9b 3d 2c a5 8b 3d
       0.027893718 0.06789843 0.0757355 0.068186134
000030 eb 1f b4 3d fe df 5b bd 3d 83 88 3c 3a 9e 9b bd
       0.0879515 -0.053680412 0.016664142 -0.07598539
000040 d8 4a a1 bd 30 e8 50 bd b8 96 ea bb 2b 6d 95 bd
       -0.078756034 -0.05100268 -0.0071590804 -0.07296213
000050 5a 1d 1a bd b9 22 29 bd 60 7c 05 3d d9 02 a5 bb
       -0.037625648 -0.04129288 0.032589316 -0.00503574
000060 2d d4 94 3d ad ae 6c bd 4d 16 d1 bc 09 e7 6d 3d
       0.07267032 -0.05778377 -0.02552333 0.05808166
000070 27 62 16 3c d7 5a a0 3d e7 f1 a7 3c 20 97 9b 3d
       0.009178675 0.07829826 0.02050109 0.07597184

f_n.weight f4 [3, 32]
000000 6a d1 00 3e 68 ca 33 3c 3f ee 76 3d 4e b2 70 3d
       0.12579885 0.01097355 0.060285803 0.058763795
000010 04 63 bc bd ed ea 92 3d ce 4b e2 3c 4d 2e 0d 3e
       -0.09198573 0.07173715 0.027624037 0.13787194
000020 28 f9 31 3e 55 46 13 3c 2c 3e 32 3e ac 7e 73 bd
       0.17380202 0.008988936 0.17406529 -0.059446976
000030 4b c5 93 3d 60 a8 1b be b7 85 b4 bd f2 a0 99 3d
       0.07215365 -0.15200949 -0.088145666 0.07501401
000040 32 79 ff bb 4e 35 61 3d 92 50 b8 3b b1 09 80 3d
       -0.00779643 0.054982476 0.005624839 0.062518485
000050 22 b8 32 3d 04 bb 33 be 70 0a c0 bd db 2f ae 3d
       0.043632634 -0.1755181 -0.09376991 0.085052215
000060 d7 d8 fe bd 2d 7a c8 3d 21 ee 02 3e 1b fd ed 3d
       -0.12443703 0.09788928 0.12786151 0.11620542
000070 31 72 d9 bd 26 cd 1d be fa 93 b0 bd fe d6 0d be
       -0.106174834 -0.15410289 -0.08621974 -0.13851544
000080 6a 4d df bd d6 94 4b 3d 34 41 14 3e 25 28 86 bc
       -0.109034374 0.049702488 0.14477998 -0.016376564
000090 c3 9c 22 3e 85 73 a8 bc 0f 94 2c 3d 30 63 83 3c
       0.15880112 -0.020562897 0.042133387 0.016038507
0000a0 b0 e0 0a 3c f1 80 f7 3d 72 ea 2c bd 24 5a be bc
       0.008476421 0.120851405 -0.042215772 -0.023236342
0000b0 6b 71 d0 bc 62 0c 44 bd 3f 59 2a be 0e 2b c3 3d
       -0.025444707 -0.04786337 -0.16635607 0.095296964
0000c0 bb da dc bd 85 ed c6 3d 9d 4e 93 3d d9 c5 6e 3c
       -0.10783907 0.09713272 0.07192729 0.014573538
0000d0 50 51 32 be 95 3e dc bd c5 3b 84 3d f5 40 72 bc
       -0.17413831 -0.10754124 0.06456713 -0.014785995
0000e0 b4 2f 7d 3c 25 d7 94 3d d9 85 19 3e fa 5d 16 3e
       0.015453268 0.07267598 0.14992465 0.14684287
0000f0 53 50 31 bc e9 7a ee 3d 0a 63 2a 3e b2 11 20 3d
       -0.010822373 0.11644537 0.16639343 0.039079376
000100 4a 2f 2a bc b3 9b 2a be 35 52 32 bc ae 45 61 bd
       -0.010387251 -0.16660957 -0.0108838575 -0.054998092
000110 4e 5c a3 bd 6a 6b 14 3d 87 64 c2 3d b7 92 2b be
       -0.0797659 0.03623525 0.0949183 -0.16755186
000120 98 f1 30 3e 94 b9 0e 3e f9 57 c4 3d b2 e2 32 bd
       0.1727966 0.1393798 0.09587092 -0.043673225
000130 08 ce 94 bd 5d 17 95 bc 3a f7 23 be dd c0 5d 3d
       -0.0726586 -0.018199617 -0.16012278 0.054139007
000140 ee 8c f6 3b 85 0c d6 bc b4 4d 6e bd 38 0c 96 bd
       0.0075241243 -0.026129017 -0.058179572 -0.07326549
000150 fa 6c 65 bd 66 98 cb 3b 4e 6d 2d 3e 11 bd f3 bd
       -0.05601213 0.0062132357 0.16936228 -0.11901296
000160 05 39 8a 3d b8 a7 6a ba 53 a7 9a 3d 3e 06 36 3d
       0.06749157 -0.00089513836 0.07551446 0.044439547
000170 c3 c4 9b bd 40 ab b7 37 d9 f3 be 3d a4 ad 1e 3e
       -0.07605889 2.1895044e-05 0.09323854 0.15495926

f_n.bias f4 [3]
000000 f1 98 30 3e ac bd b8 bd 0d 56 24 be
       0.17245843 -0.09020552 -0.16048451
