checkpoints/last_checkpoint.pth (torch, 798543 bytes, 11 tensors)

f_1.weight f4 [128, 3]
000000 ff 9d 8f 3c f6 2c fd be 80 b9 04 bf c5 86 05 bf
       0.017531393 -0.49448365 -0.5184555 -0.52158767
000010 0a 7b 53 be 6b 1c c4 3e 31 02 0f 3f c1 bd 63 3d
       -0.20652404 0.3830293 0.5586272 0.055600885
000020 ef 6e 9a be 8e d9 10 3f 91 58 d3 be 8e 22 cb 3c
       -0.3016276 0.5658196 -0.41278508 0.02479675
000030 0e 02 ab bc 16 00 6a be 21 63 0a bf 24 91 ce be
       -0.020875003 -0.22851595 -0.5405751 -0.40345109
000040 54 a4 d5 be ef c7 3e 3e c0 6c 47 3c 2c 91 f2 3e
       -0.41726935 0.18630956 0.012171924 0.47376382
000050 71 ad 9d bd 0b e0 87 be b1 31 e7 be 71 a8 e9 3e
       -0.07699097 -0.2653812 -0.451551 0.45636323
000060 09 4a 8d 3e 26 af ec be f6 c0 bf bd 6d 02 9d be
       0.27595547 -0.46227378 -0.09362976 -0.30665913
000070 63 9e b2 3d 08 70 e9 3e f4 3b c6 3e 30 56 a7 3e
       0.08721616 0.45593286 0.38717616 0.32682943
000080 06 74 4e be 09 e3 e0 be 8c 43 59 bb 5f 4d f4 bd
       -0.20161447 -0.43923214 -0.0033151833 -0.1192882
000090 ed 6f c2 3e 6f c6 89 3d e5 b9 ff bd 12 9e 06 3f
       0.37976018 0.06727301 -0.124866284 0.52584946
0000a0 a5 5a 90 3e 92 fa fd be 15 17 9f be ff a4 0b bf
       0.28194156 -0.49605232 -0.31072298 -0.5454864
0000b0 22 4a 84 3e 82 66 97 be ba 20 4c 3e 1d e8 32 3e
       0.2583781 -0.29570395 0.19934359 0.17471357
0000c0 8e c8 a7 3e 89 82 8e 3e 42 eb 2c 3e 0d 4c c3 be
       0.327702 0.27833965 0.16886619 -0.3814396
0000d0 a6 ed ae 3d a2 d7 73 3e 48 05 35 3c 24 d0 d4 3e
       0.085414216 0.23812726 0.011048622 0.4156505
0000e0 ac 1e 79 be c3 f8 8b 3e 1e 70 32 bd 96 db 0d be
       -0.24328107 0.27338228 -0.043563955 -0.13853297
0000f0 c3 26 e5 be b4 fd fc 3e c9 cb 27 3d 9b 33 73 be
       -0.44756135 0.4941231 0.04096583 -0.23750155
000100 97 cf 89 3e 8b 18 3d bc ef 17 c7 3e ee f2 84 3d
       0.2691619 -0.011541496 0.38885447 0.06491648
000110 c6 29 fb bd 51 fb f0 3e bf 6e 45 3e 96 ea e9 3e
       -0.12263827 0.4706674 0.19280528 0.45686787
000120 1d ab 4d 3e c2 d3 a7 be 00 87 af be cf e0 0f bf
       0.20084806 -0.32778746 -0.34282684 -0.56202406
000130 39 c2 df bc 61 52 89 3e 08 5a d9 be 4a e3 fe be
       -0.027314292 0.26820663 -0.424515 -0.49782783
000140 8e c8 55 bc a5 85 d3 be a1 d9 a7 be 13 9f 4f be
       -0.013048304 -0.413129 -0.32783225 -0.20275526
000150 b1 d4 50 3d 6f e5 26 be d1 01 83 3e 74 d5 df 3e
       0.05098409 -0.1629846 0.25587323 0.4371754
000160 39 0a 86 be 56 12 9b be 36 6f 04 bf 1a 5c b2 bc
       -0.26179674 -0.30287427 -0.51732194 -0.021772433
000170 d5 4c 48 3e e0 30 c8 bd db 72 06 3f b0 81 b1 be
       0.19560559 -0.09774947 0.52519006 -0.34669256
000180 3a b7 50 3e 65 ac 2a 3e 13 b1 86 3e 4f 37 04 3f
       0.20382395 0.16667326 0.26306972 0.51646894
000190 6c f6 d4 3e ba f0 22 bc d5 28 5e 3e 94 48 91 3e
       0.41594255 -0.009945089 0.21695264 0.28375685
0001a0 6b 36 77 3c 6d 2a 0a bf a7 e0 7e bd fb 42 f6 3e
       0.015088658 -0.53970987 -0.062225964 0.48097977
0001b0 f0 c1 e0 3d 3b 10 b4 be 87 62 97 3e bf dc 32 bd
       0.10974491 -0.35168633 0.29567358 -0.04366755
0001c0 18 18 c9 be 5f f3 ed 3e 1f 26 4d be 08 79 fb 3e
       -0.39276195 0.4647474 -0.20034073 0.49115777
0001d0 2b 1b 12 bf b5 14 1c be 39 94 ce be 10 bf 4c 3e
       -0.57072705 -0.15242274 -0.4034746 0.1999476
0001e0 6e f8 6d 3e ff 18 db 3e c0 aa 32 be 1b cc 1b 3d
       0.232393 0.42792508 -0.17447948 0.038036447
0001f0 77 bc ce 3e a9 87 9b 3e 86 66 fe 3e 07 3b 01 3f
       0.40378162 0.30376938 0.49687594 0.50480694
000200 e0 0b eb be d8 7d 06 3e c8 1f cc be b2 49 0f bf
       -0.45907497 0.13133943 -0.39867997 -0.55971825
000210 dd 4e d1 be d7 d3 dc be 5c 0f 02 bf 12 21 05 3e
       -0.4088048 -0.4313037 -0.50804687 0.13000897
000220 3c 69 fa be fd cf 0b 3f 8f c2 ff bc cb 15 4f 3e
       -0.48908412 0.5461424 -0.031220702 0.20223157
000230 bb f7 aa 3d ff f7 a9 be ca 87 e1 bd bf a3 14 be
       0.08348032 -0.33197019 -0.11012228 -0.14515589
000240 c7 91 86 3e ec 0c e5 be fd d6 85 be 8c a0 ec 3e
       0.26283094 -0.4473642 -0.26140586 0.46216238
000250 17 0d 7e be 94 88 0a 3f a4 f5 50 3e ba b5 fa be
       -0.24809681 0.5411465 0.20406204 -0.4896677
000260 29 e5 dc 3e 01 0b e7 be c6 07 10 be b3 16 d7 3e
       0.43143585 -0.45125583 -0.14065465 0.42009506
000270 03 94 a1 3e e2 77 c1 3e 16 a7 4a 3e 7b b0 c9 be
       0.31558236 0.37786776 0.197903 -0.39392456
000280 63 5a 66 3e 34 eb c4 be 3a 05 09 3f 5d 34 06 3e
       0.22495417 -0.38460696 0.535236 0.13105913
000290 f6 0c 55 3e 6f 96 e4 3e be c0 02 be 9d 0b 0b bf
       0.20805725 0.44646022 -0.12768838 -0.54314595
0002a0 74 10 2a bd 50 ad b2 3e ad 70 9b be f9 6a 4b bc
       -0.041519597 0.34897852 -0.30359402 -0.012415641
0002b0 29 eb c2 be 29 95 d1 be 7a 62 7e 3e 84 82 56 be
       -0.38070038 -0.40934113 0.24842253 -0.20948225
0002c0 2c 6b ae be 98 c4 51 bd 48 e0 82 3c 51 2e 0a bf
       -0.3406614 -0.051212877 0.015976086 -0.53976923
0002d0 26 51 0c bf 9b d5 42 be 87 7c 6f 3e 10 c9 ad be
       -0.5481132 -0.19026797 0.23387347 -0.3394246
0002e0 65 5e e6 be 14 1e 1c be 4f 77 e1 be 98 5c 0f bf
       -0.44993892 -0.15245849 -0.44036338 -0.5600066
0002f0 33 e2 be be 67 63 76 3d ee cc ed 3e 5b 10 45 3e
       -0.3728195 0.06015339 0.4644541 0.1924452
000300 90 45 35 bd d0 6c a3 be 09 ac d5 be 34 21 ec 3e
       -0.044255793 -0.31918955 -0.41732815 0.46119082
000310 a6 d2 aa 3e ff 04 a1 3d 7d 05 55 3e e8 6a 7d be
       0.33363837 0.07862281 0.20802875 -0.24747813
000320 f6 c9 de 3e cb eb de 3e 7a 40 90 3e 94 fb f4 be
       0.4351346 0.4353927 0.28174192 -0.4784819
000330 df 76 98 bd 1a 5d 07 3f 42 d9 02 3f 83 1c cf bd
       -0.07444548 0.52876437 0.5111276 -0.1011286
000340 b9 70 70 be d0 1f 5a 3d b4 3e 95 3e 41 21 bd 3e
       -0.234805 0.053252995 0.291494 0.36939433
000350 ff 21 a2 3d a6 0a ba 3e f0 e2 d2 be dd 07 2e be
       0.079166405 0.3633625 -0.41188765 -0.16995187
000360 d2 63 ae be e6 5f e0 be cc 19 5e 3d d7 3f 9d 3e
       -0.34060532 -0.43823165 0.05422382 0.30712768
000370 a6 4b ef be 92 14 e4 bd 8e 92 cb bc 0e ac ad 3e
       -0.46737403 -0.11136736 -0.024850156 0.3392033
000380 8a ae 98 3c 76 41 b7 3e 84 c3 ec bd c0 78 ff be
       0.018637914 0.3579213 -0.11560729 -0.49896812
000390 7a 70 49 be 6b c9 cc be 60 45 0f 3f 5a 71 92 3e
       -0.19671813 -0.3999742 0.5596523 0.28602105
0003a0 50 90 8c 3e 33 28 97 be 2f 9c c3 be f1 84 01 bf
       0.27453852 -0.29522857 -0.38205096 -0.5059348
0003b0 4f 28 a9 bd 34 e1 c2 3e 93 04 e2 3e 37 5d 09 bd
       -0.082596414 0.3806244 0.44144115 -0.033536162
0003c0 19 39 0b bf d3 37 10 be 67 4a 46 be 5a 05 f4 be
       -0.54384 -0.14083795 -0.1936432 -0.47660333
0003d0 47 15 f9 3d b0 dd c0 be 04 f6 4e 3e 67 79 6f 3e
       0.121622615 -0.37669134 0.20211035 0.23386155
0003e0 d3 ed 8a 3e 4c 6a f0 bd ff ff dd 3b f4 ba de be
       0.2713457 -0.117390245 0.006774902 -0.4350201
0003f0 75 6e 31 be b4 ce 61 be 15 ed e6 be eb 27 e0 bd
       -0.17327292 -0.22051507 -0.45102754 -0.10945114

f_1.bias f4 [128]
000000 9b a6 2d be 82 73 88 be c5 0a 5a be c1 48 bc be
       -0.16958086 -0.26650625 -0.21293171 -0.36774257
000010 c9 e1 d4 3e c0 c3 3a 3d 4d 15 c5 3e 7a 03 fb bd
       0.4157851 0.045596838 0.38492814 -0.122565225
000020 45 04 be 3e 97 30 c9 3e 23 74 bc 3e d1 e5 e2 3e
       0.37112632 0.39294884 0.36807355 0.4431596
000030 7e 33 fa 3e 47 4e 4e 3e c7 61 0b bf 44 6b 7f 3d
       0.4886741 0.20147048 -0.5444607 0.062358156
000040 52 53 1a 3e 06 76 bf 3d 42 e3 fa be bc 1a c5 3d
       0.15070847 0.09348683 -0.4900151 0.0962424
000050 29 fa 7e bd cf d7 ea 3d 02 be fd 3e 0c 8e 3e 3e
       -0.06225029 0.114669435 0.49559027 0.18608874
000060 27 92 bc be b3 dd a9 3e b0 b0 8c be cf 56 70 3d
       -0.36830255 0.33176956 -0.27478552 0.058676537
000070 d6 db 1d 3e 4b d0 ef 3e 40 f0 77 3e 40 16 98 be
       0.15415892 0.46838602 0.24212742 -0.29704475
000080 61 c6 0b 3d 0f 3c cd 3e a5 25 96 bd 4f 50 ee be
       0.034124736 0.40084884 -0.07331399 -0.46545646
000090 94 53 38 be 68 77 c6 be 31 e7 ef 3e 2c 4e cc be
       -0.18000633 -0.38762975 0.46856073 -0.3990339
0000a0 35 33 95 be e6 d3 a7 3e 7b 60 fa be 38 22 a7 3e
       -0.2914063 0.32778853 -0.48901734 0.32643294
0000b0 7b 2b c8 3e a7 28 d6 be 5e cc 05 3f 57 d8 66 be
       0.39095673 -0.4182789 0.52264965 -0.22543465
0000c0 bc 69 ea 3e 7e 49 78 be 33 58 3e 3e c6 7e 0e bd
       0.45783794 -0.24246785 0.18588333 -0.03478887
0000d0 ac f3 fc 3e d3 9b 49 3e f3 74 98 3e 32 8c e7 3e
       0.49404657 0.19688348 0.29776725 0.45224148
0000e0 70 17 7f be bf 7d c8 be be 7f 16 be 0b 99 10 bf
       -0.24911284 -0.39158437 -0.14697167 -0.56483525
0000f0 ad f4 6a be 7c 85 af be c1 55 b1 be e9 e1 39 be
       -0.22944899 -0.34281528 -0.34635738 -0.18152584
000100 02 11 e5 be 3c 9f 10 3f 1d ca ae bd 6f 5b 07 3f
       -0.44739538 0.5649297 -0.08534644 0.5287389
000110 1b 25 ac 3e d9 27 a6 3e 4c 33 9d bd 6b 75 c5 be
       0.3362206 0.32452276 -0.076758 -0.38566145
000120 ba 07 ac bc 4b 37 87 3d 68 42 74 3e f1 32 8a be
       -0.020999778 0.06602343 0.23853457 -0.2699199
000130 12 1d 7a 3e a9 8e eb be 10 0e a9 3e 6b b6 ac be
       0.24425152 -0.4600728 0.3301854 -0.33732924
000140 f6 c1 16 3e 9e dd 16 3e 81 2a 51 bd 90 42 05 3f
       0.14722428 0.14732978 -0.051065926 0.5205469
000150 1b b6 71 bd 6a d6 ec 3e 3e 4a 13 3f 53 3a 50 be
       -0.05901156 0.46257335 0.5753516 -0.20334749
000160 7f 89 9e be 4a 95 66 3e 6d 34 01 bf a6 ff 08 3f
       -0.30964276 0.22517887 -0.5047062 0.5351509
000170 70 86 a5 bd 63 b4 0d bf 75 7a 79 be e6 9f 0b bf
       -0.080822825 -0.55353373 -0.2436312 -0.5454086
000180 8f 11 12 bf 3a d5 9d 3e 44 f6 86 3e 36 08 72 bd
       -0.5705804 0.3082674 0.2635976 -0.05908986
000190 fd 90 d7 3e 7e e6 a1 3e 29 40 ad bd 3c 01 be be
       0.42102805 0.31621164 -0.08459503 -0.37110317
0001a0 19 0f 43 3e 01 73 9a be 58 bb aa 3e b6 61 a7 be
       0.19048728 -0.30165866 0.33346057 -0.32691735
0001b0 f6 dc ee 3e d2 ae e7 3e 4e 5a a3 ba 65 41 d7 3e
       0.46652955 0.45250565 -0.0012462826 0.4204208
0001c0 cd 3b 94 be 49 01 e5 3e 0a ed e7 be 3c 10 be bd
       -0.28951874 0.44727543 -0.45298034 -0.0928044
0001d0 da 4b f5 3d d0 75 22 be d5 5c 54 3d eb f9 ad bd
       0.11977358 -0.15865254 0.051846344 -0.08494934
0001e0 3d 13 82 be a1 74 9e 3e 01 02 e3 3c 42 d1 10 bf
       -0.25405303 0.30948356 0.027710916 -0.565693
0001f0 e0 4b 76 3e ee 81 05 bf b1 4e 9c be 8a 52 47 3e
       0.24052382 -0.5215138 -0.30528787 0.1946508

f_h.attn.c_attn.weight f4 [384, 128]
000000 7d 04 30 3d d3 5f 37 3d 51 00 6a 3c f0 c9 f1 3c
       0.04297303 0.04476912 0.014282302 0.029515237
000010 20 41 da 3c 95 28 d0 bc d5 3f 60 3d e1 de ab bd
       0.026642382 -0.025409976 0.054748375 -0.0839212
000020 2e 12 58 3c b1 01 02 bd 12 22 8f bd 9a 4a 28 b6
       0.013187928 -0.031739894 -0.0698892 -2.5077375e-06
000030 af 3b ae 3d dc 52 21 bd 48 59 72 bc 38 e3 38 bd
       0.085074775 -0.03938566 -0.014791794 -0.045138568
000040 8a 74 87 3d 63 86 af bd c0 3b 07 bd 13 73 21 3d
       0.06614025 -0.08570554 -0.033015966 0.039416384
000050 69 73 95 3d 71 c3 04 bd c1 3c a9 3d 46 59 7c bd
       0.07297403 -0.03241295 0.08263541 -0.061608575
000060 be 6b ae bd 93 ca e1 bc 83 c7 5b bd 9e b9 86 3d
       -0.08516644 -0.027562415 -0.053657066 0.065783724
000070 ae 20 2f 3d c3 b1 4e 3d 57 bc 21 3d 85 2e b8 bc
       0.042755775 0.050462496 0.039486255 -0.02248312
000080 da 42 7b bb ee 3e 4f ba ec a3 81 3c 6a d5 8e bd
       -0.0038339407 -0.00079058006 0.015825234 -0.06974299
000090 5f e5 97 bc 60 93 35 bd 59 c0 9d 3d 59 e6 a7 3d
       -0.01854199 -0.04433 0.07702703 0.08198232
0000a0 2f 51 57 3d 2b 69 31 3d ad 0f 44 bd e0 e7 09 3d
       0.052567657 0.043313187 -0.047866512 0.0336684
0000b0 95 81 99 bd 36 d2 4e 3d f6 26 02 bd df 99 d5 bc
       -0.07495419 0.05049344 -0.031775437 -0.026074348
0000c0 af 80 24 bd 66 81 a9 bc 4f 7b 3c bd 6f 47 0c bd
       -0.040161785 -0.020691585 -0.046016034 -0.034247812
0000d0 85 c7 93 bd 8d 55 11 bd 7e 9c 81 3d f6 8a 02 bd
       -0.0721579 -0.03548198 0.06328677 -0.031870805
0000e0 2e aa a3 3d 51 07 2c bb 08 33 66 bd 93 88 58 bd
       0.079914436 -0.0026249478 -0.05620101 -0.052864622
0000f0 b4 60 d5 ba 85 b6 db bc ac cc 82 bd 67 b2 d4 3a
       -0.001627943 -0.02682043 -0.06386694 0.0016227484
000100 39 4a 8d bd 33 f6 8a bd 2b b3 5a 3d bb a3 84 bc
       -0.068989225 -0.0678524 0.053393524 -0.016191354
000110 7b 01 7a 3d 5c 8d ef 3c 35 d6 d7 3b 19 b0 ab 3d
       0.061036568 0.02924221 0.0065868148 0.08383197
000120 3d 50 2c bc f0 b5 3f 3c c4 3a 85 3b fe 5a 1c 3d
       -0.010517177 0.011701092 0.0040658433 0.038172714
000130 5c 20 5d bd 99 95 3b bd 09 b8 e5 bb 1c 85 80 3d
       -0.05398594 -0.045796964 -0.007010464 0.062753886
000140 44 4d d4 bc 30 66 a0 3d 41 ed c6 3c b8 2b 8a bd
       -0.02591575 0.07831991 0.024283053 -0.0674662
000150 77 b7 08 bd 4e 00 49 bd 63 d8 2c bd 87 ad 4a bd
       -0.03337809 -0.049072556 -0.04219855 -0.049481895
000160 1e 96 37 3c 84 59 a3 bd 10 b2 b8 3c f5 91 51 bc
       0.011205224 -0.07976058 0.022545844 -0.0127911465
000170 56 ab 03 3d 14 67 82 3d 55 a7 19 bc 58 95 1e 3c
       0.03214582 0.06367317 -0.009378274 0.009679161
000180 4d cd fd bc 3d 15 34 ba 93 27 9c 39 7d ab a1 3c
       -0.030981684 -0.000686962 0.00029784124 0.019735092
000190 27 2f c6 3c ec fc e8 3c 24 12 5f bd 46 3c 5c 3d
       0.024192406 0.028440915 -0.05446066 0.05376842
0001a0 b6 4f 10 3d 50 12 9c 3d 6f 48 d7 3c 4c 5d f8 3c
       0.03523227 0.0762068 0.026279656 0.030317925
0001b0 47 d3 75 bd 44 4a 0b bd d9 74 df bc 59 00 5c 3b
       -0.060015943 -0.034006372 -0.027277397 0.0033569543
0001c0 e9 0e 90 bc 3f 2e 29 3c 4e 60 e2 3c 7a c7 a6 3d
       -0.017585235 0.010325967 0.027633812 0.08143516
0001d0 9a 7b fa 3c 0e 70 15 3d db 22 93 bd 55 ba a0 3d
       0.030576516 0.036483817 -0.071843825 0.0784804
0001e0 9f 23 f0 3c 69 0d 3a 3d 3a a5 29 3d 40 4d 88 bd
       0.02931386 0.045422945 0.041417338 -0.06655359
0001f0 b0 c8 86 3a 32 e4 42 bd 36 6a 81 bd 9e 71 10 3b
       0.0010283198 -0.047580905 -0.06319086 0.0022040377
000200 b1 56 9b 3c af 3a a0 3d d6 1f 9d 3d 6e b3 8f bc
       0.018962236 0.07823693 0.07672088 -0.017541613
000210 9f d4 ac 3c fe 9f 5f 3d 80 e5 6e bd 82 bb 56 3d
       0.02109748 0.05459594 -0.058324337 0.052424915
000220 d1 94 5c bd e8 ad af 3d 4a 22 b2 bd 72 aa 7f 3d
       -0.05385286 0.08578092 -0.08697946 0.06241841
000230 94 0d b0 3d 78 65 42 bb 3f a0 e8 3c 84 3a 17 3d
       0.0859634 -0.002966253 0.028396724 0.03692104
000240 98 1e 3b 3c 0b cf 1d 3c 43 5d dd 3c b8 9b 4e bd
       0.011420868 0.009631882 0.02702201 -0.050441474
000250 b1 e3 9a bd ad e4 58 bb 25 95 65 bd 47 32 14 bd
       -0.0756296 -0.0033095286 -0.05605044 -0.03618076
000260 a8 63 86 bd b4 53 a2 bd 64 2a 64 bd d9 c4 6a bd
       -0.06561977 -0.07926121 -0.05570449 -0.057316635
000270 27 c7 83 bd d7 3f 82 bd ab 72 e2 3c 73 18 40 3b
       -0.0643447 -0.06359833 0.027642569 0.0029311448
000280 63 51 80 3d bd 33 51 bc 77 ee ac bd 2a a9 9f bd
       0.06265523 -0.012768683 -0.08443921 -0.07795937
000290 e2 98 fe bc 17 c5 a1 bd 34 7f ab bd ac 57 9a 3d
       -0.03107876 -0.0789892 -0.083738714 0.07536253
0002a0 73 51 b2 3d dd d8 95 3d 68 37 05 bb af ba 14 3d
       0.087069415 0.07316754 -0.0020327214 0.036310848
0002b0 20 1c a3 bd 1e 36 a4 3c 15 b1 b6 3c 5e 96 90 3d
       -0.07964349 0.020045336 0.022301236 0.0705993
0002c0 5f c0 b2 3d 90 a3 f4 3c 08 f6 a8 3c fe 83 1f 3d
       0.08728098 0.029863149 0.02062513 0.038944237
0002d0 6f cd 57 3d 58 e6 d2 3c 98 00 80 bd 44 5e b0 3d
       0.05268615 0.025744602 -0.06250113 0.0861173
0002e0 6e 43 f2 3c d5 f5 a3 bd 1a 84 92 3d cf ad 75 3d
       0.029573169 -0.08005873 0.071541026 0.05998021
0002f0 aa 6d d3 3b 94 dd af 3b af 91 05 bd 07 8a b1 3d
       0.006452282 0.0053669903 -0.032609638 0.08668905
000300 70 b7 97 3d 08 f1 42 3d de 9a 39 bd e6 1c 98 bc
       0.07408035 0.047593147 -0.04531371 -0.018568467
000310 af cb 9d bd cf 62 99 3d d5 c2 04 bd d0 32 09 3d
       -0.07704865 0.07489549 -0.03241237 0.033495724
000320 c3 6e 9d 3d 3c dd 1e bd 30 f7 2f 3d 75 e3 e5 3c
       0.07687142 -0.038785204 0.042960346 0.028062562
000330 eb d3 16 3c 00 5f 4b 3d 67 2c 85 3d a3 50 0a bc
       0.009205799 0.049651146 0.0650261 -0.008442077
000340 05 e1 49 3c db 12 a7 bb 9b de 46 3d 3d 12 d9 bc
       0.012321715 -0.0050986833 0.048552137 -0.026497955
000350 e2 b7 0f 3d 7a 14 52 bd 49 18 a8 3d 48 b9 1c 3d
       0.035087474 -0.05128906 0.08207757 0.038262635
000360 a4 88 71 bc 63 83 9b bd 8c d0 0c 3d b2 fd 46 3c
       -0.01474205 -0.075934194 0.034378573 0.012145447
000370 b4 0b 95 bd d9 a0 a8 3c 4a f2 be 3b 87 fa 92 3d
       -0.07277623 0.02058451 0.005827223 0.071766905
000380 87 10 b3 bd 41 7b 4f bd 91 a4 d9 bb b7 f8 a5 3d
       -0.08743387 -0.050654653 -0.0066419323 0.08104079
000390 d2 fc 4d 3d d9 52 9f 3c 39 59 e4 3a 01 78 36 bb
       0.050289936 0.019448685 0.001742161 -0.0027842524
0003a0 2d 7f ea bc cb af e5 bc a3 01 43 bd 6b 23 40 bd
       -0.028625095 -0.028037926 -0.047608983 -0.046908777
0003b0 57 3b 0b bd bb 62 aa bd 06 c3 88 3c b0 28 a7 bd
       -0.033992138 -0.083196126 0.016694557 -0.081620574
0003c0 e9 71 5d 3d da d7 8e 3b f1 0a 1b bd 8e 46 9c 3c
       0.05406371 0.0043592276 -0.03785223 0.019076612
0003d0 a1 bd 3d 3d a9 d7 ac 3d 47 52 1a 3c 11 ad 3d 3c
       0.046323422 0.084395714 0.0094190305 0.011576907
0003e0 e2 5d 95 3d 38 d0 af bd 34 ea 25 3d ce 6e d5 3c
       0.07293297 -0.085846364 0.040506557 0.026053812
0003f0 81 d7 99 bd 9b b6 92 bd 66 d8 3b bd 6f 26 ae 3d
       -0.07511807 -0.071637355 -0.04586067 0.085034244

f_h.attn.c_attn.bias f4 [384]
000000 1b d9 96 bd f3 12 8d bd 51 f2 0d 3d 41 d1 1d 3b
       -0.07365628 -0.0688838 0.03465492 0.0024081024
000010 88 c1 38 3c 2e ab 19 bd 93 4d 58 3d 07 0f 4e bd
       0.01127661 -0.037516765 0.052808356 -0.0503073
000020 84 7b 3f 3d d2 2e 6e 3d 1d b5 64 bd 99 cd 38 bc
       0.046748653 0.05815012 -0.055836786 -0.011279487
000030 67 43 25 bd 5e 20 94 3c b2 99 2f 3d d7 5e af bd
       -0.040347483 0.01808184 0.042871185 -0.08563011
000040 d9 b0 b2 3d f8 62 8d 3d 91 3d 2c 3d 40 a6 87 3d
       0.08725137 0.069036424 0.0420509 0.066235065
000050 5d 3c 9f 3d 83 c6 a5 3d 52 35 93 bc a9 d1 eb 3c
       0.07775185 0.08094504 -0.017969761 0.028786497
000060 2e ed 8f 3d c1 87 96 3d d7 8f 9d 3d fc 99 15 bd
       0.0702766 0.07350112 0.07693451 -0.036523804
000070 9e ec b9 bc 78 b3 60 3d c2 ea 68 bd 2a 37 33 3d
       -0.022695836 0.054858655 -0.056864507 0.04375378
000080 90 18 13 3d 73 03 af 3d 47 7b 55 3d 6a d3 81 bd
       0.035912097 0.0854558 0.05211952 -0.06339152
000090 cd 67 46 3d be 52 8a bd a1 47 90 3d 52 f6 41 3c
       0.048438836 -0.06754063 0.07044912 0.0118385125
0000a0 34 68 32 bc 84 cf e7 bc 38 d2 59 3d 3a 06 49 bd
       -0.010889102 -0.028297193 0.053178996 -0.049078204
0000b0 43 02 aa 3d 89 51 aa bd 71 1b 42 3c 80 46 5b bd
       0.08301213 -0.08316333 0.011847363 -0.05353403
0000c0 63 a0 1f 3d 05 77 f7 3c 48 34 0d 3d dd 66 17 3d
       0.038971316 0.03020812 0.034473687 0.036963332
0000d0 ca fa 9e 3d 30 7b e4 bc 9c 60 3d 3c 8c 83 9c 3d
       0.07762678 -0.027890772 0.011558678 0.07642278
0000e0 fa 7b 67 3d 4e fb 94 3b 35 64 cf 3c a3 b0 32 bd
       0.056514718 0.0045465594 0.025316337 -0.043625485
0000f0 21 b5 09 3d 7d 07 5b bc 9b c1 d8 3c bf e3 bb 3c
       0.033620004 -0.013368485 0.026459506 0.022935746
000100 a3 d8 98 3c eb f1 6c bc d7 f3 0d 3d 73 61 28 3d
       0.018657988 -0.014461975 0.034656372 0.04110856
000110 68 9d af 3c 96 c5 af bd f6 78 a1 3d f0 23 96 3d
       0.021437362 -0.085826084 0.078843996 0.07331073
000120 1f 51 5c 3d e5 74 74 bd df 8c 9c bd 18 a3 4b bd
       0.0537883 -0.05968179 -0.076440565 -0.049716085
000130 00 60 9e 3d a3 4b b1 bd f5 a8 65 bd c4 cf c0 bb
       0.07733154 -0.08657005 -0.056069333 -0.0058841426
000140 56 22 80 bd 88 95 82 3b c6 d9 85 bc 9d 56 e9 3b
       -0.06256549 0.0039851107 -0.016339194 0.007120921
000150 e2 6f 8c 3d 67 ad 5e 3d 17 bb cb 3c ab cb 92 bd
       0.068572775 0.054364588 0.024869485 -0.07167753
000160 16 a6 b8 39 84 0f b1 3d 76 17 b2 3c ee de d8 3c
       0.00035218959 0.086455375 0.021739703 0.026473489
000170 9f 18 38 bd df 98 7c bc db 15 92 3d 9a e1 0f 3d
       -0.044945356 -0.015417307 0.07133075 0.03512726
000180 91 b6 81 bd 60 43 ce 3b d4 63 a0 bd ee 66 a4 3c
       -0.0633365 0.006294653 -0.07831541 0.020068612
000190 ac 60 b1 bc 69 bc a7 3d 3e 3e 88 3c be 4e 5b bd
       -0.021652542 0.08190233 0.016631242 -0.05354189
0001a0 f1 7e 4d 3d 91 79 91 bd 72 b8 b9 3c 76 af 8a 3d
       0.05016989 -0.07103265 0.022670958 0.06771748
0001b0 4c 70 ec 3c 60 f1 59 3b 29 64 d8 bc 80 07 ea 3c
       0.028862141 0.0033255443 -0.026414948 0.02856803
0001c0 88 45 58 bc 89 c3 33 3d f1 ab de 3b f5 21 19 3d
       -0.013200171 0.04388765 0.0067953994 0.0373859
0001d0 7f db 51 3d 26 89 50 3c 8d 73 5e 39 77 29 33 3c
       0.05123472 0.012728011 0.00021214616 0.010935179
0001e0 06 6c 83 3d f3 ce af bc 92 c1 91 bd ee 94 a9 3c
       0.06417088 -0.021460986 -0.07116999 0.020700898
0001f0 69 22 49 bd fb ca 91 3d aa 16 b0 bd 8b ac 1a bd
       -0.04910508 0.071187936 -0.08598073 -0.037762206
000200 bd f1 4d 3d 78 d6 ed 3c e0 b0 9c 3d a7 e5 46 bc
       0.050279368 0.02903293 0.07650924 -0.012139714
000210 dd 15 59 3c 70 40 6f bc 73 10 20 bd c8 0d dc b9
       0.0132498415 -0.014602765 -0.039078187 -0.00041971938
000220 c6 5b 58 bd ed 21 3a bd 7d 1c 1f 3c c9 71 40 3d
       -0.052821897 -0.04544251 0.009711382 0.046983514
000230 17 73 ff 3c b9 7e 6a 3d 7b 5e 25 bc 30 43 63 bd
       0.031182809 0.05724976 -0.010093327 -0.055483997
000240 57 b7 a4 3b 62 52 88 3d 69 2b 5f bd 05 af 11 3d
       0.0050267386 0.06656338 -0.05448476 0.035567302
000250 11 d8 13 3c cb f5 92 bb 29 6a 93 3d b5 8c 88 3b
       0.009023682 -0.004484867 0.07197983 0.004167164
000260 53 a0 59 3c 94 de 36 bc 69 f8 f5 bc 49 ad 28 3c
       0.013282853 -0.011161465 -0.030025678 0.010295221
000270 b1 03 63 39 6f 95 67 3d 09 d1 57 bc b0 f7 11 3d
       0.00021649782 0.056538995 -0.013172396 0.035636604
000280 cb e8 91 bd 2c f2 39 3d d0 55 8d 3c 4b 44 24 3d
       -0.0712448 0.04539697 0.017252833 0.04010419
000290 d6 85 a4 bd 7e f9 dc 3c 81 79 fa bb 88 cd 75 bd
       -0.0803334 0.026974436 -0.007643879 -0.060010463
0002a0 88 71 2f 3d 47 23 a2 3d 8c 50 f8 3a 7a 68 4a bd
       0.04283288 0.07916885 0.0018944903 -0.049416043
0002b0 30 e5 6e bd 57 49 46 bc 9a 24 b2 3d 98 26 a3 3d
       -0.05832404 -0.0121024465 0.086983874 0.079663455
0002c0 43 63 aa bd 76 82 b5 3c 08 04 ae bd 1d 6b af bc
       -0.08319714 0.022156935 -0.08496863 -0.02141338
0002d0 e2 c0 14 3c 69 b5 21 3d 55 26 90 3d e5 2c 99 bd
       0.00907919 0.039479647 0.07038561 -0.07479266
0002e0 cf 35 2a 3d f9 69 a5 bb 62 e2 c6 3c a5 37 60 bd
       0.041555222 -0.0050480333 0.02427787 -0.054740567
0002f0 a0 93 ba bc bb 11 2b bc b6 2f 56 bb 91 da de 3c
       -0.022775471 -0.010441239 -0.0032682247 0.02720383
000300 92 69 80 3d 28 74 50 bd 53 ed 92 3d 72 7d 0f 3c
       0.06270136 -0.050892025 0.07174172 0.008757936
000310 3c a8 0d bd 1c e7 90 3d e2 52 90 bd 8c a1 d3 3c
       -0.03458427 0.070753306 -0.07047059 0.025833867
000320 e4 db 7c 3d 66 9f bf bc 02 14 e1 ba 77 b8 9c 3d
       0.06173314 -0.023391437 -0.00171721 0.076523714
000330 b5 aa 66 bd 66 1a 9d bd 58 cd 96 3d 1d 47 9e bd
       -0.056315143 -0.07671051 0.07363385 -0.077284075
000340 1e de 8b 3a af fe 5c bc be 40 9c bd e8 57 98 3d
       0.0010671054 -0.013488456 -0.07629536 0.07438642
000350 96 da 00 bd 2b 2a 62 3c 95 50 10 3d e0 89 a7 3d
       -0.03145846 0.013803999 0.0352331 0.081805944
000360 b6 cb 1a bd b9 47 a8 3d 9c 7f 46 bc 98 87 0c 3d
       -0.03779193 0.08216805 -0.012115385 0.034309
000370 28 1e 4b 3b 54 c6 c9 3b 3a ce 21 3d a6 e2 b4 bd
       0.0030993316 0.0061576758 0.039503314 -0.08832292
000380 50 24 a8 3d f3 fa 85 3d 2b ba 63 bd 46 11 1d 3b
       0.08210051 0.065420054 -0.055597465 0.0023966595
000390 67 45 fd bc b3 14 f1 bc f3 c1 41 bc 4c d8 4c bd
       -0.030916883 -0.029428815 -0.011826026 -0.050010964
0003a0 28 81 44 3d 5f 51 05 bd 11 58 a3 3d ab 5f 57 3d
       0.047974735 -0.032548305 0.07975782 0.05258147
0003b0 1a 6e 8a 3d 23 59 3a 3d 6e 0d 14 bd 12 e3 1e bd
       0.067592815 0.045495164 -0.03614562 -0.03879077
0003c0 71 6a 24 3c 41 c3 7e bd 2f 71 99 3d 67 6c e4 3c
       0.010035143 -0.062197927 0.07492291 0.027883722
0003d0 ed a5 8a 3d e2 f7 aa 3d 6f 82 79 bd b8 ae f9 3c
       0.06769929 0.08348061 -0.060915407 0.03047882
0003e0 a4 4f f8 3c d0 f8 0b 3d 96 ec 7a bc 38 31 44 bd
       0.030311413 0.034172833 -0.015315196 -0.0478985
0003f0 01 53 93 bd 43 b9 22 3d 51 99 36 bd 85 ea 6b 3b
       -0.07193566 0.03972746 -0.044579808 0.0035997939

f_h.attn.c_proj.weight f4 [128, 128]
000000 5d a5 88 3c 2f 32 74 bd 36 fc 8e bb 0c 12 a8 bd
       0.016680414 -0.05961817 -0.004363562 -0.08206567
000010 c7 7e 78 3d c2 5f 97 bd 65 d4 93 3d cf 73 54 bd
       0.06066778 -0.07391311 0.072182454 -0.051868256
000020 79 25 34 bc 18 d3 8c bc d7 ff 35 bd ad dd 57 3d
       -0.010995262 -0.017190501 -0.04443344 0.05270164
000030 22 07 50 3c 23 03 85 3d c9 66 9f 3c fc 40 72 bd
       0.012697013 0.06494739 0.019458191 -0.059144005
000040 e7 65 00 3d d7 8e cc 3b 20 ef 88 3d 92 7a 13 bd
       0.03134718 0.006242614 0.066862345 -0.036005564
000050 29 c1 a5 ba f7 c6 a7 3d 75 9c 26 bd 11 67 87 bd
       -0.0012646067 0.081922464 -0.040676553 -0.06611455
000060 ae ff 96 bd 29 94 66 3d 18 e6 8f 3d 92 65 6d 3d
       -0.07372986 0.05629364 0.07026309 0.057958193
000070 83 bf a6 bd ec 1d 35 bc 30 af 11 bd e9 8c 67 bd
       -0.08141997 -0.011054497 -0.035567462 -0.056530867
000080 2e 05 33 3d d0 73 7f bd 27 e6 0f 3d 50 59 c4 bb
       0.04370611 -0.062366307 0.0351316 -0.005992092
000090 42 9c 0d bc e5 a2 2c 3d 81 d8 25 bd ae 70 86 bd
       -0.008643212 0.042147536 -0.040489677 -0.06564461
0000a0 9d a2 93 3d 6d c0 86 bd 8e c8 a5 bd 71 e8 07 bd
       0.072087504 -0.06579671 -0.080948934 -0.033180658
0000b0 53 98 14 bd 85 ce af 3d c2 ac 36 bd f8 0e 04 bd
       -0.03627808 0.08584312 -0.04459835 -0.032240838
0000c0 fe f7 2e 3d c1 15 32 ba f7 de 48 3d 6f 57 d6 bb
       0.042716973 -0.0006793403 0.04904076 -0.0065411846
0000d0 a9 26 ac 3d 19 aa 2c 3c 9f 97 31 3d e4 76 a4 3d
       0.08405811 0.010538601 0.043357488 0.08030489
0000e0 8e 3d 7e 3d 8f a0 0b bd cc 43 57 bd b3 2f 32 3b
       0.062070422 -0.034088667 -0.05255489 0.0027189075
0000f0 2d 3c a7 3d d8 e2 a1 3d de 8c 60 bd dc aa c8 3c
       0.081657745 0.07904595 -0.05482184 0.024495535
000100 26 33 c5 bb 47 99 ad bd b6 af a7 3d 16 ee 83 bd
       -0.0060180603 -0.08476501 0.08187811 -0.06441896
000110 01 51 0c 3d 17 26 1e 3d ea 07 97 bd cf 02 48 3d
       0.03425694 0.038610544 -0.07374556 0.048830803
000120 83 eb 58 3d 54 95 81 3d e2 49 27 bd 47 9d 4e 3d
       0.052958976 0.0632731 -0.040841945 0.05044296
000130 4d 34 7f 3c cc b5 af bd d3 c7 5e 3c e5 a4 50 bd
       0.015576434 -0.08579597 0.0135974465 -0.050938506
000140 25 d3 56 bd b5 b5 77 3d b1 2b 24 bd 65 53 9f bd
       -0.052447457 0.060476024 -0.04008073 -0.07779578
000150 bd 83 b0 bd f0 31 19 bd 80 86 57 3a d8 92 6e 3d
       -0.08618877 -0.03740114 0.0008221641 0.05824551
000160 4b a9 df bc 76 56 79 bd b5 a5 fb 3c 08 11 a1 bd
       -0.027302405 -0.06087347 0.030718664 -0.078645766
000170 2f b8 87 bd a8 d1 5a bd 55 5e b7 bd 9a 7f 8c 3d
       -0.06626927 -0.0534226 -0.08953539 0.068602756
000180 94 72 35 3d e3 d9 95 3d ee 1f 10 bc 76 d9 26 3d
       0.044298723 0.07316949 -0.008796675 0.04073473
000190 bd 80 87 3d 89 b6 9a 3d 72 98 a5 bd 8c ef 33 bc
       0.06616352 0.07554347 -0.08085717 -0.010982405
0001a0 86 84 e1 bc 9b 09 2f bd 49 de 4d 3d 2f 97 40 3d
       -0.027529012 -0.04273377 0.050260816 0.04701918
0001b0 aa d1 bd bd 20 79 a3 bd 16 2f 82 bd 3a 4a 9c 3d
       -0.09268506 -0.07982087 -0.06356637 0.07631345
0001c0 6f 5f 16 3d ab 3a b1 3d 58 b0 7a 3b 19 36 07 bd
       0.036712106 0.08653768 0.0038252082 -0.033010576
0001d0 2d ff 0d 3d 42 7a ac 3d 76 33 7e 3d 6c 01 7e bd
       0.034667183 0.08421756 0.062060796 -0.062013075
0001e0 9a ef a8 bd d4 6b a7 3d b8 68 33 3d 82 ca 82 bd
       -0.08248825 0.081748635 0.04380104 -0.063862815
0001f0 b6 9d b7 3c 63 54 8c 3d 3d a2 95 3d 9d 8f f8 bc
       0.02241407 0.06852033 0.07306335 -0.030341918
000200 d4 63 23 3d 97 60 43 bd 17 d2 d9 bc f2 d6 ac 3d
       0.039890125 -0.047699537 -0.026589436 0.08439435
000210 80 88 87 3d 28 97 fe 3b e4 50 88 3c 44 4f 85 3c
       0.06617832 0.007769484 0.016640134 0.016273148
000220 aa f1 01 3b 38 dc 9b 3d a9 7d 83 bd 36 51 ae 3d
       0.001982788 0.07610363 -0.06420452 0.085115835
000230 9d 11 c5 bc a1 42 aa bd d3 e1 5b 3d ca 36 74 3d
       -0.02405625 -0.0831349 0.05368216 0.059622563
000240 9f 4b e8 bc 8f 34 93 bd f6 41 b0 3d 19 15 96 bd
       -0.028356371 -0.07187759 0.08606331 -0.07328243
000250 e8 a0 83 3d 27 aa 81 bd 6a 65 37 bd f0 c6 97 bd
       0.06427175 -0.06331282 -0.04477445 -0.07410991
000260 d9 b6 e2 bb c1 9a ac bc 58 8a 8c bd 85 3d 11 3d
       -0.00691877 -0.021069886 -0.068623245 0.03545906
000270 0c bd 57 bd 57 6c 5d 3d 1c ce df 3b fa dd 57 bd
       -0.052670524 0.0540584 0.00682999 -0.052701928
000280 ec 49 15 39 36 41 91 bd a8 69 62 bc e1 e3 09 3d
       0.00014237285 -0.07092516 -0.013819136 0.033664588
000290 6b 09 b4 3c 81 f0 a2 bd b8 f1 d7 bb 5b 81 9e bd
       0.021977147 -0.07956029 -0.0065900944 -0.07739516
0002a0 8a c9 12 bd d9 29 09 bd 40 be 96 3c 0d 01 5c bd
       -0.035836734 -0.033487175 0.018401265 -0.05371194
0002b0 69 9f 93 bd 9f 7c 9b bb c1 93 46 3d ba 54 94 bd
       -0.072081394 -0.0047450806 0.048480753 -0.07242723
0002c0 08 13 96 3d 6d 40 78 3c f0 1a ea 3c 0a d4 2b bc
       0.07327849 0.015152079 0.028577298 -0.010487566
0002d0 ef b8 69 3d c3 02 75 bd 60 00 85 3d 91 cb ae bd
       0.057061132 -0.059817087 0.06494212 -0.08534921
0002e0 73 a0 84 3d e4 76 34 bd 84 fe 26 3d 6a 4f 86 3d
       0.06475916 -0.044058695 0.04077007 0.06558116
0002f0 82 3d 29 bd 55 49 43 bd 41 6f 3a bd 94 72 87 bd
       -0.041318424 -0.047677357 -0.045516256 -0.06613651
000300 9a f3 7c 3d f6 7f 87 bd 73 de 02 bd 1e c8 70 3d
       0.061755754 -0.066162035 -0.031950425 0.058784597
000310 b9 0a 02 bd 66 84 c1 3b 3b b9 a8 3d 01 a3 80 bd
       -0.031748507 0.0059056757 0.08238455 -0.062810905
000320 ad 50 9c 3d dc ff 8e 3d ab c8 5f 3c a8 c7 ac 3b
       0.07632575 0.06982395 0.013658683 0.0052728243
000330 9d 07 fb bc c7 fe 81 bc 46 ff c4 bc f9 ac d1 bc
       -0.030643279 -0.015868558 -0.024047505 -0.025595175
000340 ba 9f ec bc cd 7e 5b bc 77 f2 93 bd 00 5d c5 bc
       -0.028884757 -0.013396931 -0.07223981 -0.024092197
000350 34 cc 61 3d a6 80 da bc a0 3e b1 bc e7 57 a9 3b
       0.055126384 -0.026672672 -0.021636307 0.0051679495
000360 ca 12 a9 3d 85 9d 45 3d e9 13 94 3d 4a d5 2e 3d
       0.08255537 0.048245925 0.0723036 0.042683877
000370 2a 9b a6 3d d0 5e c4 3c ee 5b 45 3d 09 91 d5 3c
       0.08135064 0.023970991 0.048183374 0.026070135
000380 a5 59 c8 ba 04 7c 0d 3b a0 18 87 3d ff f7 6f 3c
       -0.0015285505 0.0021588812 0.06596494 0.014646529
000390 9b 82 43 bc f3 21 e7 3c 66 e6 6d bd 7d ed e0 3c
       -0.011932994 0.02821443 -0.058081053 0.027456993
0003a0 bd 40 4a bd 60 77 00 3c c9 c4 89 3d d2 e0 5a 3d
       -0.049378145 0.007840961 0.06726987 0.05343706
0003b0 22 c4 5f bc 4c 42 15 3c b4 e6 07 3b a7 b1 2b 3d
       -0.013657602 0.009110045 0.0020736875 0.04191747
0003c0 80 19 a1 bd 53 e9 07 bd 39 ad ce bc 49 58 de bc
       -0.07866192 -0.0331815 -0.025229083 -0.027141707
0003d0 14 93 ef bc 29 39 95 38 41 3f 4e bd 6e d2 c8 3b
       -0.029244937 7.1155206e-05 -0.050353292 0.006128601
0003e0 4d 02 2c 3d 34 33 90 3d 02 9b 87 bd 11 5a 3c 3d
       0.04199438 0.07041016 -0.06621362 0.04598433
0003f0 e9 27 12 bd f0 51 a7 bc 97 f2 aa bd e0 b4 bc bc
       -0.035682593 -0.020424813 -0.083470516 -0.023035467

f_h.attn.c_proj.bias f4 [128]
000000 da 7a a7 3d 20 e3 f7 bc 8b 4c 62 bd 7d 30 af bd
       0.08177729 -0.030259669 -0.05524878 -0.0855417
000010 cb ac 1b bd c7 ef 45 bd a9 d4 82 bd 8f 36 46 bd
       -0.038006585 -0.048324373 -0.06388218 -0.048391875
000020 2d 5b 6a 3c b3 b6 96 bd 68 30 84 3d 02 6f a0 bd
       0.014303965 -0.07359066 0.06454545 -0.07833673
000030 a1 b9 a6 bd 23 d9 6b bb 00 cf 29 bd 79 cf 26 3d
       -0.08140875 -0.0035987578 -0.041457176 0.040725205
000040 9f 00 8e 3d 2b 15 eb bc 3b 6f 86 3d 22 9d a6 3c
       0.06933712 -0.028696617 0.06564184 0.020338599
000050 97 c7 71 3d 13 9b 4a bc fc 57 4a bd 62 c1 f3 bc
       0.059028234 -0.012366074 -0.049400315 -0.029755298
000060 59 58 92 bd 81 0e 42 bd 46 dd 1a bd c2 46 9d 3d
       -0.07145757 -0.047377113 -0.03780868 0.076795116
000070 bc dc 5d 3c 3b ac 5b 3d 24 82 e3 bc f0 01 e3 3c
       0.013541397 0.05363105 -0.027772017 0.027710885
000080 26 b2 44 bd 54 33 71 bb 5a 06 64 bb 52 0f 9f 3c
       -0.048021458 -0.0036804276 -0.0034793825 0.019416485
000090 4f a2 a8 bc 45 f8 96 3c 27 4a 20 3d 18 88 d6 3c
       -0.020585207 0.018428931 0.039133217 0.026187941
0000a0 58 c0 aa 3d eb 04 a2 3d 62 2f 75 bd c4 63 85 bd
       0.08337468 0.07911094 -0.05985964 -0.065131694
0000b0 5d 06 86 bd 50 b6 af 3d f5 61 98 bd 41 bc 9c bd
       -0.065441824 0.08579695 -0.07440559 -0.07653094
0000c0 a1 bd 23 bd ca ea 2b bd 15 e5 81 3d ec e7 27 bd
       -0.039975766 -0.04197196 0.06342522 -0.040992662
0000d0 39 eb b4 bd 30 89 0f 3d 73 a7 a2 3d f9 f0 99 bd
       -0.08833928 0.03504294 0.07942095 -0.07516665
0000e0 43 e1 ff bb 21 bf 9f 3c 58 0c ee 3c db d4 2e 3d
       -0.0078088357 0.019500317 0.02905862 0.042683464
0000f0 8a 7f 9f 3d d4 29 40 bd 5e 64 84 3d ec b7 eb 3c
       0.07787998 -0.04691489 0.06464456 0.028774224
000100 d4 5a ed bc 6c 47 86 3a 07 09 31 bd 98 bd c4 3c
       -0.028973974 0.0010244674 -0.0432215 0.024016187
000110 19 91 08 bd 83 04 7e 3d 23 58 4c bd 49 9f 8f bd
       -0.0333415 0.06201602 -0.04988874 -0.07012803
000120 dc 87 ce bc 8b 4a 48 3d b2 0f 92 bc 3d ae 91 bc
       -0.025211267 0.048899215 -0.01782975 -0.017783279
000130 29 b9 2e bd 9e 09 61 bd b6 f0 9f 3d d0 e1 92 3d
       -0.04265705 -0.054940812 0.07809584 0.071719766
000140 b7 6b 19 3c 9b de b5 bd 55 93 d6 bc d0 18 ca bc
       0.00936406 -0.08880349 -0.0261933 -0.024670035
000150 42 9b b8 3d d5 a2 52 bd 3e d3 a4 3d 52 45 b1 bd
       0.09013988 -0.05142482 0.08048104 -0.086558
000160 57 74 24 bd e4 35 75 3d a3 7f c7 3c 74 57 8f bc
       -0.040150013 0.059865847 0.024352854 -0.017497756
000170 ed e3 0b 3c c6 2b b9 3c 81 ac 01 bc b6 92 e5 bc
       0.008538228 0.02260388 -0.007914663 -0.028024059
000180 0b 4a a6 3d fc de af 3d 45 3e 48 bd 53 d3 8c 3d
       0.08119591 0.08587453 -0.04888751 0.068762444
000190 40 47 5d 3d f9 9e 9c bd 9b e5 ad bd 0c 63 d1 bc
       0.054023027 -0.07647509 -0.084910594 -0.025559925
0001a0 c3 11 0e 3d 26 f3 eb 3c cf 18 6f 3b ad 1f 93 3d
       0.034684908 0.028802466 0.0036483293 0.07183776
0001b0 8a be 38 3d d3 a3 1a 3d 6d 80 ac 3d 82 c7 1d bd
       0.045103587 0.03775389 0.08422933 -0.038520344
0001c0 ab 18 84 bd 0c 3b 9f ba b5 d8 13 bd 4a 01 e7 bc
       -0.064500175 -0.0012148335 -0.03609534 -0.028198857
0001d0 7f a7 3d bd ad 6e 0b 3d f6 0e 44 bd 90 45 6d 3d
       -0.046302315 0.034041096 -0.04786583 0.057927668
0001e0 aa 6d 94 bb e2 5e 89 bc ff db 14 3d 11 ad 99 3c
       -0.0045296745 -0.016768876 0.036342617 0.018759282
0001f0 16 ed 97 bc 1a d5 2a 3d ca 60 bf bc e1 a7 20 bd
       -0.018545669 0.041707136 -0.023361582 -0.0392226

f_h.mlp.c_fc.weight f4 [512, 128]
000000 c9 db 05 bd 34 86 a9 bd bb c7 1e bb b1 ca a6 bd
       -0.032680307 -0.0827755 -0.0024227935 -0.08144129
000010 7e a3 94 bc b6 d7 31 bc 05 9c 3b 3c 7d c5 0b bd
       -0.018144365 -0.010854652 0.011450772 -0.034123886
000020 38 d6 38 3b 7b d6 91 3d 9f 09 26 3d 60 9a a9 3d
       0.0028203856 0.07120987 0.04053652 0.08281398
000030 d1 a2 90 bd d2 d2 2a bc d0 83 e3 3b f4 f3 83 3c
       -0.07062305 -0.01042624 0.0069432035 0.016107537
000040 87 a1 7b bd 9e e9 aa 3d b9 47 3a 3d ce 69 b1 3d
       -0.06143334 0.0834534 0.045478556 0.08662759
000050 a1 d9 ab 3d b3 37 90 3d 17 a5 33 3d 82 65 9b bd
       0.08391119 0.07041874 0.043858614 -0.075877205
000060 9a df a7 3d 5a dd 6d bd 8f 9d 81 3a bf de ad bc
       0.081969455 -0.058072425 0.0009888875 -0.021224378
000070 88 b7 ad 3d 5b d5 a8 3d 00 c9 86 3b 88 8f 8a bd
       0.084822714 0.08243819 0.0041133165 -0.06765658
000080 34 35 5d bd bc 6f 86 3d af 67 e0 bb 01 56 a1 3d
       -0.054005817 0.065642804 -0.0068482975 0.07877732
000090 1e 97 e4 3b ee e0 f5 bb 9c 59 9d bc 7a aa 74 3d
       0.0069760224 -0.0075036203 -0.019207768 0.05973289
0000a0 2e b6 9a bd 10 ab 9d bd 29 3b cc bc 87 0f 34 bb
       -0.07554279 -0.07698643 -0.024930554 -0.0027475075
0000b0 20 6b 83 bd 6d fb 51 3d c5 f4 c2 bc 67 5f 71 bd
       -0.06416917 0.05126517 -0.023798356 -0.058928873
0000c0 4b e3 9e bb 47 9e 9c 3b e7 f4 78 3b 90 44 aa bd
       -0.004848873 0.0047796103 0.003798777 -0.083138585
0000d0 51 d4 f0 3c 44 7e d7 bc 0f e2 da 3c 23 26 96 3c
       0.029398115 -0.026305325 0.026719121 0.018328732
0000e0 3a 27 9b bc cc 05 8f 3c 45 4a 39 bd d8 dd 8a bd
       -0.018939603 0.017458819 -0.045236845 -0.067805946
0000f0 3a 41 0f 3c 75 83 b9 3d 4b 05 61 3c c1 b5 1b 3c
       0.008743579 0.090582766 0.013734172 0.009503783
000100 cc 97 8c 3d f8 28 7a 3c 5c cf 1d bb 48 ea f1 bc
       0.068648905 0.015268557 -0.0024079895 -0.02953066
000110 14 52 38 bc 73 e6 87 bd a1 9a a9 3c 04 77 e0 39
       -0.011250038 -0.066357516 0.020703616 0.00042813283
000120 cc 2e 0d 3c 20 70 a6 3d d4 33 a9 bd 21 74 38 bd
       0.008617114 0.08126855 -0.082618386 -0.045032624
000130 d6 de 95 bd c9 00 4e 3d 99 fa 6b 3d 58 f3 1a bc
       -0.07317893 0.050293718 0.057612035 -0.009457432
000140 11 db b5 bd 56 9f 38 bd 11 e2 2e 3d 1e 3a 51 3d
       -0.08879674 -0.04507383 0.042696062 0.051080815
000150 c8 56 c9 3c 3b 0e be bd de f1 f3 3c a3 48 49 bc
       0.024577513 -0.09280058 0.029778417 -0.012285384
000160 72 b1 13 bd 8a 23 8a 3c 44 43 a0 3d 63 a1 d5 3a
       -0.036057897 0.01686265 0.0782533 0.0016298707
000170 1c e1 2d bd 27 36 ab 3d 41 6e 6f bc 26 95 4c bd
       -0.04245101 0.08359938 -0.014613689 -0.049946927
000180 e8 ae 8b 3d ff 0a 12 3d 18 eb ee 3c dd ca 1e bc
       0.0682047 0.035655018 0.029164836 -0.009691921
000190 06 e8 af bd 09 e9 a7 3d d0 c3 9c 3c d7 7b 7b 3d
       -0.08589177 0.08198745 0.01913634 0.0613974
0001a0 76 8e 1b 3d 7e f5 5c bb 1b a5 07 bd ba 6d a2 bd
       0.03797766 -0.003371566 -0.03311644 -0.07931085
0001b0 ce b9 99 bd a5 03 7d 3d 9d 8c 7a bd f6 52 b7 bd
       -0.075061426 0.061771054 -0.061169256 -0.089513704
0001c0 87 8c 8d 3d 33 35 9d 3d 07 75 9d 3b 7d 2a 64 bd
       0.06911569 0.076761626 0.0048052105 -0.055704582
0001d0 6e 72 45 3d 7b b0 92 3d 99 e6 6d bd de 42 70 bd
       0.04820483 0.07162567 -0.058081243 -0.05865752
0001e0 6e da b7 3d d7 b3 d8 bc ae dc aa bd ba 59 74 bd
       0.08977209 -0.026452942 -0.083428726 -0.059655882
0001f0 2b c5 0a bd e6 42 f1 3c 17 a9 19 bd 44 1b 90 3d
       -0.03387944 0.029450845 -0.037514772 0.070364505
000200 86 f9 9c 3d 96 d0 93 3d 45 be 5c 3d d9 aa 9f bd
       0.0766478 0.07217519 0.053892393 -0.077962585
000210 4e d6 43 3d 20 eb 24 3c ff 57 5e bd 1c 16 54 3d
       0.0478118 0.010065824 -0.05428314 0.051778898
000220 dd c5 0b bd e9 70 63 bd e6 34 05 bd 08 79 81 bd
       -0.034124244 -0.0555276 -0.03252115 -0.06321913
000230 a3 60 aa 3d 64 7c ef bb 5e 54 4a 3d fb 34 9b bd
       0.08319213 -0.0073085297 0.049396865 -0.075784646
000240 de 13 ad 3d 8d ab 49 3d ab 28 83 bd 30 bb 36 bd
       0.08451055 0.04923587 -0.06404241 -0.04461211
000250 52 df 1b 3d 61 b3 74 3d d2 f3 23 ba 45 cb a0 bb
       0.03805477 0.05974138 -0.00062542886 -0.004907044
000260 33 16 9f bd 36 f3 6b bc 9d 9b 58 3d 83 79 6a 3d
       -0.07767906 -0.014401248 0.05288278 0.05724479
000270 f8 cf 8c 3d 94 df 8c 3d ec f6 89 bd 92 24 69 3d
       0.068756044 0.06878582 -0.0673655 0.05691964
000280 9f 6b 88 3d 11 66 44 bc a3 3b 46 bc 09 87 1b 3b
       0.06661152 -0.011987225 -0.012099179 0.002373161
000290 02 89 da 3b b9 37 2a bb 46 d0 cc 3c f9 c7 51 bd
       0.0066691646 -0.0025973155 0.025001656 -0.0512161
0002a0 2c d3 06 3d b2 d9 56 bd c9 24 69 bd 5a e9 9b ba
       0.032916233 -0.052453704 -0.056919847 -0.0011895106
0002b0 e9 f7 b7 3b 76 65 3f bd 70 2e 70 3d 50 4e 10 3d
       0.00561427 -0.04672762 0.058638036 0.035230935
0002c0 81 f0 55 bd bc a4 94 bc 39 90 91 3c 5b 10 88 bc
       -0.052231316 -0.018144958 0.017768966 -0.016609361
0002d0 67 61 4e bd f7 26 09 3d c2 e3 80 3d f5 25 30 3c
       -0.05038586 0.033484425 0.06293441 0.010751237
0002e0 a6 1d e8 3c cf 6f 37 bd 37 21 91 3c c9 c7 57 3d
       0.02833445 -0.044784363 0.017716033 0.052680764
0002f0 8f e7 25 bd b1 86 81 3d c4 73 27 bd 37 f3 8a 3d
       -0.040504035 0.063245185 -0.040881887 0.06784671
000300 68 f9 6b 3d f4 0e 1f 3d ee c1 92 3c 5d ad 72 3d
       0.0576109 0.03883262 0.017914739 0.059247363
000310 0d 51 d6 bc c2 85 e3 bc 27 a7 8a 3d c2 8a ba 3c
       -0.026161695 -0.027773742 0.06770163 0.022771243
000320 35 a4 0c bd a6 4f 6f bd be af 05 3d 45 77 b0 bd
       -0.034336288 -0.058425568 0.032638304 -0.08616499
000330 18 4b 09 bb 6a 64 88 bd 08 eb d5 3c 35 d2 17 bd
       -0.00209493 -0.066597775 0.026113048 -0.037065703
000340 64 ef a1 bd 1d 68 57 bd 41 04 3f 3d 02 61 8f bd
       -0.07906988 -0.052589525 0.046634916 -0.07000925
000350 80 4a 0c bd b3 2e a0 bc 73 ca b4 bd 80 b2 91 3d
       -0.034250736 -0.019553518 -0.088276766 0.07114124
000360 ff 20 5c bd 4d f4 9b bb 09 c4 f6 3c ee ca a3 3d
       -0.053742405 -0.0047593475 0.030122774 0.0799769
000370 33 c2 9c bc 40 9f db bc aa 76 90 3b c6 db 5d 3d
       -0.01913557 -0.026809335 0.004408677 0.05416467
000380 09 02 a7 bd 39 58 92 3d 94 9f 68 3d 96 1e 99 bd
       -0.08154685 0.071457334 0.05679281 -0.07476537
000390 cf 35 8a 3d 12 f7 55 bc b0 e4 99 3d 6e 9f 91 3d
       0.067485444 -0.013059394 0.07514322 0.07110487
0003a0 47 b9 86 3d 57 4b 9a 3d 21 9b 4b 3d 8c 2c af bc
       0.065783076 0.07533901 0.04970849 -0.021383546
0003b0 d2 f4 ff 3c 90 36 b6 bd 62 c7 3a 3d 81 7f 3b 3d
       0.03124467 -0.08897126 0.045600303 0.045775894
0003c0 aa 22 08 3c f0 63 81 3d b5 62 02 bd 8f 2b 82 bd
       0.008309046 0.0631789 -0.031832416 -0.063559644
0003d0 14 b4 06 3d c3 28 a0 3d 4a 8b a3 3d ce c1 52 3d
       0.03288658 0.07820275 0.07985552 0.051454358
0003e0 26 4f ac 3d bb ec 90 bb c4 44 3d ba 0a af c8 bc
       0.08413534 -0.0044227517 -0.00072200247 -0.024497528
0003f0 83 f2 88 bd a2 f9 93 bd 98 c6 44 3d b0 22 2c bd
       -0.066868804 -0.07225348 0.048040956 -0.042025268

f_h.mlp.c_fc.bias f4 [512]
000000 d0 43 d9 3c 0c 61 89 3d 94 19 1a bd e6 7e 93 3c
       0.026521593 0.06707963 -0.03762205 0.018004846
000010 9f 3c 49 bc c0 5e 49 3d bc 43 9c 3c ac 2e 3c 3d
       -0.01228252 0.049162626 0.019075267 0.045942947
000020 7f d3 08 3d fb 46 85 bd dd db cb 3c 60 66 5b bd
       0.033404823 -0.06507679 0.024885112 -0.05356443
000030 a4 6d f0 3c d2 c2 8b 3c 5c 4f 70 3d 4b c1 50 bd
       0.029349156 0.017060671 0.058669433 -0.05096559
000040 8f 4e a7 bd 3c c5 cc bb 18 c0 92 bd 17 dd 8a bd
       -0.08169281 -0.006249098 -0.07165545 -0.06780451
000050 fc 73 0d bb 99 53 c2 bd 2d 38 7b bd 2c 74 0b 3c
       -0.0021584025 -0.09488601 -0.06133287 0.008511584
000060 5e df a8 3d b5 ad a6 bd df 14 3e bd d6 56 b8 bd
       0.08245729 -0.08138601 -0.046406623 -0.09000938
000070 07 51 ad 3d df e0 83 3d 1a 07 4b bd 99 f3 dd 3c
       0.0846272 0.06439375 -0.04956732 0.027093695
000080 f3 28 93 bd 26 50 3f bd 14 ca f2 39 14 c5 94 bc
       -0.07185545 -0.046707295 0.00046308397 -0.01816038
000090 4f 05 2f 3d 6e 1c 89 3d 8c fe ee bc fa a7 80 bd
       0.042729672 0.06694876 -0.029174112 -0.06282039
0000a0 05 79 9b 3d ce cb 06 3d e2 a1 8e 3d 83 68 6c 3d
       0.07591442 0.032909207 0.069644704 0.057716858
0000b0 8e fa 41 3d 80 bb 7e 3d a2 3c 91 3d 13 0b c8 3c
       0.04735809 0.062190533 0.07091643 0.024419343
0000c0 ac 26 86 bd 19 96 5e bc 33 b7 bb bc 63 0e 2f 3d
       -0.06550345 -0.013585591 -0.022914505 0.04273833
0000d0 9e 1d 1e 3b 8d a4 b9 bd 09 77 92 bc ea 8a 89 bc
       0.002412654 -0.09064589 -0.017879026 -0.016789872
0000e0 bc d2 20 bd 35 83 9e 3d 35 56 fe 3a 15 5a 95 bc
       -0.039263472 0.077398695 0.0019404354 -0.018231431
0000f0 62 76 18 3d fb 30 b0 3d 7e 38 8a 3d 52 d5 9f 3d
       0.037222274 0.08603092 0.06749056 0.078043595
000100 08 d7 d9 bb e4 8f 9e 3d b0 51 3d bd 66 b9 f1 3c
       -0.006647948 0.07742289 -0.04622048 0.02950735
000110 26 cf 67 3c fd 3e a4 3d e4 5b 7c 3c f5 e3 5f 3c
       0.014148509 0.080198266 0.015402768 0.013665189
000120 d3 b6 99 bd 13 eb de 3c 81 b7 31 3d 75 0e 9d ba
       -0.07505574 0.027211701 0.043387894 -0.0011982458
000130 63 6b a0 3c 0e 69 08 3d cd 13 2e 3d 10 c1 5d bd
       0.019582456 0.033303313 0.042499352 -0.054139197
000140 5b 36 85 bc af 79 80 bd ed 88 22 bd 34 4d e7 3c
       -0.01626127 -0.06273209 -0.039681364 0.028235056
000150 98 97 a4 bd 19 2f ce bc 4d 67 80 bc 2e 59 4c 3d
       -0.08036727 -0.025168942 -0.015674258 0.049889736
000160 f8 84 16 bd f4 e0 12 bd 76 9b d4 bc b2 cc 8f bd
       -0.036747903 -0.035859063 -0.025953036 -0.070214644
000170 7f 6d 2b bd ec d5 83 3b 14 26 0b 3c 89 16 c8 3c
       -0.04185247 0.004023304 0.008492965 0.024424808
000180 73 04 72 3d 8c a1 75 3d 6b 47 21 3d ce 9a 9b 3d
       0.059086274 0.059968516 0.03937475 0.07597886
000190 ab 17 7b bd 5f 3c 1b bd 39 cb ae bd 02 99 4f 3c
       -0.06130187 -0.03789937 -0.085348554 0.012670757
0001a0 ba d6 0e 3c f6 fe 96 bd a6 20 6a 3d 54 e6 cd bc
       0.008718187 -0.07372849 0.057160042 -0.025134243
0001b0 6c 13 ea bc 82 26 62 3d d8 bd 09 bc b3 9f 9f bd
       -0.028573714 0.055212505 -0.008407079 -0.07794132
0001c0 48 4c 08 3d ca 49 a3 3d 2b 36 8d bd 8f 65 6f 3d
       0.033275872 0.079730585 -0.06895097 0.058446463
0001d0 37 57 43 3d 35 f1 81 bd e6 49 84 3c eb 9a 9c bc
       0.047690596 -0.06344835 0.016148519 -0.01911684
0001e0 7d 59 67 3d bf 47 94 bd 8e b0 66 3d 5c 08 82 bd
       0.056481827 -0.07240247 0.05632072 -0.06349251
0001f0 89 2c 18 3d 8d 6a 5f bc a2 75 11 3d 5d ca 55 3d
       0.037151847 -0.0136362435 0.035512574 0.05219494
000200 da bc 4f 3d ce 13 6d 3c 0f 7d aa 3d 43 c6 d8 3b
       0.050717212 0.014470054 0.08324634 0.0066154315
000210 d0 c1 0c bc 8d 05 f3 3c 7c d9 47 bd 7e b9 9e 3d
       -0.00859113 0.029665733 -0.048791394 0.077502236
000220 2d d2 5c 3d 90 19 73 3d 25 29 5f bd 9f 5c 0e 3d
       0.053911377 0.05935055 -0.054482598 0.0347563
000230 4c af 76 bb e6 1c 49 bd 06 0f 99 3d ac fc 9d 3b
       -0.0037641106 -0.049099825 0.074735686 0.0048213806
000240 03 66 1a 3d 57 bf 5b 3d 77 a6 d1 3b 6a 5c 2c 3d
       0.037694942 0.053649273 0.006398018 0.04208032
000250 3a f2 6b 3d 03 d5 e4 bb 9b 5c 74 3d e0 fd 46 3d
       0.057604052 -0.006983401 0.059658628 0.048581958
000260 c4 e9 81 bd 3c 50 f0 3c 02 71 34 bd 3a 56 16 3d
       -0.063434154 0.029335134 -0.044053085 0.036703326
000270 d6 21 24 bd 21 e6 ba 3b e4 8d 45 bd 3b 10 7b 3d
       -0.04007133 0.005703703 -0.04823102 0.061294775
000280 3e fc 43 bd 14 81 6b bd 9f 60 8f bd 32 36 96 3d
       -0.04784798 -0.057496145 -0.07000851 0.07334556
000290 5d 9e 87 3d 92 ce 41 3d 4c ab 9f 3c cd 9d 92 bc
       0.06622002 0.04731614 0.01949086 -0.01789751
0002a0 c3 96 86 bd 47 74 4c 3c 1d d9 a4 bc d5 d9 e9 bb
       -0.06571724 0.012478895 -0.020123059 -0.0071365633
0002b0 f4 9f ae bd 07 2d b0 3d 9d 9d 80 bd 71 c5 3b bd
       -0.085266024 0.08602338 -0.06280062 -0.04584259
0002c0 fd cf 82 bd af c0 e0 bc f6 3a ac bd 95 a8 4a bc
       -0.06387327 -0.027435629 -0.084096834 -0.012369295
0002d0 2f f6 06 3d 03 7d f4 bc b9 56 99 3d 8e 4b 94 3d
       0.032949623 -0.029844766 0.07487244 0.072409734
0002e0 bf 5b 15 bd 3b 66 ab bc 16 f9 77 3d e5 a8 bf 3c
       -0.03646445 -0.02092277 0.06054028 0.023395965
0002f0 f7 b7 a2 bc d5 e9 10 bc 67 eb 0b bd 86 41 6a 3d
       -0.019863112 -0.008844812 -0.034160044 0.057191394
000300 38 25 1a 3c cc 6a 6e 3d 9f 97 1e bd 51 32 8a 3c
       0.009408288 0.05820732 -0.038718816 0.016869696
000310 09 93 aa 3c 5e a6 9f bd 55 a1 ac 3d c5 e7 29 bd
       0.020822065 -0.07795404 0.08429209 -0.0414808
000320 3f e7 9c bd d7 c5 0c bc c6 52 7a 3d 80 28 43 bd
       -0.07661294 -0.008592091 0.061114095 -0.047646046
000330 c6 71 74 bd 3b 3c a6 3d ed 40 97 bd 01 3a 38 bd
       -0.059678815 0.08116957 -0.073854305 -0.04497719
000340 e5 38 88 3d 20 a6 7b bd d2 0b 34 3d a7 a8 e7 bb
       0.06651477 -0.061437726 0.043956585 -0.0070696655
000350 34 0e a6 bd 45 fe 5d 3c f5 6a 21 3d 4a 82 4b bd
       -0.08108178 0.013549392 0.039408643 -0.0496848
000360 78 30 ac 3d 27 ee 63 bd 67 26 b3 3d 02 d6 46 bc
       0.08407682 -0.05564704 0.08747559 -0.012135984
000370 c1 e8 2f bd d2 e8 34 3b 7b 90 82 bb 88 3d 03 bd
       -0.04294658 0.0027604592 -0.0039845086 -0.032041103
000380 9b 2b 11 bd f3 a1 6b 3d 9c ef bc bd 3a 2a 3f 3c
       -0.035441976 0.057527494 -0.09225389 0.011667782
000390 11 7b bc bc 6f d2 82 3d cc 26 67 3d 91 8f 4c bd
       -0.023007901 0.06387793 0.056433484 -0.049941603
0003a0 47 a7 cf bc d9 96 08 3d 88 ba cc 3b 17 eb 31 3c
       -0.025348319 0.033346985 0.006247822 0.010859272
0003b0 ec a2 74 bd 66 81 ad bd c5 4e 22 3d 9a ab 8d 3d
       -0.059725687 -0.084719464 0.0396259 0.06917496
0003c0 e4 e3 9f 3d 58 3b 81 3d bf 67 30 3c d6 e7 04 3c
       0.078071386 0.06310147 0.0107669225 0.008111915
0003d0 38 46 48 3d 2d 6e 80 3d bb 46 e0 bc c5 d2 62 3c
       0.04889509 0.06271014 -0.027377477 0.013844197
0003e0 98 87 99 bd b7 e7 46 bd 53 f6 17 bd c6 77 4e bd
       -0.074965656 -0.048560824 -0.037100147 -0.050407194
0003f0 56 a2 80 3d 3d 9a aa 3d ff bc 90 3d 1d c0 a8 3d
       0.06280963 0.083302 0.07067298 0.08239768
